{
	"format": "graph-model",
	"generatedBy": "2.12.0",
	"convertedBy": "TensorFlow.js Converter v4.6.0",
	"signature": {
		"inputs": {
			"actual_input": {
				"name": "actual_input:0",
				"dtype": "DT_FLOAT",
				"tensorShape": {
					"dim": [
						{
							"size": "2"
						},
						{
							"size": "3"
						},
						{
							"size": "640"
						},
						{
							"size": "640"
						}
					]
				}
			}
		},
		"outputs": {
			"onnx::Reshape_702": {
				"name": "Identity:0",
				"dtype": "DT_FLOAT",
				"tensorShape": {
					"dim": [
						{
							"size": "2"
						},
						{
							"size": "65"
						},
						{
							"size": "80"
						},
						{
							"size": "80"
						}
					]
				}
			},
			"onnx::Reshape_721": {
				"name": "Identity_1:0",
				"dtype": "DT_FLOAT",
				"tensorShape": {
					"dim": [
						{
							"size": "2"
						},
						{
							"size": "65"
						},
						{
							"size": "40"
						},
						{
							"size": "40"
						}
					]
				}
			},
			"onnx::Reshape_740": {
				"name": "Identity_2:0",
				"dtype": "DT_FLOAT",
				"tensorShape": {
					"dim": [
						{
							"size": "2"
						},
						{
							"size": "65"
						},
						{
							"size": "20"
						},
						{
							"size": "20"
						}
					]
				}
			},
			"output": {
				"name": "Identity_3:0",
				"dtype": "DT_FLOAT",
				"tensorShape": {
					"dim": [
						{
							"size": "2"
						},
						{
							"size": "5"
						},
						{
							"size": "8400"
						}
					]
				}
			}
		}
	},
	"modelTopology": {
		"node": [
			{
				"name": "ConstantFolding/StatefulPartitionedCall/onnx_tf_prefix_/model.22/Div_1_recip",
				"op": "Const",
				"attr": {
					"value": {
						"tensor": {
							"dtype": "DT_FLOAT",
							"tensorShape": {}
						}
					},
					"dtype": {
						"type": "DT_FLOAT"
					}
				}
			},
			{
				"name": "StatefulPartitionedCall/onnx_tf_prefix_/model.22/Constant_10",
				"op": "Const",
				"attr": {
					"value": {
						"tensor": {
							"dtype": "DT_FLOAT",
							"tensorShape": {
								"dim": [
									{
										"size": "1"
									},
									{
										"size": "2"
									},
									{
										"size": "8400"
									}
								]
							}
						}
					},
					"dtype": {
						"type": "DT_FLOAT"
					}
				}
			},
			{
				"name": "StatefulPartitionedCall/zeros_22",
				"op": "Const",
				"attr": {
					"value": {
						"tensor": {
							"dtype": "DT_INT64",
							"tensorShape": {}
						}
					},
					"dtype": {
						"type": "DT_INT64"
					}
				}
			},
			{
				"name": "StatefulPartitionedCall/Const_81",
				"op": "Const",
				"attr": {
					"value": {
						"tensor": {
							"dtype": "DT_INT64",
							"tensorShape": {}
						}
					},
					"dtype": {
						"type": "DT_INT64"
					}
				}
			},
			{
				"name": "StatefulPartitionedCall/Shape_27",
				"op": "Const",
				"attr": {
					"value": {
						"tensor": {
							"dtype": "DT_INT64",
							"tensorShape": {
								"dim": [
									{
										"size": "3"
									}
								]
							}
						}
					},
					"dtype": {
						"type": "DT_INT64"
					}
				}
			},
			{
				"name": "StatefulPartitionedCall/ExpandDims_17",
				"op": "Const",
				"attr": {
					"value": {
						"tensor": {
							"dtype": "DT_INT64",
							"tensorShape": {
								"dim": [
									{
										"size": "1"
									},
									{
										"size": "1"
									}
								]
							}
						}
					},
					"dtype": {
						"type": "DT_INT64"
					}
				}
			},
			{
				"name": "StatefulPartitionedCall/Cast_71",
				"op": "Const",
				"attr": {
					"value": {
						"tensor": {
							"dtype": "DT_INT64",
							"tensorShape": {
								"dim": [
									{
										"size": "1"
									}
								]
							}
						}
					},
					"dtype": {
						"type": "DT_INT64"
					}
				}
			},
			{
				"name": "StatefulPartitionedCall/Const_80",
				"op": "Const",
				"attr": {
					"value": {
						"tensor": {
							"dtype": "DT_INT64",
							"tensorShape": {}
						}
					},
					"dtype": {
						"type": "DT_INT64"
					}
				}
			},
			{
				"name": "StatefulPartitionedCall/ones_17",
				"op": "Const",
				"attr": {
					"value": {
						"tensor": {
							"dtype": "DT_INT64",
							"tensorShape": {
								"dim": [
									{
										"size": "3"
									}
								]
							}
						}
					},
					"dtype": {
						"type": "DT_INT64"
					}
				}
			},
			{
				"name": "StatefulPartitionedCall/onnx_tf_prefix_/model.22/Constant_9",
				"op": "Const",
				"attr": {
					"value": {
						"tensor": {
							"dtype": "DT_FLOAT",
							"tensorShape": {
								"dim": [
									{
										"size": "1"
									},
									{
										"size": "2"
									},
									{
										"size": "8400"
									}
								]
							}
						}
					},
					"dtype": {
						"type": "DT_FLOAT"
					}
				}
			},
			{
				"name": "StatefulPartitionedCall/onnx_tf_prefix_/model.22/dfl/Constant",
				"op": "Const",
				"attr": {
					"value": {
						"tensor": {
							"dtype": "DT_INT64",
							"tensorShape": {
								"dim": [
									{
										"size": "4"
									}
								]
							}
						}
					},
					"dtype": {
						"type": "DT_INT64"
					}
				}
			},
			{
				"name": "StatefulPartitionedCall/Where_3",
				"op": "Const",
				"attr": {
					"value": {
						"tensor": {
							"dtype": "DT_INT64",
							"tensorShape": {
								"dim": [
									{},
									{
										"size": "1"
									}
								]
							}
						}
					},
					"dtype": {
						"type": "DT_INT64"
					}
				}
			},
			{
				"name": "StatefulPartitionedCall/Cast_63",
				"op": "Const",
				"attr": {
					"value": {
						"tensor": {
							"dtype": "DT_INT64",
							"tensorShape": {
								"dim": [
									{
										"size": "1"
									}
								]
							}
						}
					},
					"dtype": {
						"type": "DT_INT64"
					}
				}
			},
			{
				"name": "StatefulPartitionedCall/GatherV2_3",
				"op": "Const",
				"attr": {
					"value": {
						"tensor": {
							"dtype": "DT_INT64",
							"tensorShape": {
								"dim": [
									{}
								]
							}
						}
					},
					"dtype": {
						"type": "DT_INT64"
					}
				}
			},
			{
				"name": "StatefulPartitionedCall/zeros_19",
				"op": "Const",
				"attr": {
					"value": {
						"tensor": {
							"dtype": "DT_INT64",
							"tensorShape": {}
						}
					},
					"dtype": {
						"type": "DT_INT64"
					}
				}
			},
			{
				"name": "StatefulPartitionedCall/onnx_tf_prefix_/model.22/dfl/Transpose/perm",
				"op": "Const",
				"attr": {
					"value": {
						"tensor": {
							"dtype": "DT_INT32",
							"tensorShape": {
								"dim": [
									{
										"size": "4"
									}
								]
							}
						}
					},
					"dtype": {
						"type": "DT_INT32"
					}
				}
			},
			{
				"name": "StatefulPartitionedCall/concat_63",
				"op": "Const",
				"attr": {
					"value": {
						"tensor": {
							"dtype": "DT_INT32",
							"tensorShape": {
								"dim": [
									{
										"size": "4"
									}
								]
							}
						}
					},
					"dtype": {
						"type": "DT_INT32"
					}
				}
			},
			{
				"name": "StatefulPartitionedCall/concat_64",
				"op": "Const",
				"attr": {
					"value": {
						"tensor": {
							"dtype": "DT_INT32",
							"tensorShape": {
								"dim": [
									{
										"size": "4"
									}
								]
							}
						}
					},
					"dtype": {
						"type": "DT_INT32"
					}
				}
			},
			{
				"name": "StatefulPartitionedCall/transpose_201/perm",
				"op": "Const",
				"attr": {
					"value": {
						"tensor": {
							"dtype": "DT_INT32",
							"tensorShape": {
								"dim": [
									{
										"size": "4"
									}
								]
							}
						}
					},
					"dtype": {
						"type": "DT_INT32"
					}
				}
			},
			{
				"name": "StatefulPartitionedCall/split_63",
				"op": "Const",
				"attr": {
					"value": {
						"tensor": {
							"dtype": "DT_FLOAT",
							"tensorShape": {
								"dim": [
									{
										"size": "1"
									},
									{
										"size": "1"
									},
									{
										"size": "16"
									},
									{
										"size": "1"
									}
								]
							}
						}
					},
					"dtype": {
						"type": "DT_FLOAT"
					}
				}
			},
			{
				"name": "StatefulPartitionedCall/transpose_202/perm",
				"op": "Const",
				"attr": {
					"value": {
						"tensor": {
							"dtype": "DT_INT32",
							"tensorShape": {
								"dim": [
									{
										"size": "4"
									}
								]
							}
						}
					},
					"dtype": {
						"type": "DT_INT32"
					}
				}
			},
			{
				"name": "StatefulPartitionedCall/onnx_tf_prefix_/model.22/dfl/Constant_1",
				"op": "Const",
				"attr": {
					"value": {
						"tensor": {
							"dtype": "DT_INT64",
							"tensorShape": {
								"dim": [
									{
										"size": "3"
									}
								]
							}
						}
					},
					"dtype": {
						"type": "DT_INT64"
					}
				}
			},
			{
				"name": "StatefulPartitionedCall/Where_4",
				"op": "Const",
				"attr": {
					"value": {
						"tensor": {
							"dtype": "DT_INT64",
							"tensorShape": {
								"dim": [
									{},
									{
										"size": "1"
									}
								]
							}
						}
					},
					"dtype": {
						"type": "DT_INT64"
					}
				}
			},
			{
				"name": "StatefulPartitionedCall/Cast_64",
				"op": "Const",
				"attr": {
					"value": {
						"tensor": {
							"dtype": "DT_INT64",
							"tensorShape": {
								"dim": [
									{
										"size": "1"
									}
								]
							}
						}
					},
					"dtype": {
						"type": "DT_INT64"
					}
				}
			},
			{
				"name": "StatefulPartitionedCall/GatherV2_4",
				"op": "Const",
				"attr": {
					"value": {
						"tensor": {
							"dtype": "DT_INT64",
							"tensorShape": {
								"dim": [
									{}
								]
							}
						}
					},
					"dtype": {
						"type": "DT_INT64"
					}
				}
			},
			{
				"name": "StatefulPartitionedCall/zeros_20",
				"op": "Const",
				"attr": {
					"value": {
						"tensor": {
							"dtype": "DT_INT64",
							"tensorShape": {}
						}
					},
					"dtype": {
						"type": "DT_INT64"
					}
				}
			},
			{
				"name": "StatefulPartitionedCall/SelectV2_65",
				"op": "Const",
				"attr": {
					"value": {
						"tensor": {
							"dtype": "DT_INT64",
							"tensorShape": {
								"dim": [
									{
										"size": "1"
									}
								]
							}
						}
					},
					"dtype": {
						"type": "DT_INT64"
					}
				}
			},
			{
				"name": "StatefulPartitionedCall/zeros_21",
				"op": "Const",
				"attr": {
					"value": {
						"tensor": {
							"dtype": "DT_INT64",
							"tensorShape": {}
						}
					},
					"dtype": {
						"type": "DT_INT64"
					}
				}
			},
			{
				"name": "StatefulPartitionedCall/Const_79",
				"op": "Const",
				"attr": {
					"value": {
						"tensor": {
							"dtype": "DT_INT64",
							"tensorShape": {}
						}
					},
					"dtype": {
						"type": "DT_INT64"
					}
				}
			},
			{
				"name": "StatefulPartitionedCall/Shape_26",
				"op": "Const",
				"attr": {
					"value": {
						"tensor": {
							"dtype": "DT_INT64",
							"tensorShape": {
								"dim": [
									{
										"size": "3"
									}
								]
							}
						}
					},
					"dtype": {
						"type": "DT_INT64"
					}
				}
			},
			{
				"name": "StatefulPartitionedCall/ExpandDims_16",
				"op": "Const",
				"attr": {
					"value": {
						"tensor": {
							"dtype": "DT_INT64",
							"tensorShape": {
								"dim": [
									{
										"size": "1"
									},
									{
										"size": "1"
									}
								]
							}
						}
					},
					"dtype": {
						"type": "DT_INT64"
					}
				}
			},
			{
				"name": "StatefulPartitionedCall/Cast_69",
				"op": "Const",
				"attr": {
					"value": {
						"tensor": {
							"dtype": "DT_INT64",
							"tensorShape": {
								"dim": [
									{
										"size": "1"
									}
								]
							}
						}
					},
					"dtype": {
						"type": "DT_INT64"
					}
				}
			},
			{
				"name": "StatefulPartitionedCall/Const_78",
				"op": "Const",
				"attr": {
					"value": {
						"tensor": {
							"dtype": "DT_INT64",
							"tensorShape": {}
						}
					},
					"dtype": {
						"type": "DT_INT64"
					}
				}
			},
			{
				"name": "StatefulPartitionedCall/ones_16",
				"op": "Const",
				"attr": {
					"value": {
						"tensor": {
							"dtype": "DT_INT64",
							"tensorShape": {
								"dim": [
									{
										"size": "3"
									}
								]
							}
						}
					},
					"dtype": {
						"type": "DT_INT64"
					}
				}
			},
			{
				"name": "StatefulPartitionedCall/onnx_tf_prefix_/model.22/Concat_4/axis",
				"op": "Const",
				"attr": {
					"value": {
						"tensor": {
							"dtype": "DT_INT32",
							"tensorShape": {}
						}
					},
					"dtype": {
						"type": "DT_INT32"
					}
				}
			},
			{
				"name": "StatefulPartitionedCall/onnx_tf_prefix_/model.22/Constant_12",
				"op": "Const",
				"attr": {
					"value": {
						"tensor": {
							"dtype": "DT_FLOAT",
							"tensorShape": {
								"dim": [
									{
										"size": "1"
									},
									{
										"size": "8400"
									}
								]
							}
						}
					},
					"dtype": {
						"type": "DT_FLOAT"
					}
				}
			},
			{
				"name": "StatefulPartitionedCall/Const_61",
				"op": "Const",
				"attr": {
					"value": {
						"tensor": {
							"dtype": "DT_INT32",
							"tensorShape": {
								"dim": [
									{
										"size": "4"
									},
									{
										"size": "2"
									}
								]
							}
						}
					},
					"dtype": {
						"type": "DT_INT32"
					}
				}
			},
			{
				"name": "StatefulPartitionedCall/transpose_146/perm",
				"op": "Const",
				"attr": {
					"value": {
						"tensor": {
							"dtype": "DT_INT32",
							"tensorShape": {
								"dim": [
									{
										"size": "4"
									}
								]
							}
						}
					},
					"dtype": {
						"type": "DT_INT32"
					}
				}
			},
			{
				"name": "StatefulPartitionedCall/split_45",
				"op": "Const",
				"attr": {
					"value": {
						"tensor": {
							"dtype": "DT_FLOAT",
							"tensorShape": {
								"dim": [
									{
										"size": "3"
									},
									{
										"size": "3"
									},
									{
										"size": "64"
									},
									{
										"size": "64"
									}
								]
							}
						}
					},
					"dtype": {
						"type": "DT_FLOAT"
					}
				}
			},
			{
				"name": "unknown_90",
				"op": "Const",
				"attr": {
					"value": {
						"tensor": {
							"dtype": "DT_FLOAT",
							"tensorShape": {
								"dim": [
									{
										"size": "64"
									}
								]
							}
						}
					},
					"dtype": {
						"type": "DT_FLOAT"
					}
				}
			},
			{
				"name": "StatefulPartitionedCall/transpose_147/perm",
				"op": "Const",
				"attr": {
					"value": {
						"tensor": {
							"dtype": "DT_INT32",
							"tensorShape": {
								"dim": [
									{
										"size": "4"
									}
								]
							}
						}
					},
					"dtype": {
						"type": "DT_INT32"
					}
				}
			},
			{
				"name": "StatefulPartitionedCall/Const_62",
				"op": "Const",
				"attr": {
					"value": {
						"tensor": {
							"dtype": "DT_INT32",
							"tensorShape": {
								"dim": [
									{
										"size": "4"
									},
									{
										"size": "2"
									}
								]
							}
						}
					},
					"dtype": {
						"type": "DT_INT32"
					}
				}
			},
			{
				"name": "StatefulPartitionedCall/transpose_149/perm",
				"op": "Const",
				"attr": {
					"value": {
						"tensor": {
							"dtype": "DT_INT32",
							"tensorShape": {
								"dim": [
									{
										"size": "4"
									}
								]
							}
						}
					},
					"dtype": {
						"type": "DT_INT32"
					}
				}
			},
			{
				"name": "StatefulPartitionedCall/split_46",
				"op": "Const",
				"attr": {
					"value": {
						"tensor": {
							"dtype": "DT_FLOAT",
							"tensorShape": {
								"dim": [
									{
										"size": "3"
									},
									{
										"size": "3"
									},
									{
										"size": "64"
									},
									{
										"size": "64"
									}
								]
							}
						}
					},
					"dtype": {
						"type": "DT_FLOAT"
					}
				}
			},
			{
				"name": "unknown_92",
				"op": "Const",
				"attr": {
					"value": {
						"tensor": {
							"dtype": "DT_FLOAT",
							"tensorShape": {
								"dim": [
									{
										"size": "64"
									}
								]
							}
						}
					},
					"dtype": {
						"type": "DT_FLOAT"
					}
				}
			},
			{
				"name": "StatefulPartitionedCall/transpose_150/perm",
				"op": "Const",
				"attr": {
					"value": {
						"tensor": {
							"dtype": "DT_INT32",
							"tensorShape": {
								"dim": [
									{
										"size": "4"
									}
								]
							}
						}
					},
					"dtype": {
						"type": "DT_INT32"
					}
				}
			},
			{
				"name": "StatefulPartitionedCall/transpose_152/perm",
				"op": "Const",
				"attr": {
					"value": {
						"tensor": {
							"dtype": "DT_INT32",
							"tensorShape": {
								"dim": [
									{
										"size": "4"
									}
								]
							}
						}
					},
					"dtype": {
						"type": "DT_INT32"
					}
				}
			},
			{
				"name": "StatefulPartitionedCall/split_47",
				"op": "Const",
				"attr": {
					"value": {
						"tensor": {
							"dtype": "DT_FLOAT",
							"tensorShape": {
								"dim": [
									{
										"size": "1"
									},
									{
										"size": "1"
									},
									{
										"size": "64"
									},
									{
										"size": "64"
									}
								]
							}
						}
					},
					"dtype": {
						"type": "DT_FLOAT"
					}
				}
			},
			{
				"name": "unknown_94",
				"op": "Const",
				"attr": {
					"value": {
						"tensor": {
							"dtype": "DT_FLOAT",
							"tensorShape": {
								"dim": [
									{
										"size": "64"
									}
								]
							}
						}
					},
					"dtype": {
						"type": "DT_FLOAT"
					}
				}
			},
			{
				"name": "StatefulPartitionedCall/transpose_153/perm",
				"op": "Const",
				"attr": {
					"value": {
						"tensor": {
							"dtype": "DT_INT32",
							"tensorShape": {
								"dim": [
									{
										"size": "4"
									}
								]
							}
						}
					},
					"dtype": {
						"type": "DT_INT32"
					}
				}
			},
			{
				"name": "StatefulPartitionedCall/Const_63",
				"op": "Const",
				"attr": {
					"value": {
						"tensor": {
							"dtype": "DT_INT32",
							"tensorShape": {
								"dim": [
									{
										"size": "4"
									},
									{
										"size": "2"
									}
								]
							}
						}
					},
					"dtype": {
						"type": "DT_INT32"
					}
				}
			},
			{
				"name": "StatefulPartitionedCall/transpose_155/perm",
				"op": "Const",
				"attr": {
					"value": {
						"tensor": {
							"dtype": "DT_INT32",
							"tensorShape": {
								"dim": [
									{
										"size": "4"
									}
								]
							}
						}
					},
					"dtype": {
						"type": "DT_INT32"
					}
				}
			},
			{
				"name": "StatefulPartitionedCall/split_48",
				"op": "Const",
				"attr": {
					"value": {
						"tensor": {
							"dtype": "DT_FLOAT",
							"tensorShape": {
								"dim": [
									{
										"size": "3"
									},
									{
										"size": "3"
									},
									{
										"size": "64"
									},
									{
										"size": "64"
									}
								]
							}
						}
					},
					"dtype": {
						"type": "DT_FLOAT"
					}
				}
			},
			{
				"name": "unknown_96",
				"op": "Const",
				"attr": {
					"value": {
						"tensor": {
							"dtype": "DT_FLOAT",
							"tensorShape": {
								"dim": [
									{
										"size": "64"
									}
								]
							}
						}
					},
					"dtype": {
						"type": "DT_FLOAT"
					}
				}
			},
			{
				"name": "StatefulPartitionedCall/transpose_156/perm",
				"op": "Const",
				"attr": {
					"value": {
						"tensor": {
							"dtype": "DT_INT32",
							"tensorShape": {
								"dim": [
									{
										"size": "4"
									}
								]
							}
						}
					},
					"dtype": {
						"type": "DT_INT32"
					}
				}
			},
			{
				"name": "StatefulPartitionedCall/Const_64",
				"op": "Const",
				"attr": {
					"value": {
						"tensor": {
							"dtype": "DT_INT32",
							"tensorShape": {
								"dim": [
									{
										"size": "4"
									},
									{
										"size": "2"
									}
								]
							}
						}
					},
					"dtype": {
						"type": "DT_INT32"
					}
				}
			},
			{
				"name": "StatefulPartitionedCall/transpose_158/perm",
				"op": "Const",
				"attr": {
					"value": {
						"tensor": {
							"dtype": "DT_INT32",
							"tensorShape": {
								"dim": [
									{
										"size": "4"
									}
								]
							}
						}
					},
					"dtype": {
						"type": "DT_INT32"
					}
				}
			},
			{
				"name": "StatefulPartitionedCall/split_49",
				"op": "Const",
				"attr": {
					"value": {
						"tensor": {
							"dtype": "DT_FLOAT",
							"tensorShape": {
								"dim": [
									{
										"size": "3"
									},
									{
										"size": "3"
									},
									{
										"size": "64"
									},
									{
										"size": "64"
									}
								]
							}
						}
					},
					"dtype": {
						"type": "DT_FLOAT"
					}
				}
			},
			{
				"name": "unknown_98",
				"op": "Const",
				"attr": {
					"value": {
						"tensor": {
							"dtype": "DT_FLOAT",
							"tensorShape": {
								"dim": [
									{
										"size": "64"
									}
								]
							}
						}
					},
					"dtype": {
						"type": "DT_FLOAT"
					}
				}
			},
			{
				"name": "StatefulPartitionedCall/transpose_159/perm",
				"op": "Const",
				"attr": {
					"value": {
						"tensor": {
							"dtype": "DT_INT32",
							"tensorShape": {
								"dim": [
									{
										"size": "4"
									}
								]
							}
						}
					},
					"dtype": {
						"type": "DT_INT32"
					}
				}
			},
			{
				"name": "StatefulPartitionedCall/transpose_161/perm",
				"op": "Const",
				"attr": {
					"value": {
						"tensor": {
							"dtype": "DT_INT32",
							"tensorShape": {
								"dim": [
									{
										"size": "4"
									}
								]
							}
						}
					},
					"dtype": {
						"type": "DT_INT32"
					}
				}
			},
			{
				"name": "StatefulPartitionedCall/split_50",
				"op": "Const",
				"attr": {
					"value": {
						"tensor": {
							"dtype": "DT_FLOAT",
							"tensorShape": {
								"dim": [
									{
										"size": "1"
									},
									{
										"size": "1"
									},
									{
										"size": "64"
									},
									{
										"size": "1"
									}
								]
							}
						}
					},
					"dtype": {
						"type": "DT_FLOAT"
					}
				}
			},
			{
				"name": "unknown_100",
				"op": "Const",
				"attr": {
					"value": {
						"tensor": {
							"dtype": "DT_FLOAT",
							"tensorShape": {
								"dim": [
									{
										"size": "1"
									}
								]
							}
						}
					},
					"dtype": {
						"type": "DT_FLOAT"
					}
				}
			},
			{
				"name": "StatefulPartitionedCall/transpose_162/perm",
				"op": "Const",
				"attr": {
					"value": {
						"tensor": {
							"dtype": "DT_INT32",
							"tensorShape": {
								"dim": [
									{
										"size": "4"
									}
								]
							}
						}
					},
					"dtype": {
						"type": "DT_INT32"
					}
				}
			},
			{
				"name": "StatefulPartitionedCall/onnx_tf_prefix_/model.22/Concat/axis",
				"op": "Const",
				"attr": {
					"value": {
						"tensor": {
							"dtype": "DT_INT32",
							"tensorShape": {}
						}
					},
					"dtype": {
						"type": "DT_INT32"
					}
				}
			},
			{
				"name": "StatefulPartitionedCall/onnx_tf_prefix_/model.22/Constant",
				"op": "Const",
				"attr": {
					"value": {
						"tensor": {
							"dtype": "DT_INT64",
							"tensorShape": {
								"dim": [
									{
										"size": "3"
									}
								]
							}
						}
					},
					"dtype": {
						"type": "DT_INT64"
					}
				}
			},
			{
				"name": "StatefulPartitionedCall/Where",
				"op": "Const",
				"attr": {
					"value": {
						"tensor": {
							"dtype": "DT_INT64",
							"tensorShape": {
								"dim": [
									{},
									{
										"size": "1"
									}
								]
							}
						}
					},
					"dtype": {
						"type": "DT_INT64"
					}
				}
			},
			{
				"name": "StatefulPartitionedCall/Cast_60",
				"op": "Const",
				"attr": {
					"value": {
						"tensor": {
							"dtype": "DT_INT64",
							"tensorShape": {
								"dim": [
									{
										"size": "1"
									}
								]
							}
						}
					},
					"dtype": {
						"type": "DT_INT64"
					}
				}
			},
			{
				"name": "StatefulPartitionedCall/GatherV2",
				"op": "Const",
				"attr": {
					"value": {
						"tensor": {
							"dtype": "DT_INT64",
							"tensorShape": {
								"dim": [
									{}
								]
							}
						}
					},
					"dtype": {
						"type": "DT_INT64"
					}
				}
			},
			{
				"name": "StatefulPartitionedCall/zeros_16",
				"op": "Const",
				"attr": {
					"value": {
						"tensor": {
							"dtype": "DT_INT64",
							"tensorShape": {}
						}
					},
					"dtype": {
						"type": "DT_INT64"
					}
				}
			},
			{
				"name": "StatefulPartitionedCall/Const_65",
				"op": "Const",
				"attr": {
					"value": {
						"tensor": {
							"dtype": "DT_INT32",
							"tensorShape": {
								"dim": [
									{
										"size": "4"
									},
									{
										"size": "2"
									}
								]
							}
						}
					},
					"dtype": {
						"type": "DT_INT32"
					}
				}
			},
			{
				"name": "StatefulPartitionedCall/transpose_164/perm",
				"op": "Const",
				"attr": {
					"value": {
						"tensor": {
							"dtype": "DT_INT32",
							"tensorShape": {
								"dim": [
									{
										"size": "4"
									}
								]
							}
						}
					},
					"dtype": {
						"type": "DT_INT32"
					}
				}
			},
			{
				"name": "StatefulPartitionedCall/split_51",
				"op": "Const",
				"attr": {
					"value": {
						"tensor": {
							"dtype": "DT_FLOAT",
							"tensorShape": {
								"dim": [
									{
										"size": "3"
									},
									{
										"size": "3"
									},
									{
										"size": "128"
									},
									{
										"size": "64"
									}
								]
							}
						}
					},
					"dtype": {
						"type": "DT_FLOAT"
					}
				}
			},
			{
				"name": "unknown_102",
				"op": "Const",
				"attr": {
					"value": {
						"tensor": {
							"dtype": "DT_FLOAT",
							"tensorShape": {
								"dim": [
									{
										"size": "64"
									}
								]
							}
						}
					},
					"dtype": {
						"type": "DT_FLOAT"
					}
				}
			},
			{
				"name": "StatefulPartitionedCall/transpose_165/perm",
				"op": "Const",
				"attr": {
					"value": {
						"tensor": {
							"dtype": "DT_INT32",
							"tensorShape": {
								"dim": [
									{
										"size": "4"
									}
								]
							}
						}
					},
					"dtype": {
						"type": "DT_INT32"
					}
				}
			},
			{
				"name": "StatefulPartitionedCall/Const_66",
				"op": "Const",
				"attr": {
					"value": {
						"tensor": {
							"dtype": "DT_INT32",
							"tensorShape": {
								"dim": [
									{
										"size": "4"
									},
									{
										"size": "2"
									}
								]
							}
						}
					},
					"dtype": {
						"type": "DT_INT32"
					}
				}
			},
			{
				"name": "StatefulPartitionedCall/transpose_167/perm",
				"op": "Const",
				"attr": {
					"value": {
						"tensor": {
							"dtype": "DT_INT32",
							"tensorShape": {
								"dim": [
									{
										"size": "4"
									}
								]
							}
						}
					},
					"dtype": {
						"type": "DT_INT32"
					}
				}
			},
			{
				"name": "StatefulPartitionedCall/split_52",
				"op": "Const",
				"attr": {
					"value": {
						"tensor": {
							"dtype": "DT_FLOAT",
							"tensorShape": {
								"dim": [
									{
										"size": "3"
									},
									{
										"size": "3"
									},
									{
										"size": "64"
									},
									{
										"size": "64"
									}
								]
							}
						}
					},
					"dtype": {
						"type": "DT_FLOAT"
					}
				}
			},
			{
				"name": "unknown_104",
				"op": "Const",
				"attr": {
					"value": {
						"tensor": {
							"dtype": "DT_FLOAT",
							"tensorShape": {
								"dim": [
									{
										"size": "64"
									}
								]
							}
						}
					},
					"dtype": {
						"type": "DT_FLOAT"
					}
				}
			},
			{
				"name": "StatefulPartitionedCall/transpose_168/perm",
				"op": "Const",
				"attr": {
					"value": {
						"tensor": {
							"dtype": "DT_INT32",
							"tensorShape": {
								"dim": [
									{
										"size": "4"
									}
								]
							}
						}
					},
					"dtype": {
						"type": "DT_INT32"
					}
				}
			},
			{
				"name": "StatefulPartitionedCall/transpose_170/perm",
				"op": "Const",
				"attr": {
					"value": {
						"tensor": {
							"dtype": "DT_INT32",
							"tensorShape": {
								"dim": [
									{
										"size": "4"
									}
								]
							}
						}
					},
					"dtype": {
						"type": "DT_INT32"
					}
				}
			},
			{
				"name": "StatefulPartitionedCall/split_53",
				"op": "Const",
				"attr": {
					"value": {
						"tensor": {
							"dtype": "DT_FLOAT",
							"tensorShape": {
								"dim": [
									{
										"size": "1"
									},
									{
										"size": "1"
									},
									{
										"size": "64"
									},
									{
										"size": "64"
									}
								]
							}
						}
					},
					"dtype": {
						"type": "DT_FLOAT"
					}
				}
			},
			{
				"name": "unknown_106",
				"op": "Const",
				"attr": {
					"value": {
						"tensor": {
							"dtype": "DT_FLOAT",
							"tensorShape": {
								"dim": [
									{
										"size": "64"
									}
								]
							}
						}
					},
					"dtype": {
						"type": "DT_FLOAT"
					}
				}
			},
			{
				"name": "StatefulPartitionedCall/transpose_171/perm",
				"op": "Const",
				"attr": {
					"value": {
						"tensor": {
							"dtype": "DT_INT32",
							"tensorShape": {
								"dim": [
									{
										"size": "4"
									}
								]
							}
						}
					},
					"dtype": {
						"type": "DT_INT32"
					}
				}
			},
			{
				"name": "StatefulPartitionedCall/Const_67",
				"op": "Const",
				"attr": {
					"value": {
						"tensor": {
							"dtype": "DT_INT32",
							"tensorShape": {
								"dim": [
									{
										"size": "4"
									},
									{
										"size": "2"
									}
								]
							}
						}
					},
					"dtype": {
						"type": "DT_INT32"
					}
				}
			},
			{
				"name": "StatefulPartitionedCall/transpose_173/perm",
				"op": "Const",
				"attr": {
					"value": {
						"tensor": {
							"dtype": "DT_INT32",
							"tensorShape": {
								"dim": [
									{
										"size": "4"
									}
								]
							}
						}
					},
					"dtype": {
						"type": "DT_INT32"
					}
				}
			},
			{
				"name": "StatefulPartitionedCall/split_54",
				"op": "Const",
				"attr": {
					"value": {
						"tensor": {
							"dtype": "DT_FLOAT",
							"tensorShape": {
								"dim": [
									{
										"size": "3"
									},
									{
										"size": "3"
									},
									{
										"size": "128"
									},
									{
										"size": "64"
									}
								]
							}
						}
					},
					"dtype": {
						"type": "DT_FLOAT"
					}
				}
			},
			{
				"name": "unknown_108",
				"op": "Const",
				"attr": {
					"value": {
						"tensor": {
							"dtype": "DT_FLOAT",
							"tensorShape": {
								"dim": [
									{
										"size": "64"
									}
								]
							}
						}
					},
					"dtype": {
						"type": "DT_FLOAT"
					}
				}
			},
			{
				"name": "StatefulPartitionedCall/transpose_174/perm",
				"op": "Const",
				"attr": {
					"value": {
						"tensor": {
							"dtype": "DT_INT32",
							"tensorShape": {
								"dim": [
									{
										"size": "4"
									}
								]
							}
						}
					},
					"dtype": {
						"type": "DT_INT32"
					}
				}
			},
			{
				"name": "StatefulPartitionedCall/Const_68",
				"op": "Const",
				"attr": {
					"value": {
						"tensor": {
							"dtype": "DT_INT32",
							"tensorShape": {
								"dim": [
									{
										"size": "4"
									},
									{
										"size": "2"
									}
								]
							}
						}
					},
					"dtype": {
						"type": "DT_INT32"
					}
				}
			},
			{
				"name": "StatefulPartitionedCall/transpose_176/perm",
				"op": "Const",
				"attr": {
					"value": {
						"tensor": {
							"dtype": "DT_INT32",
							"tensorShape": {
								"dim": [
									{
										"size": "4"
									}
								]
							}
						}
					},
					"dtype": {
						"type": "DT_INT32"
					}
				}
			},
			{
				"name": "StatefulPartitionedCall/split_55",
				"op": "Const",
				"attr": {
					"value": {
						"tensor": {
							"dtype": "DT_FLOAT",
							"tensorShape": {
								"dim": [
									{
										"size": "3"
									},
									{
										"size": "3"
									},
									{
										"size": "64"
									},
									{
										"size": "64"
									}
								]
							}
						}
					},
					"dtype": {
						"type": "DT_FLOAT"
					}
				}
			},
			{
				"name": "unknown_110",
				"op": "Const",
				"attr": {
					"value": {
						"tensor": {
							"dtype": "DT_FLOAT",
							"tensorShape": {
								"dim": [
									{
										"size": "64"
									}
								]
							}
						}
					},
					"dtype": {
						"type": "DT_FLOAT"
					}
				}
			},
			{
				"name": "StatefulPartitionedCall/transpose_177/perm",
				"op": "Const",
				"attr": {
					"value": {
						"tensor": {
							"dtype": "DT_INT32",
							"tensorShape": {
								"dim": [
									{
										"size": "4"
									}
								]
							}
						}
					},
					"dtype": {
						"type": "DT_INT32"
					}
				}
			},
			{
				"name": "StatefulPartitionedCall/transpose_179/perm",
				"op": "Const",
				"attr": {
					"value": {
						"tensor": {
							"dtype": "DT_INT32",
							"tensorShape": {
								"dim": [
									{
										"size": "4"
									}
								]
							}
						}
					},
					"dtype": {
						"type": "DT_INT32"
					}
				}
			},
			{
				"name": "StatefulPartitionedCall/split_56",
				"op": "Const",
				"attr": {
					"value": {
						"tensor": {
							"dtype": "DT_FLOAT",
							"tensorShape": {
								"dim": [
									{
										"size": "1"
									},
									{
										"size": "1"
									},
									{
										"size": "64"
									},
									{
										"size": "1"
									}
								]
							}
						}
					},
					"dtype": {
						"type": "DT_FLOAT"
					}
				}
			},
			{
				"name": "unknown_112",
				"op": "Const",
				"attr": {
					"value": {
						"tensor": {
							"dtype": "DT_FLOAT",
							"tensorShape": {
								"dim": [
									{
										"size": "1"
									}
								]
							}
						}
					},
					"dtype": {
						"type": "DT_FLOAT"
					}
				}
			},
			{
				"name": "StatefulPartitionedCall/transpose_180/perm",
				"op": "Const",
				"attr": {
					"value": {
						"tensor": {
							"dtype": "DT_INT32",
							"tensorShape": {
								"dim": [
									{
										"size": "4"
									}
								]
							}
						}
					},
					"dtype": {
						"type": "DT_INT32"
					}
				}
			},
			{
				"name": "StatefulPartitionedCall/onnx_tf_prefix_/model.22/Concat_1/axis",
				"op": "Const",
				"attr": {
					"value": {
						"tensor": {
							"dtype": "DT_INT32",
							"tensorShape": {}
						}
					},
					"dtype": {
						"type": "DT_INT32"
					}
				}
			},
			{
				"name": "StatefulPartitionedCall/onnx_tf_prefix_/model.22/Constant_1",
				"op": "Const",
				"attr": {
					"value": {
						"tensor": {
							"dtype": "DT_INT64",
							"tensorShape": {
								"dim": [
									{
										"size": "3"
									}
								]
							}
						}
					},
					"dtype": {
						"type": "DT_INT64"
					}
				}
			},
			{
				"name": "StatefulPartitionedCall/Where_1",
				"op": "Const",
				"attr": {
					"value": {
						"tensor": {
							"dtype": "DT_INT64",
							"tensorShape": {
								"dim": [
									{},
									{
										"size": "1"
									}
								]
							}
						}
					},
					"dtype": {
						"type": "DT_INT64"
					}
				}
			},
			{
				"name": "StatefulPartitionedCall/Cast_61",
				"op": "Const",
				"attr": {
					"value": {
						"tensor": {
							"dtype": "DT_INT64",
							"tensorShape": {
								"dim": [
									{
										"size": "1"
									}
								]
							}
						}
					},
					"dtype": {
						"type": "DT_INT64"
					}
				}
			},
			{
				"name": "StatefulPartitionedCall/GatherV2_1",
				"op": "Const",
				"attr": {
					"value": {
						"tensor": {
							"dtype": "DT_INT64",
							"tensorShape": {
								"dim": [
									{}
								]
							}
						}
					},
					"dtype": {
						"type": "DT_INT64"
					}
				}
			},
			{
				"name": "StatefulPartitionedCall/zeros_17",
				"op": "Const",
				"attr": {
					"value": {
						"tensor": {
							"dtype": "DT_INT64",
							"tensorShape": {}
						}
					},
					"dtype": {
						"type": "DT_INT64"
					}
				}
			},
			{
				"name": "StatefulPartitionedCall/Const_69",
				"op": "Const",
				"attr": {
					"value": {
						"tensor": {
							"dtype": "DT_INT32",
							"tensorShape": {
								"dim": [
									{
										"size": "4"
									},
									{
										"size": "2"
									}
								]
							}
						}
					},
					"dtype": {
						"type": "DT_INT32"
					}
				}
			},
			{
				"name": "StatefulPartitionedCall/transpose_182/perm",
				"op": "Const",
				"attr": {
					"value": {
						"tensor": {
							"dtype": "DT_INT32",
							"tensorShape": {
								"dim": [
									{
										"size": "4"
									}
								]
							}
						}
					},
					"dtype": {
						"type": "DT_INT32"
					}
				}
			},
			{
				"name": "StatefulPartitionedCall/split_57",
				"op": "Const",
				"attr": {
					"value": {
						"tensor": {
							"dtype": "DT_FLOAT",
							"tensorShape": {
								"dim": [
									{
										"size": "3"
									},
									{
										"size": "3"
									},
									{
										"size": "256"
									},
									{
										"size": "64"
									}
								]
							}
						}
					},
					"dtype": {
						"type": "DT_FLOAT"
					}
				}
			},
			{
				"name": "unknown_114",
				"op": "Const",
				"attr": {
					"value": {
						"tensor": {
							"dtype": "DT_FLOAT",
							"tensorShape": {
								"dim": [
									{
										"size": "64"
									}
								]
							}
						}
					},
					"dtype": {
						"type": "DT_FLOAT"
					}
				}
			},
			{
				"name": "StatefulPartitionedCall/transpose_183/perm",
				"op": "Const",
				"attr": {
					"value": {
						"tensor": {
							"dtype": "DT_INT32",
							"tensorShape": {
								"dim": [
									{
										"size": "4"
									}
								]
							}
						}
					},
					"dtype": {
						"type": "DT_INT32"
					}
				}
			},
			{
				"name": "StatefulPartitionedCall/Const_70",
				"op": "Const",
				"attr": {
					"value": {
						"tensor": {
							"dtype": "DT_INT32",
							"tensorShape": {
								"dim": [
									{
										"size": "4"
									},
									{
										"size": "2"
									}
								]
							}
						}
					},
					"dtype": {
						"type": "DT_INT32"
					}
				}
			},
			{
				"name": "StatefulPartitionedCall/transpose_185/perm",
				"op": "Const",
				"attr": {
					"value": {
						"tensor": {
							"dtype": "DT_INT32",
							"tensorShape": {
								"dim": [
									{
										"size": "4"
									}
								]
							}
						}
					},
					"dtype": {
						"type": "DT_INT32"
					}
				}
			},
			{
				"name": "StatefulPartitionedCall/split_58",
				"op": "Const",
				"attr": {
					"value": {
						"tensor": {
							"dtype": "DT_FLOAT",
							"tensorShape": {
								"dim": [
									{
										"size": "3"
									},
									{
										"size": "3"
									},
									{
										"size": "64"
									},
									{
										"size": "64"
									}
								]
							}
						}
					},
					"dtype": {
						"type": "DT_FLOAT"
					}
				}
			},
			{
				"name": "unknown_116",
				"op": "Const",
				"attr": {
					"value": {
						"tensor": {
							"dtype": "DT_FLOAT",
							"tensorShape": {
								"dim": [
									{
										"size": "64"
									}
								]
							}
						}
					},
					"dtype": {
						"type": "DT_FLOAT"
					}
				}
			},
			{
				"name": "StatefulPartitionedCall/transpose_186/perm",
				"op": "Const",
				"attr": {
					"value": {
						"tensor": {
							"dtype": "DT_INT32",
							"tensorShape": {
								"dim": [
									{
										"size": "4"
									}
								]
							}
						}
					},
					"dtype": {
						"type": "DT_INT32"
					}
				}
			},
			{
				"name": "StatefulPartitionedCall/transpose_188/perm",
				"op": "Const",
				"attr": {
					"value": {
						"tensor": {
							"dtype": "DT_INT32",
							"tensorShape": {
								"dim": [
									{
										"size": "4"
									}
								]
							}
						}
					},
					"dtype": {
						"type": "DT_INT32"
					}
				}
			},
			{
				"name": "StatefulPartitionedCall/split_59",
				"op": "Const",
				"attr": {
					"value": {
						"tensor": {
							"dtype": "DT_FLOAT",
							"tensorShape": {
								"dim": [
									{
										"size": "1"
									},
									{
										"size": "1"
									},
									{
										"size": "64"
									},
									{
										"size": "64"
									}
								]
							}
						}
					},
					"dtype": {
						"type": "DT_FLOAT"
					}
				}
			},
			{
				"name": "unknown_118",
				"op": "Const",
				"attr": {
					"value": {
						"tensor": {
							"dtype": "DT_FLOAT",
							"tensorShape": {
								"dim": [
									{
										"size": "64"
									}
								]
							}
						}
					},
					"dtype": {
						"type": "DT_FLOAT"
					}
				}
			},
			{
				"name": "StatefulPartitionedCall/transpose_189/perm",
				"op": "Const",
				"attr": {
					"value": {
						"tensor": {
							"dtype": "DT_INT32",
							"tensorShape": {
								"dim": [
									{
										"size": "4"
									}
								]
							}
						}
					},
					"dtype": {
						"type": "DT_INT32"
					}
				}
			},
			{
				"name": "StatefulPartitionedCall/SelectV2_57",
				"op": "Const",
				"attr": {
					"value": {
						"tensor": {
							"dtype": "DT_INT64",
							"tensorShape": {
								"dim": [
									{
										"size": "1"
									}
								]
							}
						}
					},
					"dtype": {
						"type": "DT_INT64"
					}
				}
			},
			{
				"name": "StatefulPartitionedCall/zeros_14",
				"op": "Const",
				"attr": {
					"value": {
						"tensor": {
							"dtype": "DT_INT64",
							"tensorShape": {}
						}
					},
					"dtype": {
						"type": "DT_INT64"
					}
				}
			},
			{
				"name": "StatefulPartitionedCall/Const_56",
				"op": "Const",
				"attr": {
					"value": {
						"tensor": {
							"dtype": "DT_INT64",
							"tensorShape": {}
						}
					},
					"dtype": {
						"type": "DT_INT64"
					}
				}
			},
			{
				"name": "StatefulPartitionedCall/Shape_14",
				"op": "Const",
				"attr": {
					"value": {
						"tensor": {
							"dtype": "DT_INT64",
							"tensorShape": {
								"dim": [
									{
										"size": "4"
									}
								]
							}
						}
					},
					"dtype": {
						"type": "DT_INT64"
					}
				}
			},
			{
				"name": "StatefulPartitionedCall/ExpandDims_14",
				"op": "Const",
				"attr": {
					"value": {
						"tensor": {
							"dtype": "DT_INT64",
							"tensorShape": {
								"dim": [
									{
										"size": "1"
									},
									{
										"size": "1"
									}
								]
							}
						}
					},
					"dtype": {
						"type": "DT_INT64"
					}
				}
			},
			{
				"name": "StatefulPartitionedCall/Cast_57",
				"op": "Const",
				"attr": {
					"value": {
						"tensor": {
							"dtype": "DT_INT64",
							"tensorShape": {
								"dim": [
									{
										"size": "1"
									}
								]
							}
						}
					},
					"dtype": {
						"type": "DT_INT64"
					}
				}
			},
			{
				"name": "StatefulPartitionedCall/Const_55",
				"op": "Const",
				"attr": {
					"value": {
						"tensor": {
							"dtype": "DT_INT64",
							"tensorShape": {}
						}
					},
					"dtype": {
						"type": "DT_INT64"
					}
				}
			},
			{
				"name": "StatefulPartitionedCall/ones_14",
				"op": "Const",
				"attr": {
					"value": {
						"tensor": {
							"dtype": "DT_INT64",
							"tensorShape": {
								"dim": [
									{
										"size": "4"
									}
								]
							}
						}
					},
					"dtype": {
						"type": "DT_INT64"
					}
				}
			},
			{
				"name": "StatefulPartitionedCall/SelectV2_49",
				"op": "Const",
				"attr": {
					"value": {
						"tensor": {
							"dtype": "DT_INT64",
							"tensorShape": {
								"dim": [
									{
										"size": "1"
									}
								]
							}
						}
					},
					"dtype": {
						"type": "DT_INT64"
					}
				}
			},
			{
				"name": "StatefulPartitionedCall/zeros_12",
				"op": "Const",
				"attr": {
					"value": {
						"tensor": {
							"dtype": "DT_INT64",
							"tensorShape": {}
						}
					},
					"dtype": {
						"type": "DT_INT64"
					}
				}
			},
			{
				"name": "StatefulPartitionedCall/Const_49",
				"op": "Const",
				"attr": {
					"value": {
						"tensor": {
							"dtype": "DT_INT64",
							"tensorShape": {}
						}
					},
					"dtype": {
						"type": "DT_INT64"
					}
				}
			},
			{
				"name": "StatefulPartitionedCall/Shape_12",
				"op": "Const",
				"attr": {
					"value": {
						"tensor": {
							"dtype": "DT_INT64",
							"tensorShape": {
								"dim": [
									{
										"size": "4"
									}
								]
							}
						}
					},
					"dtype": {
						"type": "DT_INT64"
					}
				}
			},
			{
				"name": "StatefulPartitionedCall/ExpandDims_12",
				"op": "Const",
				"attr": {
					"value": {
						"tensor": {
							"dtype": "DT_INT64",
							"tensorShape": {
								"dim": [
									{
										"size": "1"
									},
									{
										"size": "1"
									}
								]
							}
						}
					},
					"dtype": {
						"type": "DT_INT64"
					}
				}
			},
			{
				"name": "StatefulPartitionedCall/Cast_50",
				"op": "Const",
				"attr": {
					"value": {
						"tensor": {
							"dtype": "DT_INT64",
							"tensorShape": {
								"dim": [
									{
										"size": "1"
									}
								]
							}
						}
					},
					"dtype": {
						"type": "DT_INT64"
					}
				}
			},
			{
				"name": "StatefulPartitionedCall/Const_48",
				"op": "Const",
				"attr": {
					"value": {
						"tensor": {
							"dtype": "DT_INT64",
							"tensorShape": {}
						}
					},
					"dtype": {
						"type": "DT_INT64"
					}
				}
			},
			{
				"name": "StatefulPartitionedCall/ones_12",
				"op": "Const",
				"attr": {
					"value": {
						"tensor": {
							"dtype": "DT_INT64",
							"tensorShape": {
								"dim": [
									{
										"size": "4"
									}
								]
							}
						}
					},
					"dtype": {
						"type": "DT_INT64"
					}
				}
			},
			{
				"name": "StatefulPartitionedCall/SelectV2_41",
				"op": "Const",
				"attr": {
					"value": {
						"tensor": {
							"dtype": "DT_INT64",
							"tensorShape": {
								"dim": [
									{
										"size": "1"
									}
								]
							}
						}
					},
					"dtype": {
						"type": "DT_INT64"
					}
				}
			},
			{
				"name": "StatefulPartitionedCall/zeros_10",
				"op": "Const",
				"attr": {
					"value": {
						"tensor": {
							"dtype": "DT_INT64",
							"tensorShape": {}
						}
					},
					"dtype": {
						"type": "DT_INT64"
					}
				}
			},
			{
				"name": "StatefulPartitionedCall/Const_42",
				"op": "Const",
				"attr": {
					"value": {
						"tensor": {
							"dtype": "DT_INT64",
							"tensorShape": {}
						}
					},
					"dtype": {
						"type": "DT_INT64"
					}
				}
			},
			{
				"name": "StatefulPartitionedCall/Shape_10",
				"op": "Const",
				"attr": {
					"value": {
						"tensor": {
							"dtype": "DT_INT64",
							"tensorShape": {
								"dim": [
									{
										"size": "4"
									}
								]
							}
						}
					},
					"dtype": {
						"type": "DT_INT64"
					}
				}
			},
			{
				"name": "StatefulPartitionedCall/ExpandDims_10",
				"op": "Const",
				"attr": {
					"value": {
						"tensor": {
							"dtype": "DT_INT64",
							"tensorShape": {
								"dim": [
									{
										"size": "1"
									},
									{
										"size": "1"
									}
								]
							}
						}
					},
					"dtype": {
						"type": "DT_INT64"
					}
				}
			},
			{
				"name": "StatefulPartitionedCall/Cast_43",
				"op": "Const",
				"attr": {
					"value": {
						"tensor": {
							"dtype": "DT_INT64",
							"tensorShape": {
								"dim": [
									{
										"size": "1"
									}
								]
							}
						}
					},
					"dtype": {
						"type": "DT_INT64"
					}
				}
			},
			{
				"name": "StatefulPartitionedCall/Const_41",
				"op": "Const",
				"attr": {
					"value": {
						"tensor": {
							"dtype": "DT_INT64",
							"tensorShape": {}
						}
					},
					"dtype": {
						"type": "DT_INT64"
					}
				}
			},
			{
				"name": "StatefulPartitionedCall/ones_10",
				"op": "Const",
				"attr": {
					"value": {
						"tensor": {
							"dtype": "DT_INT64",
							"tensorShape": {
								"dim": [
									{
										"size": "4"
									}
								]
							}
						}
					},
					"dtype": {
						"type": "DT_INT64"
					}
				}
			},
			{
				"name": "StatefulPartitionedCall/transpose_101/perm",
				"op": "Const",
				"attr": {
					"value": {
						"tensor": {
							"dtype": "DT_INT32",
							"tensorShape": {
								"dim": [
									{
										"size": "4"
									}
								]
							}
						}
					},
					"dtype": {
						"type": "DT_INT32"
					}
				}
			},
			{
				"name": "StatefulPartitionedCall/Cast_38",
				"op": "Const",
				"attr": {
					"value": {
						"tensor": {
							"dtype": "DT_INT32",
							"tensorShape": {
								"dim": [
									{
										"size": "2"
									}
								]
							}
						}
					},
					"dtype": {
						"type": "DT_INT32"
					}
				}
			},
			{
				"name": "StatefulPartitionedCall/transpose_102/perm",
				"op": "Const",
				"attr": {
					"value": {
						"tensor": {
							"dtype": "DT_INT32",
							"tensorShape": {
								"dim": [
									{
										"size": "4"
									}
								]
							}
						}
					},
					"dtype": {
						"type": "DT_INT32"
					}
				}
			},
			{
				"name": "StatefulPartitionedCall/onnx_tf_prefix_/model.14/Concat/axis",
				"op": "Const",
				"attr": {
					"value": {
						"tensor": {
							"dtype": "DT_INT32",
							"tensorShape": {}
						}
					},
					"dtype": {
						"type": "DT_INT32"
					}
				}
			},
			{
				"name": "StatefulPartitionedCall/transpose_104/perm",
				"op": "Const",
				"attr": {
					"value": {
						"tensor": {
							"dtype": "DT_INT32",
							"tensorShape": {
								"dim": [
									{
										"size": "4"
									}
								]
							}
						}
					},
					"dtype": {
						"type": "DT_INT32"
					}
				}
			},
			{
				"name": "StatefulPartitionedCall/split_31",
				"op": "Const",
				"attr": {
					"value": {
						"tensor": {
							"dtype": "DT_FLOAT",
							"tensorShape": {
								"dim": [
									{
										"size": "1"
									},
									{
										"size": "1"
									},
									{
										"size": "192"
									},
									{
										"size": "64"
									}
								]
							}
						}
					},
					"dtype": {
						"type": "DT_FLOAT"
					}
				}
			},
			{
				"name": "unknown_62",
				"op": "Const",
				"attr": {
					"value": {
						"tensor": {
							"dtype": "DT_FLOAT",
							"tensorShape": {
								"dim": [
									{
										"size": "64"
									}
								]
							}
						}
					},
					"dtype": {
						"type": "DT_FLOAT"
					}
				}
			},
			{
				"name": "StatefulPartitionedCall/transpose_105/perm",
				"op": "Const",
				"attr": {
					"value": {
						"tensor": {
							"dtype": "DT_INT32",
							"tensorShape": {
								"dim": [
									{
										"size": "4"
									}
								]
							}
						}
					},
					"dtype": {
						"type": "DT_INT32"
					}
				}
			},
			{
				"name": "StatefulPartitionedCall/zeros_11",
				"op": "Const",
				"attr": {
					"value": {
						"tensor": {
							"dtype": "DT_INT64",
							"tensorShape": {}
						}
					},
					"dtype": {
						"type": "DT_INT64"
					}
				}
			},
			{
				"name": "StatefulPartitionedCall/Const_44",
				"op": "Const",
				"attr": {
					"value": {
						"tensor": {
							"dtype": "DT_INT64",
							"tensorShape": {}
						}
					},
					"dtype": {
						"type": "DT_INT64"
					}
				}
			},
			{
				"name": "StatefulPartitionedCall/Shape_11",
				"op": "Const",
				"attr": {
					"value": {
						"tensor": {
							"dtype": "DT_INT64",
							"tensorShape": {
								"dim": [
									{
										"size": "4"
									}
								]
							}
						}
					},
					"dtype": {
						"type": "DT_INT64"
					}
				}
			},
			{
				"name": "StatefulPartitionedCall/ExpandDims_11",
				"op": "Const",
				"attr": {
					"value": {
						"tensor": {
							"dtype": "DT_INT64",
							"tensorShape": {
								"dim": [
									{
										"size": "1"
									},
									{
										"size": "1"
									}
								]
							}
						}
					},
					"dtype": {
						"type": "DT_INT64"
					}
				}
			},
			{
				"name": "StatefulPartitionedCall/Cast_45",
				"op": "Const",
				"attr": {
					"value": {
						"tensor": {
							"dtype": "DT_INT64",
							"tensorShape": {
								"dim": [
									{
										"size": "1"
									}
								]
							}
						}
					},
					"dtype": {
						"type": "DT_INT64"
					}
				}
			},
			{
				"name": "StatefulPartitionedCall/Const_43",
				"op": "Const",
				"attr": {
					"value": {
						"tensor": {
							"dtype": "DT_INT64",
							"tensorShape": {}
						}
					},
					"dtype": {
						"type": "DT_INT64"
					}
				}
			},
			{
				"name": "StatefulPartitionedCall/ones_11",
				"op": "Const",
				"attr": {
					"value": {
						"tensor": {
							"dtype": "DT_INT64",
							"tensorShape": {
								"dim": [
									{
										"size": "4"
									}
								]
							}
						}
					},
					"dtype": {
						"type": "DT_INT64"
					}
				}
			},
			{
				"name": "StatefulPartitionedCall/Const_45",
				"op": "Const",
				"attr": {
					"value": {
						"tensor": {
							"dtype": "DT_INT32",
							"tensorShape": {
								"dim": [
									{
										"size": "4"
									},
									{
										"size": "2"
									}
								]
							}
						}
					},
					"dtype": {
						"type": "DT_INT32"
					}
				}
			},
			{
				"name": "StatefulPartitionedCall/transpose_107/perm",
				"op": "Const",
				"attr": {
					"value": {
						"tensor": {
							"dtype": "DT_INT32",
							"tensorShape": {
								"dim": [
									{
										"size": "4"
									}
								]
							}
						}
					},
					"dtype": {
						"type": "DT_INT32"
					}
				}
			},
			{
				"name": "StatefulPartitionedCall/split_32",
				"op": "Const",
				"attr": {
					"value": {
						"tensor": {
							"dtype": "DT_FLOAT",
							"tensorShape": {
								"dim": [
									{
										"size": "3"
									},
									{
										"size": "3"
									},
									{
										"size": "32"
									},
									{
										"size": "32"
									}
								]
							}
						}
					},
					"dtype": {
						"type": "DT_FLOAT"
					}
				}
			},
			{
				"name": "unknown_64",
				"op": "Const",
				"attr": {
					"value": {
						"tensor": {
							"dtype": "DT_FLOAT",
							"tensorShape": {
								"dim": [
									{
										"size": "32"
									}
								]
							}
						}
					},
					"dtype": {
						"type": "DT_FLOAT"
					}
				}
			},
			{
				"name": "StatefulPartitionedCall/transpose_108/perm",
				"op": "Const",
				"attr": {
					"value": {
						"tensor": {
							"dtype": "DT_INT32",
							"tensorShape": {
								"dim": [
									{
										"size": "4"
									}
								]
							}
						}
					},
					"dtype": {
						"type": "DT_INT32"
					}
				}
			},
			{
				"name": "StatefulPartitionedCall/Const_46",
				"op": "Const",
				"attr": {
					"value": {
						"tensor": {
							"dtype": "DT_INT32",
							"tensorShape": {
								"dim": [
									{
										"size": "4"
									},
									{
										"size": "2"
									}
								]
							}
						}
					},
					"dtype": {
						"type": "DT_INT32"
					}
				}
			},
			{
				"name": "StatefulPartitionedCall/transpose_110/perm",
				"op": "Const",
				"attr": {
					"value": {
						"tensor": {
							"dtype": "DT_INT32",
							"tensorShape": {
								"dim": [
									{
										"size": "4"
									}
								]
							}
						}
					},
					"dtype": {
						"type": "DT_INT32"
					}
				}
			},
			{
				"name": "StatefulPartitionedCall/split_33",
				"op": "Const",
				"attr": {
					"value": {
						"tensor": {
							"dtype": "DT_FLOAT",
							"tensorShape": {
								"dim": [
									{
										"size": "3"
									},
									{
										"size": "3"
									},
									{
										"size": "32"
									},
									{
										"size": "32"
									}
								]
							}
						}
					},
					"dtype": {
						"type": "DT_FLOAT"
					}
				}
			},
			{
				"name": "unknown_66",
				"op": "Const",
				"attr": {
					"value": {
						"tensor": {
							"dtype": "DT_FLOAT",
							"tensorShape": {
								"dim": [
									{
										"size": "32"
									}
								]
							}
						}
					},
					"dtype": {
						"type": "DT_FLOAT"
					}
				}
			},
			{
				"name": "StatefulPartitionedCall/transpose_111/perm",
				"op": "Const",
				"attr": {
					"value": {
						"tensor": {
							"dtype": "DT_INT32",
							"tensorShape": {
								"dim": [
									{
										"size": "4"
									}
								]
							}
						}
					},
					"dtype": {
						"type": "DT_INT32"
					}
				}
			},
			{
				"name": "StatefulPartitionedCall/onnx_tf_prefix_/model.15/Concat/axis",
				"op": "Const",
				"attr": {
					"value": {
						"tensor": {
							"dtype": "DT_INT32",
							"tensorShape": {}
						}
					},
					"dtype": {
						"type": "DT_INT32"
					}
				}
			},
			{
				"name": "StatefulPartitionedCall/transpose_113/perm",
				"op": "Const",
				"attr": {
					"value": {
						"tensor": {
							"dtype": "DT_INT32",
							"tensorShape": {
								"dim": [
									{
										"size": "4"
									}
								]
							}
						}
					},
					"dtype": {
						"type": "DT_INT32"
					}
				}
			},
			{
				"name": "StatefulPartitionedCall/split_34",
				"op": "Const",
				"attr": {
					"value": {
						"tensor": {
							"dtype": "DT_FLOAT",
							"tensorShape": {
								"dim": [
									{
										"size": "1"
									},
									{
										"size": "1"
									},
									{
										"size": "96"
									},
									{
										"size": "64"
									}
								]
							}
						}
					},
					"dtype": {
						"type": "DT_FLOAT"
					}
				}
			},
			{
				"name": "unknown_68",
				"op": "Const",
				"attr": {
					"value": {
						"tensor": {
							"dtype": "DT_FLOAT",
							"tensorShape": {
								"dim": [
									{
										"size": "64"
									}
								]
							}
						}
					},
					"dtype": {
						"type": "DT_FLOAT"
					}
				}
			},
			{
				"name": "StatefulPartitionedCall/transpose_114/perm",
				"op": "Const",
				"attr": {
					"value": {
						"tensor": {
							"dtype": "DT_INT32",
							"tensorShape": {
								"dim": [
									{
										"size": "4"
									}
								]
							}
						}
					},
					"dtype": {
						"type": "DT_INT32"
					}
				}
			},
			{
				"name": "StatefulPartitionedCall/Const_47",
				"op": "Const",
				"attr": {
					"value": {
						"tensor": {
							"dtype": "DT_INT32",
							"tensorShape": {
								"dim": [
									{
										"size": "4"
									},
									{
										"size": "2"
									}
								]
							}
						}
					},
					"dtype": {
						"type": "DT_INT32"
					}
				}
			},
			{
				"name": "StatefulPartitionedCall/transpose_116/perm",
				"op": "Const",
				"attr": {
					"value": {
						"tensor": {
							"dtype": "DT_INT32",
							"tensorShape": {
								"dim": [
									{
										"size": "4"
									}
								]
							}
						}
					},
					"dtype": {
						"type": "DT_INT32"
					}
				}
			},
			{
				"name": "StatefulPartitionedCall/split_35",
				"op": "Const",
				"attr": {
					"value": {
						"tensor": {
							"dtype": "DT_FLOAT",
							"tensorShape": {
								"dim": [
									{
										"size": "3"
									},
									{
										"size": "3"
									},
									{
										"size": "64"
									},
									{
										"size": "64"
									}
								]
							}
						}
					},
					"dtype": {
						"type": "DT_FLOAT"
					}
				}
			},
			{
				"name": "unknown_70",
				"op": "Const",
				"attr": {
					"value": {
						"tensor": {
							"dtype": "DT_FLOAT",
							"tensorShape": {
								"dim": [
									{
										"size": "64"
									}
								]
							}
						}
					},
					"dtype": {
						"type": "DT_FLOAT"
					}
				}
			},
			{
				"name": "StatefulPartitionedCall/transpose_117/perm",
				"op": "Const",
				"attr": {
					"value": {
						"tensor": {
							"dtype": "DT_INT32",
							"tensorShape": {
								"dim": [
									{
										"size": "4"
									}
								]
							}
						}
					},
					"dtype": {
						"type": "DT_INT32"
					}
				}
			},
			{
				"name": "StatefulPartitionedCall/SelectV2_33",
				"op": "Const",
				"attr": {
					"value": {
						"tensor": {
							"dtype": "DT_INT64",
							"tensorShape": {
								"dim": [
									{
										"size": "1"
									}
								]
							}
						}
					},
					"dtype": {
						"type": "DT_INT64"
					}
				}
			},
			{
				"name": "StatefulPartitionedCall/zeros_8",
				"op": "Const",
				"attr": {
					"value": {
						"tensor": {
							"dtype": "DT_INT64",
							"tensorShape": {}
						}
					},
					"dtype": {
						"type": "DT_INT64"
					}
				}
			},
			{
				"name": "StatefulPartitionedCall/Const_35",
				"op": "Const",
				"attr": {
					"value": {
						"tensor": {
							"dtype": "DT_INT64",
							"tensorShape": {}
						}
					},
					"dtype": {
						"type": "DT_INT64"
					}
				}
			},
			{
				"name": "StatefulPartitionedCall/Shape_8",
				"op": "Const",
				"attr": {
					"value": {
						"tensor": {
							"dtype": "DT_INT64",
							"tensorShape": {
								"dim": [
									{
										"size": "4"
									}
								]
							}
						}
					},
					"dtype": {
						"type": "DT_INT64"
					}
				}
			},
			{
				"name": "StatefulPartitionedCall/ExpandDims_8",
				"op": "Const",
				"attr": {
					"value": {
						"tensor": {
							"dtype": "DT_INT64",
							"tensorShape": {
								"dim": [
									{
										"size": "1"
									},
									{
										"size": "1"
									}
								]
							}
						}
					},
					"dtype": {
						"type": "DT_INT64"
					}
				}
			},
			{
				"name": "StatefulPartitionedCall/Cast_34",
				"op": "Const",
				"attr": {
					"value": {
						"tensor": {
							"dtype": "DT_INT64",
							"tensorShape": {
								"dim": [
									{
										"size": "1"
									}
								]
							}
						}
					},
					"dtype": {
						"type": "DT_INT64"
					}
				}
			},
			{
				"name": "StatefulPartitionedCall/Const_34",
				"op": "Const",
				"attr": {
					"value": {
						"tensor": {
							"dtype": "DT_INT64",
							"tensorShape": {}
						}
					},
					"dtype": {
						"type": "DT_INT64"
					}
				}
			},
			{
				"name": "StatefulPartitionedCall/ones_8",
				"op": "Const",
				"attr": {
					"value": {
						"tensor": {
							"dtype": "DT_INT64",
							"tensorShape": {
								"dim": [
									{
										"size": "4"
									}
								]
							}
						}
					},
					"dtype": {
						"type": "DT_INT64"
					}
				}
			},
			{
				"name": "StatefulPartitionedCall/transpose_87/perm",
				"op": "Const",
				"attr": {
					"value": {
						"tensor": {
							"dtype": "DT_INT32",
							"tensorShape": {
								"dim": [
									{
										"size": "4"
									}
								]
							}
						}
					},
					"dtype": {
						"type": "DT_INT32"
					}
				}
			},
			{
				"name": "StatefulPartitionedCall/Cast_29",
				"op": "Const",
				"attr": {
					"value": {
						"tensor": {
							"dtype": "DT_INT32",
							"tensorShape": {
								"dim": [
									{
										"size": "2"
									}
								]
							}
						}
					},
					"dtype": {
						"type": "DT_INT32"
					}
				}
			},
			{
				"name": "StatefulPartitionedCall/transpose_88/perm",
				"op": "Const",
				"attr": {
					"value": {
						"tensor": {
							"dtype": "DT_INT32",
							"tensorShape": {
								"dim": [
									{
										"size": "4"
									}
								]
							}
						}
					},
					"dtype": {
						"type": "DT_INT32"
					}
				}
			},
			{
				"name": "StatefulPartitionedCall/onnx_tf_prefix_/model.11/Concat/axis",
				"op": "Const",
				"attr": {
					"value": {
						"tensor": {
							"dtype": "DT_INT32",
							"tensorShape": {}
						}
					},
					"dtype": {
						"type": "DT_INT32"
					}
				}
			},
			{
				"name": "StatefulPartitionedCall/transpose_90/perm",
				"op": "Const",
				"attr": {
					"value": {
						"tensor": {
							"dtype": "DT_INT32",
							"tensorShape": {
								"dim": [
									{
										"size": "4"
									}
								]
							}
						}
					},
					"dtype": {
						"type": "DT_INT32"
					}
				}
			},
			{
				"name": "StatefulPartitionedCall/split_27",
				"op": "Const",
				"attr": {
					"value": {
						"tensor": {
							"dtype": "DT_FLOAT",
							"tensorShape": {
								"dim": [
									{
										"size": "1"
									},
									{
										"size": "1"
									},
									{
										"size": "384"
									},
									{
										"size": "128"
									}
								]
							}
						}
					},
					"dtype": {
						"type": "DT_FLOAT"
					}
				}
			},
			{
				"name": "unknown_54",
				"op": "Const",
				"attr": {
					"value": {
						"tensor": {
							"dtype": "DT_FLOAT",
							"tensorShape": {
								"dim": [
									{
										"size": "128"
									}
								]
							}
						}
					},
					"dtype": {
						"type": "DT_FLOAT"
					}
				}
			},
			{
				"name": "StatefulPartitionedCall/transpose_91/perm",
				"op": "Const",
				"attr": {
					"value": {
						"tensor": {
							"dtype": "DT_INT32",
							"tensorShape": {
								"dim": [
									{
										"size": "4"
									}
								]
							}
						}
					},
					"dtype": {
						"type": "DT_INT32"
					}
				}
			},
			{
				"name": "StatefulPartitionedCall/zeros_9",
				"op": "Const",
				"attr": {
					"value": {
						"tensor": {
							"dtype": "DT_INT64",
							"tensorShape": {}
						}
					},
					"dtype": {
						"type": "DT_INT64"
					}
				}
			},
			{
				"name": "StatefulPartitionedCall/Const_37",
				"op": "Const",
				"attr": {
					"value": {
						"tensor": {
							"dtype": "DT_INT64",
							"tensorShape": {}
						}
					},
					"dtype": {
						"type": "DT_INT64"
					}
				}
			},
			{
				"name": "StatefulPartitionedCall/Shape_9",
				"op": "Const",
				"attr": {
					"value": {
						"tensor": {
							"dtype": "DT_INT64",
							"tensorShape": {
								"dim": [
									{
										"size": "4"
									}
								]
							}
						}
					},
					"dtype": {
						"type": "DT_INT64"
					}
				}
			},
			{
				"name": "StatefulPartitionedCall/ExpandDims_9",
				"op": "Const",
				"attr": {
					"value": {
						"tensor": {
							"dtype": "DT_INT64",
							"tensorShape": {
								"dim": [
									{
										"size": "1"
									},
									{
										"size": "1"
									}
								]
							}
						}
					},
					"dtype": {
						"type": "DT_INT64"
					}
				}
			},
			{
				"name": "StatefulPartitionedCall/Cast_36",
				"op": "Const",
				"attr": {
					"value": {
						"tensor": {
							"dtype": "DT_INT64",
							"tensorShape": {
								"dim": [
									{
										"size": "1"
									}
								]
							}
						}
					},
					"dtype": {
						"type": "DT_INT64"
					}
				}
			},
			{
				"name": "StatefulPartitionedCall/Const_36",
				"op": "Const",
				"attr": {
					"value": {
						"tensor": {
							"dtype": "DT_INT64",
							"tensorShape": {}
						}
					},
					"dtype": {
						"type": "DT_INT64"
					}
				}
			},
			{
				"name": "StatefulPartitionedCall/ones_9",
				"op": "Const",
				"attr": {
					"value": {
						"tensor": {
							"dtype": "DT_INT64",
							"tensorShape": {
								"dim": [
									{
										"size": "4"
									}
								]
							}
						}
					},
					"dtype": {
						"type": "DT_INT64"
					}
				}
			},
			{
				"name": "StatefulPartitionedCall/Const_38",
				"op": "Const",
				"attr": {
					"value": {
						"tensor": {
							"dtype": "DT_INT32",
							"tensorShape": {
								"dim": [
									{
										"size": "4"
									},
									{
										"size": "2"
									}
								]
							}
						}
					},
					"dtype": {
						"type": "DT_INT32"
					}
				}
			},
			{
				"name": "StatefulPartitionedCall/transpose_93/perm",
				"op": "Const",
				"attr": {
					"value": {
						"tensor": {
							"dtype": "DT_INT32",
							"tensorShape": {
								"dim": [
									{
										"size": "4"
									}
								]
							}
						}
					},
					"dtype": {
						"type": "DT_INT32"
					}
				}
			},
			{
				"name": "StatefulPartitionedCall/split_28",
				"op": "Const",
				"attr": {
					"value": {
						"tensor": {
							"dtype": "DT_FLOAT",
							"tensorShape": {
								"dim": [
									{
										"size": "3"
									},
									{
										"size": "3"
									},
									{
										"size": "64"
									},
									{
										"size": "64"
									}
								]
							}
						}
					},
					"dtype": {
						"type": "DT_FLOAT"
					}
				}
			},
			{
				"name": "unknown_56",
				"op": "Const",
				"attr": {
					"value": {
						"tensor": {
							"dtype": "DT_FLOAT",
							"tensorShape": {
								"dim": [
									{
										"size": "64"
									}
								]
							}
						}
					},
					"dtype": {
						"type": "DT_FLOAT"
					}
				}
			},
			{
				"name": "StatefulPartitionedCall/transpose_94/perm",
				"op": "Const",
				"attr": {
					"value": {
						"tensor": {
							"dtype": "DT_INT32",
							"tensorShape": {
								"dim": [
									{
										"size": "4"
									}
								]
							}
						}
					},
					"dtype": {
						"type": "DT_INT32"
					}
				}
			},
			{
				"name": "StatefulPartitionedCall/Const_39",
				"op": "Const",
				"attr": {
					"value": {
						"tensor": {
							"dtype": "DT_INT32",
							"tensorShape": {
								"dim": [
									{
										"size": "4"
									},
									{
										"size": "2"
									}
								]
							}
						}
					},
					"dtype": {
						"type": "DT_INT32"
					}
				}
			},
			{
				"name": "StatefulPartitionedCall/transpose_96/perm",
				"op": "Const",
				"attr": {
					"value": {
						"tensor": {
							"dtype": "DT_INT32",
							"tensorShape": {
								"dim": [
									{
										"size": "4"
									}
								]
							}
						}
					},
					"dtype": {
						"type": "DT_INT32"
					}
				}
			},
			{
				"name": "StatefulPartitionedCall/split_29",
				"op": "Const",
				"attr": {
					"value": {
						"tensor": {
							"dtype": "DT_FLOAT",
							"tensorShape": {
								"dim": [
									{
										"size": "3"
									},
									{
										"size": "3"
									},
									{
										"size": "64"
									},
									{
										"size": "64"
									}
								]
							}
						}
					},
					"dtype": {
						"type": "DT_FLOAT"
					}
				}
			},
			{
				"name": "unknown_58",
				"op": "Const",
				"attr": {
					"value": {
						"tensor": {
							"dtype": "DT_FLOAT",
							"tensorShape": {
								"dim": [
									{
										"size": "64"
									}
								]
							}
						}
					},
					"dtype": {
						"type": "DT_FLOAT"
					}
				}
			},
			{
				"name": "StatefulPartitionedCall/transpose_97/perm",
				"op": "Const",
				"attr": {
					"value": {
						"tensor": {
							"dtype": "DT_INT32",
							"tensorShape": {
								"dim": [
									{
										"size": "4"
									}
								]
							}
						}
					},
					"dtype": {
						"type": "DT_INT32"
					}
				}
			},
			{
				"name": "StatefulPartitionedCall/onnx_tf_prefix_/model.12/Concat/axis",
				"op": "Const",
				"attr": {
					"value": {
						"tensor": {
							"dtype": "DT_INT32",
							"tensorShape": {}
						}
					},
					"dtype": {
						"type": "DT_INT32"
					}
				}
			},
			{
				"name": "StatefulPartitionedCall/transpose_99/perm",
				"op": "Const",
				"attr": {
					"value": {
						"tensor": {
							"dtype": "DT_INT32",
							"tensorShape": {
								"dim": [
									{
										"size": "4"
									}
								]
							}
						}
					},
					"dtype": {
						"type": "DT_INT32"
					}
				}
			},
			{
				"name": "StatefulPartitionedCall/split_30",
				"op": "Const",
				"attr": {
					"value": {
						"tensor": {
							"dtype": "DT_FLOAT",
							"tensorShape": {
								"dim": [
									{
										"size": "1"
									},
									{
										"size": "1"
									},
									{
										"size": "192"
									},
									{
										"size": "128"
									}
								]
							}
						}
					},
					"dtype": {
						"type": "DT_FLOAT"
					}
				}
			},
			{
				"name": "unknown_60",
				"op": "Const",
				"attr": {
					"value": {
						"tensor": {
							"dtype": "DT_FLOAT",
							"tensorShape": {
								"dim": [
									{
										"size": "128"
									}
								]
							}
						}
					},
					"dtype": {
						"type": "DT_FLOAT"
					}
				}
			},
			{
				"name": "StatefulPartitionedCall/transpose_100/perm",
				"op": "Const",
				"attr": {
					"value": {
						"tensor": {
							"dtype": "DT_INT32",
							"tensorShape": {
								"dim": [
									{
										"size": "4"
									}
								]
							}
						}
					},
					"dtype": {
						"type": "DT_INT32"
					}
				}
			},
			{
				"name": "StatefulPartitionedCall/onnx_tf_prefix_/model.17/Concat/axis",
				"op": "Const",
				"attr": {
					"value": {
						"tensor": {
							"dtype": "DT_INT32",
							"tensorShape": {}
						}
					},
					"dtype": {
						"type": "DT_INT32"
					}
				}
			},
			{
				"name": "StatefulPartitionedCall/transpose_119/perm",
				"op": "Const",
				"attr": {
					"value": {
						"tensor": {
							"dtype": "DT_INT32",
							"tensorShape": {
								"dim": [
									{
										"size": "4"
									}
								]
							}
						}
					},
					"dtype": {
						"type": "DT_INT32"
					}
				}
			},
			{
				"name": "StatefulPartitionedCall/split_36",
				"op": "Const",
				"attr": {
					"value": {
						"tensor": {
							"dtype": "DT_FLOAT",
							"tensorShape": {
								"dim": [
									{
										"size": "1"
									},
									{
										"size": "1"
									},
									{
										"size": "192"
									},
									{
										"size": "128"
									}
								]
							}
						}
					},
					"dtype": {
						"type": "DT_FLOAT"
					}
				}
			},
			{
				"name": "unknown_72",
				"op": "Const",
				"attr": {
					"value": {
						"tensor": {
							"dtype": "DT_FLOAT",
							"tensorShape": {
								"dim": [
									{
										"size": "128"
									}
								]
							}
						}
					},
					"dtype": {
						"type": "DT_FLOAT"
					}
				}
			},
			{
				"name": "StatefulPartitionedCall/transpose_120/perm",
				"op": "Const",
				"attr": {
					"value": {
						"tensor": {
							"dtype": "DT_INT32",
							"tensorShape": {
								"dim": [
									{
										"size": "4"
									}
								]
							}
						}
					},
					"dtype": {
						"type": "DT_INT32"
					}
				}
			},
			{
				"name": "StatefulPartitionedCall/zeros_13",
				"op": "Const",
				"attr": {
					"value": {
						"tensor": {
							"dtype": "DT_INT64",
							"tensorShape": {}
						}
					},
					"dtype": {
						"type": "DT_INT64"
					}
				}
			},
			{
				"name": "StatefulPartitionedCall/Const_51",
				"op": "Const",
				"attr": {
					"value": {
						"tensor": {
							"dtype": "DT_INT64",
							"tensorShape": {}
						}
					},
					"dtype": {
						"type": "DT_INT64"
					}
				}
			},
			{
				"name": "StatefulPartitionedCall/Shape_13",
				"op": "Const",
				"attr": {
					"value": {
						"tensor": {
							"dtype": "DT_INT64",
							"tensorShape": {
								"dim": [
									{
										"size": "4"
									}
								]
							}
						}
					},
					"dtype": {
						"type": "DT_INT64"
					}
				}
			},
			{
				"name": "StatefulPartitionedCall/ExpandDims_13",
				"op": "Const",
				"attr": {
					"value": {
						"tensor": {
							"dtype": "DT_INT64",
							"tensorShape": {
								"dim": [
									{
										"size": "1"
									},
									{
										"size": "1"
									}
								]
							}
						}
					},
					"dtype": {
						"type": "DT_INT64"
					}
				}
			},
			{
				"name": "StatefulPartitionedCall/Cast_52",
				"op": "Const",
				"attr": {
					"value": {
						"tensor": {
							"dtype": "DT_INT64",
							"tensorShape": {
								"dim": [
									{
										"size": "1"
									}
								]
							}
						}
					},
					"dtype": {
						"type": "DT_INT64"
					}
				}
			},
			{
				"name": "StatefulPartitionedCall/Const_50",
				"op": "Const",
				"attr": {
					"value": {
						"tensor": {
							"dtype": "DT_INT64",
							"tensorShape": {}
						}
					},
					"dtype": {
						"type": "DT_INT64"
					}
				}
			},
			{
				"name": "StatefulPartitionedCall/ones_13",
				"op": "Const",
				"attr": {
					"value": {
						"tensor": {
							"dtype": "DT_INT64",
							"tensorShape": {
								"dim": [
									{
										"size": "4"
									}
								]
							}
						}
					},
					"dtype": {
						"type": "DT_INT64"
					}
				}
			},
			{
				"name": "StatefulPartitionedCall/Const_52",
				"op": "Const",
				"attr": {
					"value": {
						"tensor": {
							"dtype": "DT_INT32",
							"tensorShape": {
								"dim": [
									{
										"size": "4"
									},
									{
										"size": "2"
									}
								]
							}
						}
					},
					"dtype": {
						"type": "DT_INT32"
					}
				}
			},
			{
				"name": "StatefulPartitionedCall/transpose_122/perm",
				"op": "Const",
				"attr": {
					"value": {
						"tensor": {
							"dtype": "DT_INT32",
							"tensorShape": {
								"dim": [
									{
										"size": "4"
									}
								]
							}
						}
					},
					"dtype": {
						"type": "DT_INT32"
					}
				}
			},
			{
				"name": "StatefulPartitionedCall/split_37",
				"op": "Const",
				"attr": {
					"value": {
						"tensor": {
							"dtype": "DT_FLOAT",
							"tensorShape": {
								"dim": [
									{
										"size": "3"
									},
									{
										"size": "3"
									},
									{
										"size": "64"
									},
									{
										"size": "64"
									}
								]
							}
						}
					},
					"dtype": {
						"type": "DT_FLOAT"
					}
				}
			},
			{
				"name": "unknown_74",
				"op": "Const",
				"attr": {
					"value": {
						"tensor": {
							"dtype": "DT_FLOAT",
							"tensorShape": {
								"dim": [
									{
										"size": "64"
									}
								]
							}
						}
					},
					"dtype": {
						"type": "DT_FLOAT"
					}
				}
			},
			{
				"name": "StatefulPartitionedCall/transpose_123/perm",
				"op": "Const",
				"attr": {
					"value": {
						"tensor": {
							"dtype": "DT_INT32",
							"tensorShape": {
								"dim": [
									{
										"size": "4"
									}
								]
							}
						}
					},
					"dtype": {
						"type": "DT_INT32"
					}
				}
			},
			{
				"name": "StatefulPartitionedCall/Const_53",
				"op": "Const",
				"attr": {
					"value": {
						"tensor": {
							"dtype": "DT_INT32",
							"tensorShape": {
								"dim": [
									{
										"size": "4"
									},
									{
										"size": "2"
									}
								]
							}
						}
					},
					"dtype": {
						"type": "DT_INT32"
					}
				}
			},
			{
				"name": "StatefulPartitionedCall/transpose_125/perm",
				"op": "Const",
				"attr": {
					"value": {
						"tensor": {
							"dtype": "DT_INT32",
							"tensorShape": {
								"dim": [
									{
										"size": "4"
									}
								]
							}
						}
					},
					"dtype": {
						"type": "DT_INT32"
					}
				}
			},
			{
				"name": "StatefulPartitionedCall/split_38",
				"op": "Const",
				"attr": {
					"value": {
						"tensor": {
							"dtype": "DT_FLOAT",
							"tensorShape": {
								"dim": [
									{
										"size": "3"
									},
									{
										"size": "3"
									},
									{
										"size": "64"
									},
									{
										"size": "64"
									}
								]
							}
						}
					},
					"dtype": {
						"type": "DT_FLOAT"
					}
				}
			},
			{
				"name": "unknown_76",
				"op": "Const",
				"attr": {
					"value": {
						"tensor": {
							"dtype": "DT_FLOAT",
							"tensorShape": {
								"dim": [
									{
										"size": "64"
									}
								]
							}
						}
					},
					"dtype": {
						"type": "DT_FLOAT"
					}
				}
			},
			{
				"name": "StatefulPartitionedCall/transpose_126/perm",
				"op": "Const",
				"attr": {
					"value": {
						"tensor": {
							"dtype": "DT_INT32",
							"tensorShape": {
								"dim": [
									{
										"size": "4"
									}
								]
							}
						}
					},
					"dtype": {
						"type": "DT_INT32"
					}
				}
			},
			{
				"name": "StatefulPartitionedCall/onnx_tf_prefix_/model.18/Concat/axis",
				"op": "Const",
				"attr": {
					"value": {
						"tensor": {
							"dtype": "DT_INT32",
							"tensorShape": {}
						}
					},
					"dtype": {
						"type": "DT_INT32"
					}
				}
			},
			{
				"name": "StatefulPartitionedCall/transpose_128/perm",
				"op": "Const",
				"attr": {
					"value": {
						"tensor": {
							"dtype": "DT_INT32",
							"tensorShape": {
								"dim": [
									{
										"size": "4"
									}
								]
							}
						}
					},
					"dtype": {
						"type": "DT_INT32"
					}
				}
			},
			{
				"name": "StatefulPartitionedCall/split_39",
				"op": "Const",
				"attr": {
					"value": {
						"tensor": {
							"dtype": "DT_FLOAT",
							"tensorShape": {
								"dim": [
									{
										"size": "1"
									},
									{
										"size": "1"
									},
									{
										"size": "192"
									},
									{
										"size": "128"
									}
								]
							}
						}
					},
					"dtype": {
						"type": "DT_FLOAT"
					}
				}
			},
			{
				"name": "unknown_78",
				"op": "Const",
				"attr": {
					"value": {
						"tensor": {
							"dtype": "DT_FLOAT",
							"tensorShape": {
								"dim": [
									{
										"size": "128"
									}
								]
							}
						}
					},
					"dtype": {
						"type": "DT_FLOAT"
					}
				}
			},
			{
				"name": "StatefulPartitionedCall/transpose_129/perm",
				"op": "Const",
				"attr": {
					"value": {
						"tensor": {
							"dtype": "DT_INT32",
							"tensorShape": {
								"dim": [
									{
										"size": "4"
									}
								]
							}
						}
					},
					"dtype": {
						"type": "DT_INT32"
					}
				}
			},
			{
				"name": "StatefulPartitionedCall/Const_54",
				"op": "Const",
				"attr": {
					"value": {
						"tensor": {
							"dtype": "DT_INT32",
							"tensorShape": {
								"dim": [
									{
										"size": "4"
									},
									{
										"size": "2"
									}
								]
							}
						}
					},
					"dtype": {
						"type": "DT_INT32"
					}
				}
			},
			{
				"name": "StatefulPartitionedCall/transpose_131/perm",
				"op": "Const",
				"attr": {
					"value": {
						"tensor": {
							"dtype": "DT_INT32",
							"tensorShape": {
								"dim": [
									{
										"size": "4"
									}
								]
							}
						}
					},
					"dtype": {
						"type": "DT_INT32"
					}
				}
			},
			{
				"name": "StatefulPartitionedCall/split_40",
				"op": "Const",
				"attr": {
					"value": {
						"tensor": {
							"dtype": "DT_FLOAT",
							"tensorShape": {
								"dim": [
									{
										"size": "3"
									},
									{
										"size": "3"
									},
									{
										"size": "128"
									},
									{
										"size": "128"
									}
								]
							}
						}
					},
					"dtype": {
						"type": "DT_FLOAT"
					}
				}
			},
			{
				"name": "unknown_80",
				"op": "Const",
				"attr": {
					"value": {
						"tensor": {
							"dtype": "DT_FLOAT",
							"tensorShape": {
								"dim": [
									{
										"size": "128"
									}
								]
							}
						}
					},
					"dtype": {
						"type": "DT_FLOAT"
					}
				}
			},
			{
				"name": "StatefulPartitionedCall/transpose_132/perm",
				"op": "Const",
				"attr": {
					"value": {
						"tensor": {
							"dtype": "DT_INT32",
							"tensorShape": {
								"dim": [
									{
										"size": "4"
									}
								]
							}
						}
					},
					"dtype": {
						"type": "DT_INT32"
					}
				}
			},
			{
				"name": "StatefulPartitionedCall/transpose_79/perm",
				"op": "Const",
				"attr": {
					"value": {
						"tensor": {
							"dtype": "DT_INT32",
							"tensorShape": {
								"dim": [
									{
										"size": "4"
									}
								]
							}
						}
					},
					"dtype": {
						"type": "DT_INT32"
					}
				}
			},
			{
				"name": "StatefulPartitionedCall/transpose_81/perm",
				"op": "Const",
				"attr": {
					"value": {
						"tensor": {
							"dtype": "DT_INT32",
							"tensorShape": {
								"dim": [
									{
										"size": "4"
									}
								]
							}
						}
					},
					"dtype": {
						"type": "DT_INT32"
					}
				}
			},
			{
				"name": "StatefulPartitionedCall/SelectV2_25",
				"op": "Const",
				"attr": {
					"value": {
						"tensor": {
							"dtype": "DT_INT64",
							"tensorShape": {
								"dim": [
									{
										"size": "1"
									}
								]
							}
						}
					},
					"dtype": {
						"type": "DT_INT64"
					}
				}
			},
			{
				"name": "StatefulPartitionedCall/zeros_6",
				"op": "Const",
				"attr": {
					"value": {
						"tensor": {
							"dtype": "DT_INT64",
							"tensorShape": {}
						}
					},
					"dtype": {
						"type": "DT_INT64"
					}
				}
			},
			{
				"name": "StatefulPartitionedCall/Const_28",
				"op": "Const",
				"attr": {
					"value": {
						"tensor": {
							"dtype": "DT_INT64",
							"tensorShape": {}
						}
					},
					"dtype": {
						"type": "DT_INT64"
					}
				}
			},
			{
				"name": "StatefulPartitionedCall/Shape_6",
				"op": "Const",
				"attr": {
					"value": {
						"tensor": {
							"dtype": "DT_INT64",
							"tensorShape": {
								"dim": [
									{
										"size": "4"
									}
								]
							}
						}
					},
					"dtype": {
						"type": "DT_INT64"
					}
				}
			},
			{
				"name": "StatefulPartitionedCall/ExpandDims_6",
				"op": "Const",
				"attr": {
					"value": {
						"tensor": {
							"dtype": "DT_INT64",
							"tensorShape": {
								"dim": [
									{
										"size": "1"
									},
									{
										"size": "1"
									}
								]
							}
						}
					},
					"dtype": {
						"type": "DT_INT64"
					}
				}
			},
			{
				"name": "StatefulPartitionedCall/Cast_25",
				"op": "Const",
				"attr": {
					"value": {
						"tensor": {
							"dtype": "DT_INT64",
							"tensorShape": {
								"dim": [
									{
										"size": "1"
									}
								]
							}
						}
					},
					"dtype": {
						"type": "DT_INT64"
					}
				}
			},
			{
				"name": "StatefulPartitionedCall/Const_27",
				"op": "Const",
				"attr": {
					"value": {
						"tensor": {
							"dtype": "DT_INT64",
							"tensorShape": {}
						}
					},
					"dtype": {
						"type": "DT_INT64"
					}
				}
			},
			{
				"name": "StatefulPartitionedCall/ones_6",
				"op": "Const",
				"attr": {
					"value": {
						"tensor": {
							"dtype": "DT_INT64",
							"tensorShape": {
								"dim": [
									{
										"size": "4"
									}
								]
							}
						}
					},
					"dtype": {
						"type": "DT_INT64"
					}
				}
			},
			{
				"name": "StatefulPartitionedCall/SelectV2_17",
				"op": "Const",
				"attr": {
					"value": {
						"tensor": {
							"dtype": "DT_INT64",
							"tensorShape": {
								"dim": [
									{
										"size": "1"
									}
								]
							}
						}
					},
					"dtype": {
						"type": "DT_INT64"
					}
				}
			},
			{
				"name": "StatefulPartitionedCall/zeros_4",
				"op": "Const",
				"attr": {
					"value": {
						"tensor": {
							"dtype": "DT_INT64",
							"tensorShape": {}
						}
					},
					"dtype": {
						"type": "DT_INT64"
					}
				}
			},
			{
				"name": "StatefulPartitionedCall/Const_19",
				"op": "Const",
				"attr": {
					"value": {
						"tensor": {
							"dtype": "DT_INT64",
							"tensorShape": {}
						}
					},
					"dtype": {
						"type": "DT_INT64"
					}
				}
			},
			{
				"name": "StatefulPartitionedCall/Shape_4",
				"op": "Const",
				"attr": {
					"value": {
						"tensor": {
							"dtype": "DT_INT64",
							"tensorShape": {
								"dim": [
									{
										"size": "4"
									}
								]
							}
						}
					},
					"dtype": {
						"type": "DT_INT64"
					}
				}
			},
			{
				"name": "StatefulPartitionedCall/ExpandDims_4",
				"op": "Const",
				"attr": {
					"value": {
						"tensor": {
							"dtype": "DT_INT64",
							"tensorShape": {
								"dim": [
									{
										"size": "1"
									},
									{
										"size": "1"
									}
								]
							}
						}
					},
					"dtype": {
						"type": "DT_INT64"
					}
				}
			},
			{
				"name": "StatefulPartitionedCall/Cast_18",
				"op": "Const",
				"attr": {
					"value": {
						"tensor": {
							"dtype": "DT_INT64",
							"tensorShape": {
								"dim": [
									{
										"size": "1"
									}
								]
							}
						}
					},
					"dtype": {
						"type": "DT_INT64"
					}
				}
			},
			{
				"name": "StatefulPartitionedCall/Const_18",
				"op": "Const",
				"attr": {
					"value": {
						"tensor": {
							"dtype": "DT_INT64",
							"tensorShape": {}
						}
					},
					"dtype": {
						"type": "DT_INT64"
					}
				}
			},
			{
				"name": "StatefulPartitionedCall/ones_4",
				"op": "Const",
				"attr": {
					"value": {
						"tensor": {
							"dtype": "DT_INT64",
							"tensorShape": {
								"dim": [
									{
										"size": "4"
									}
								]
							}
						}
					},
					"dtype": {
						"type": "DT_INT64"
					}
				}
			},
			{
				"name": "StatefulPartitionedCall/SelectV2_9",
				"op": "Const",
				"attr": {
					"value": {
						"tensor": {
							"dtype": "DT_INT64",
							"tensorShape": {
								"dim": [
									{
										"size": "1"
									}
								]
							}
						}
					},
					"dtype": {
						"type": "DT_INT64"
					}
				}
			},
			{
				"name": "StatefulPartitionedCall/zeros_2",
				"op": "Const",
				"attr": {
					"value": {
						"tensor": {
							"dtype": "DT_INT64",
							"tensorShape": {}
						}
					},
					"dtype": {
						"type": "DT_INT64"
					}
				}
			},
			{
				"name": "StatefulPartitionedCall/Const_10",
				"op": "Const",
				"attr": {
					"value": {
						"tensor": {
							"dtype": "DT_INT64",
							"tensorShape": {}
						}
					},
					"dtype": {
						"type": "DT_INT64"
					}
				}
			},
			{
				"name": "StatefulPartitionedCall/Shape_2",
				"op": "Const",
				"attr": {
					"value": {
						"tensor": {
							"dtype": "DT_INT64",
							"tensorShape": {
								"dim": [
									{
										"size": "4"
									}
								]
							}
						}
					},
					"dtype": {
						"type": "DT_INT64"
					}
				}
			},
			{
				"name": "StatefulPartitionedCall/ExpandDims_2",
				"op": "Const",
				"attr": {
					"value": {
						"tensor": {
							"dtype": "DT_INT64",
							"tensorShape": {
								"dim": [
									{
										"size": "1"
									},
									{
										"size": "1"
									}
								]
							}
						}
					},
					"dtype": {
						"type": "DT_INT64"
					}
				}
			},
			{
				"name": "StatefulPartitionedCall/Cast_11",
				"op": "Const",
				"attr": {
					"value": {
						"tensor": {
							"dtype": "DT_INT64",
							"tensorShape": {
								"dim": [
									{
										"size": "1"
									}
								]
							}
						}
					},
					"dtype": {
						"type": "DT_INT64"
					}
				}
			},
			{
				"name": "StatefulPartitionedCall/Const_9",
				"op": "Const",
				"attr": {
					"value": {
						"tensor": {
							"dtype": "DT_INT64",
							"tensorShape": {}
						}
					},
					"dtype": {
						"type": "DT_INT64"
					}
				}
			},
			{
				"name": "StatefulPartitionedCall/ones_2",
				"op": "Const",
				"attr": {
					"value": {
						"tensor": {
							"dtype": "DT_INT64",
							"tensorShape": {
								"dim": [
									{
										"size": "4"
									}
								]
							}
						}
					},
					"dtype": {
						"type": "DT_INT64"
					}
				}
			},
			{
				"name": "StatefulPartitionedCall/SelectV2_1",
				"op": "Const",
				"attr": {
					"value": {
						"tensor": {
							"dtype": "DT_INT64",
							"tensorShape": {
								"dim": [
									{
										"size": "1"
									}
								]
							}
						}
					},
					"dtype": {
						"type": "DT_INT64"
					}
				}
			},
			{
				"name": "StatefulPartitionedCall/zeros",
				"op": "Const",
				"attr": {
					"value": {
						"tensor": {
							"dtype": "DT_INT64",
							"tensorShape": {}
						}
					},
					"dtype": {
						"type": "DT_INT64"
					}
				}
			},
			{
				"name": "StatefulPartitionedCall/Const_3",
				"op": "Const",
				"attr": {
					"value": {
						"tensor": {
							"dtype": "DT_INT64",
							"tensorShape": {}
						}
					},
					"dtype": {
						"type": "DT_INT64"
					}
				}
			},
			{
				"name": "StatefulPartitionedCall/Shape",
				"op": "Const",
				"attr": {
					"value": {
						"tensor": {
							"dtype": "DT_INT64",
							"tensorShape": {
								"dim": [
									{
										"size": "4"
									}
								]
							}
						}
					},
					"dtype": {
						"type": "DT_INT64"
					}
				}
			},
			{
				"name": "StatefulPartitionedCall/ExpandDims",
				"op": "Const",
				"attr": {
					"value": {
						"tensor": {
							"dtype": "DT_INT64",
							"tensorShape": {
								"dim": [
									{
										"size": "1"
									},
									{
										"size": "1"
									}
								]
							}
						}
					},
					"dtype": {
						"type": "DT_INT64"
					}
				}
			},
			{
				"name": "StatefulPartitionedCall/Cast_4",
				"op": "Const",
				"attr": {
					"value": {
						"tensor": {
							"dtype": "DT_INT64",
							"tensorShape": {
								"dim": [
									{
										"size": "1"
									}
								]
							}
						}
					},
					"dtype": {
						"type": "DT_INT64"
					}
				}
			},
			{
				"name": "StatefulPartitionedCall/Const_2",
				"op": "Const",
				"attr": {
					"value": {
						"tensor": {
							"dtype": "DT_INT64",
							"tensorShape": {}
						}
					},
					"dtype": {
						"type": "DT_INT64"
					}
				}
			},
			{
				"name": "StatefulPartitionedCall/ones",
				"op": "Const",
				"attr": {
					"value": {
						"tensor": {
							"dtype": "DT_INT64",
							"tensorShape": {
								"dim": [
									{
										"size": "4"
									}
								]
							}
						}
					},
					"dtype": {
						"type": "DT_INT64"
					}
				}
			},
			{
				"name": "StatefulPartitionedCall/Const",
				"op": "Const",
				"attr": {
					"value": {
						"tensor": {
							"dtype": "DT_INT32",
							"tensorShape": {
								"dim": [
									{
										"size": "4"
									},
									{
										"size": "2"
									}
								]
							}
						}
					},
					"dtype": {
						"type": "DT_INT32"
					}
				}
			},
			{
				"name": "StatefulPartitionedCall/transpose_1/perm",
				"op": "Const",
				"attr": {
					"value": {
						"tensor": {
							"dtype": "DT_INT32",
							"tensorShape": {
								"dim": [
									{
										"size": "4"
									}
								]
							}
						}
					},
					"dtype": {
						"type": "DT_INT32"
					}
				}
			},
			{
				"name": "StatefulPartitionedCall/split",
				"op": "Const",
				"attr": {
					"value": {
						"tensor": {
							"dtype": "DT_FLOAT",
							"tensorShape": {
								"dim": [
									{
										"size": "3"
									},
									{
										"size": "3"
									},
									{
										"size": "3"
									},
									{
										"size": "16"
									}
								]
							}
						}
					},
					"dtype": {
						"type": "DT_FLOAT"
					}
				}
			},
			{
				"name": "unknown_0",
				"op": "Const",
				"attr": {
					"value": {
						"tensor": {
							"dtype": "DT_FLOAT",
							"tensorShape": {
								"dim": [
									{
										"size": "16"
									}
								]
							}
						}
					},
					"dtype": {
						"type": "DT_FLOAT"
					}
				}
			},
			{
				"name": "StatefulPartitionedCall/transpose_2/perm",
				"op": "Const",
				"attr": {
					"value": {
						"tensor": {
							"dtype": "DT_INT32",
							"tensorShape": {
								"dim": [
									{
										"size": "4"
									}
								]
							}
						}
					},
					"dtype": {
						"type": "DT_INT32"
					}
				}
			},
			{
				"name": "StatefulPartitionedCall/Const_1",
				"op": "Const",
				"attr": {
					"value": {
						"tensor": {
							"dtype": "DT_INT32",
							"tensorShape": {
								"dim": [
									{
										"size": "4"
									},
									{
										"size": "2"
									}
								]
							}
						}
					},
					"dtype": {
						"type": "DT_INT32"
					}
				}
			},
			{
				"name": "StatefulPartitionedCall/transpose_4/perm",
				"op": "Const",
				"attr": {
					"value": {
						"tensor": {
							"dtype": "DT_INT32",
							"tensorShape": {
								"dim": [
									{
										"size": "4"
									}
								]
							}
						}
					},
					"dtype": {
						"type": "DT_INT32"
					}
				}
			},
			{
				"name": "StatefulPartitionedCall/split_1",
				"op": "Const",
				"attr": {
					"value": {
						"tensor": {
							"dtype": "DT_FLOAT",
							"tensorShape": {
								"dim": [
									{
										"size": "3"
									},
									{
										"size": "3"
									},
									{
										"size": "16"
									},
									{
										"size": "32"
									}
								]
							}
						}
					},
					"dtype": {
						"type": "DT_FLOAT"
					}
				}
			},
			{
				"name": "unknown_2",
				"op": "Const",
				"attr": {
					"value": {
						"tensor": {
							"dtype": "DT_FLOAT",
							"tensorShape": {
								"dim": [
									{
										"size": "32"
									}
								]
							}
						}
					},
					"dtype": {
						"type": "DT_FLOAT"
					}
				}
			},
			{
				"name": "StatefulPartitionedCall/transpose_5/perm",
				"op": "Const",
				"attr": {
					"value": {
						"tensor": {
							"dtype": "DT_INT32",
							"tensorShape": {
								"dim": [
									{
										"size": "4"
									}
								]
							}
						}
					},
					"dtype": {
						"type": "DT_INT32"
					}
				}
			},
			{
				"name": "StatefulPartitionedCall/transpose_7/perm",
				"op": "Const",
				"attr": {
					"value": {
						"tensor": {
							"dtype": "DT_INT32",
							"tensorShape": {
								"dim": [
									{
										"size": "4"
									}
								]
							}
						}
					},
					"dtype": {
						"type": "DT_INT32"
					}
				}
			},
			{
				"name": "StatefulPartitionedCall/split_2",
				"op": "Const",
				"attr": {
					"value": {
						"tensor": {
							"dtype": "DT_FLOAT",
							"tensorShape": {
								"dim": [
									{
										"size": "1"
									},
									{
										"size": "1"
									},
									{
										"size": "32"
									},
									{
										"size": "32"
									}
								]
							}
						}
					},
					"dtype": {
						"type": "DT_FLOAT"
					}
				}
			},
			{
				"name": "unknown_4",
				"op": "Const",
				"attr": {
					"value": {
						"tensor": {
							"dtype": "DT_FLOAT",
							"tensorShape": {
								"dim": [
									{
										"size": "32"
									}
								]
							}
						}
					},
					"dtype": {
						"type": "DT_FLOAT"
					}
				}
			},
			{
				"name": "StatefulPartitionedCall/transpose_8/perm",
				"op": "Const",
				"attr": {
					"value": {
						"tensor": {
							"dtype": "DT_INT32",
							"tensorShape": {
								"dim": [
									{
										"size": "4"
									}
								]
							}
						}
					},
					"dtype": {
						"type": "DT_INT32"
					}
				}
			},
			{
				"name": "StatefulPartitionedCall/zeros_1",
				"op": "Const",
				"attr": {
					"value": {
						"tensor": {
							"dtype": "DT_INT64",
							"tensorShape": {}
						}
					},
					"dtype": {
						"type": "DT_INT64"
					}
				}
			},
			{
				"name": "StatefulPartitionedCall/Const_5",
				"op": "Const",
				"attr": {
					"value": {
						"tensor": {
							"dtype": "DT_INT64",
							"tensorShape": {}
						}
					},
					"dtype": {
						"type": "DT_INT64"
					}
				}
			},
			{
				"name": "StatefulPartitionedCall/Shape_1",
				"op": "Const",
				"attr": {
					"value": {
						"tensor": {
							"dtype": "DT_INT64",
							"tensorShape": {
								"dim": [
									{
										"size": "4"
									}
								]
							}
						}
					},
					"dtype": {
						"type": "DT_INT64"
					}
				}
			},
			{
				"name": "StatefulPartitionedCall/ExpandDims_1",
				"op": "Const",
				"attr": {
					"value": {
						"tensor": {
							"dtype": "DT_INT64",
							"tensorShape": {
								"dim": [
									{
										"size": "1"
									},
									{
										"size": "1"
									}
								]
							}
						}
					},
					"dtype": {
						"type": "DT_INT64"
					}
				}
			},
			{
				"name": "StatefulPartitionedCall/Cast_6",
				"op": "Const",
				"attr": {
					"value": {
						"tensor": {
							"dtype": "DT_INT64",
							"tensorShape": {
								"dim": [
									{
										"size": "1"
									}
								]
							}
						}
					},
					"dtype": {
						"type": "DT_INT64"
					}
				}
			},
			{
				"name": "Func/StatefulPartitionedCall/assert_equal_1/Assert/AssertGuard/then/_133/output/_227",
				"op": "Const",
				"attr": {
					"value": {
						"tensor": {
							"dtype": "DT_BOOL",
							"tensorShape": {}
						}
					},
					"dtype": {
						"type": "DT_BOOL"
					}
				}
			},
			{
				"name": "StatefulPartitionedCall/Const_4",
				"op": "Const",
				"attr": {
					"value": {
						"tensor": {
							"dtype": "DT_INT64",
							"tensorShape": {}
						}
					},
					"dtype": {
						"type": "DT_INT64"
					}
				}
			},
			{
				"name": "StatefulPartitionedCall/ones_1",
				"op": "Const",
				"attr": {
					"value": {
						"tensor": {
							"dtype": "DT_INT64",
							"tensorShape": {
								"dim": [
									{
										"size": "4"
									}
								]
							}
						}
					},
					"dtype": {
						"type": "DT_INT64"
					}
				}
			},
			{
				"name": "StatefulPartitionedCall/Const_6",
				"op": "Const",
				"attr": {
					"value": {
						"tensor": {
							"dtype": "DT_INT32",
							"tensorShape": {
								"dim": [
									{
										"size": "4"
									},
									{
										"size": "2"
									}
								]
							}
						}
					},
					"dtype": {
						"type": "DT_INT32"
					}
				}
			},
			{
				"name": "StatefulPartitionedCall/transpose_10/perm",
				"op": "Const",
				"attr": {
					"value": {
						"tensor": {
							"dtype": "DT_INT32",
							"tensorShape": {
								"dim": [
									{
										"size": "4"
									}
								]
							}
						}
					},
					"dtype": {
						"type": "DT_INT32"
					}
				}
			},
			{
				"name": "StatefulPartitionedCall/split_3",
				"op": "Const",
				"attr": {
					"value": {
						"tensor": {
							"dtype": "DT_FLOAT",
							"tensorShape": {
								"dim": [
									{
										"size": "3"
									},
									{
										"size": "3"
									},
									{
										"size": "16"
									},
									{
										"size": "16"
									}
								]
							}
						}
					},
					"dtype": {
						"type": "DT_FLOAT"
					}
				}
			},
			{
				"name": "unknown_6",
				"op": "Const",
				"attr": {
					"value": {
						"tensor": {
							"dtype": "DT_FLOAT",
							"tensorShape": {
								"dim": [
									{
										"size": "16"
									}
								]
							}
						}
					},
					"dtype": {
						"type": "DT_FLOAT"
					}
				}
			},
			{
				"name": "StatefulPartitionedCall/transpose_11/perm",
				"op": "Const",
				"attr": {
					"value": {
						"tensor": {
							"dtype": "DT_INT32",
							"tensorShape": {
								"dim": [
									{
										"size": "4"
									}
								]
							}
						}
					},
					"dtype": {
						"type": "DT_INT32"
					}
				}
			},
			{
				"name": "StatefulPartitionedCall/Const_7",
				"op": "Const",
				"attr": {
					"value": {
						"tensor": {
							"dtype": "DT_INT32",
							"tensorShape": {
								"dim": [
									{
										"size": "4"
									},
									{
										"size": "2"
									}
								]
							}
						}
					},
					"dtype": {
						"type": "DT_INT32"
					}
				}
			},
			{
				"name": "StatefulPartitionedCall/transpose_13/perm",
				"op": "Const",
				"attr": {
					"value": {
						"tensor": {
							"dtype": "DT_INT32",
							"tensorShape": {
								"dim": [
									{
										"size": "4"
									}
								]
							}
						}
					},
					"dtype": {
						"type": "DT_INT32"
					}
				}
			},
			{
				"name": "StatefulPartitionedCall/split_4",
				"op": "Const",
				"attr": {
					"value": {
						"tensor": {
							"dtype": "DT_FLOAT",
							"tensorShape": {
								"dim": [
									{
										"size": "3"
									},
									{
										"size": "3"
									},
									{
										"size": "16"
									},
									{
										"size": "16"
									}
								]
							}
						}
					},
					"dtype": {
						"type": "DT_FLOAT"
					}
				}
			},
			{
				"name": "unknown_8",
				"op": "Const",
				"attr": {
					"value": {
						"tensor": {
							"dtype": "DT_FLOAT",
							"tensorShape": {
								"dim": [
									{
										"size": "16"
									}
								]
							}
						}
					},
					"dtype": {
						"type": "DT_FLOAT"
					}
				}
			},
			{
				"name": "StatefulPartitionedCall/transpose_14/perm",
				"op": "Const",
				"attr": {
					"value": {
						"tensor": {
							"dtype": "DT_INT32",
							"tensorShape": {
								"dim": [
									{
										"size": "4"
									}
								]
							}
						}
					},
					"dtype": {
						"type": "DT_INT32"
					}
				}
			},
			{
				"name": "StatefulPartitionedCall/onnx_tf_prefix_/model.2/Concat/axis",
				"op": "Const",
				"attr": {
					"value": {
						"tensor": {
							"dtype": "DT_INT32",
							"tensorShape": {}
						}
					},
					"dtype": {
						"type": "DT_INT32"
					}
				}
			},
			{
				"name": "StatefulPartitionedCall/transpose_16/perm",
				"op": "Const",
				"attr": {
					"value": {
						"tensor": {
							"dtype": "DT_INT32",
							"tensorShape": {
								"dim": [
									{
										"size": "4"
									}
								]
							}
						}
					},
					"dtype": {
						"type": "DT_INT32"
					}
				}
			},
			{
				"name": "StatefulPartitionedCall/split_5",
				"op": "Const",
				"attr": {
					"value": {
						"tensor": {
							"dtype": "DT_FLOAT",
							"tensorShape": {
								"dim": [
									{
										"size": "1"
									},
									{
										"size": "1"
									},
									{
										"size": "48"
									},
									{
										"size": "32"
									}
								]
							}
						}
					},
					"dtype": {
						"type": "DT_FLOAT"
					}
				}
			},
			{
				"name": "unknown_10",
				"op": "Const",
				"attr": {
					"value": {
						"tensor": {
							"dtype": "DT_FLOAT",
							"tensorShape": {
								"dim": [
									{
										"size": "32"
									}
								]
							}
						}
					},
					"dtype": {
						"type": "DT_FLOAT"
					}
				}
			},
			{
				"name": "StatefulPartitionedCall/transpose_17/perm",
				"op": "Const",
				"attr": {
					"value": {
						"tensor": {
							"dtype": "DT_INT32",
							"tensorShape": {
								"dim": [
									{
										"size": "4"
									}
								]
							}
						}
					},
					"dtype": {
						"type": "DT_INT32"
					}
				}
			},
			{
				"name": "StatefulPartitionedCall/Const_8",
				"op": "Const",
				"attr": {
					"value": {
						"tensor": {
							"dtype": "DT_INT32",
							"tensorShape": {
								"dim": [
									{
										"size": "4"
									},
									{
										"size": "2"
									}
								]
							}
						}
					},
					"dtype": {
						"type": "DT_INT32"
					}
				}
			},
			{
				"name": "StatefulPartitionedCall/transpose_19/perm",
				"op": "Const",
				"attr": {
					"value": {
						"tensor": {
							"dtype": "DT_INT32",
							"tensorShape": {
								"dim": [
									{
										"size": "4"
									}
								]
							}
						}
					},
					"dtype": {
						"type": "DT_INT32"
					}
				}
			},
			{
				"name": "StatefulPartitionedCall/split_6",
				"op": "Const",
				"attr": {
					"value": {
						"tensor": {
							"dtype": "DT_FLOAT",
							"tensorShape": {
								"dim": [
									{
										"size": "3"
									},
									{
										"size": "3"
									},
									{
										"size": "32"
									},
									{
										"size": "64"
									}
								]
							}
						}
					},
					"dtype": {
						"type": "DT_FLOAT"
					}
				}
			},
			{
				"name": "unknown_12",
				"op": "Const",
				"attr": {
					"value": {
						"tensor": {
							"dtype": "DT_FLOAT",
							"tensorShape": {
								"dim": [
									{
										"size": "64"
									}
								]
							}
						}
					},
					"dtype": {
						"type": "DT_FLOAT"
					}
				}
			},
			{
				"name": "StatefulPartitionedCall/transpose_20/perm",
				"op": "Const",
				"attr": {
					"value": {
						"tensor": {
							"dtype": "DT_INT32",
							"tensorShape": {
								"dim": [
									{
										"size": "4"
									}
								]
							}
						}
					},
					"dtype": {
						"type": "DT_INT32"
					}
				}
			},
			{
				"name": "StatefulPartitionedCall/transpose_22/perm",
				"op": "Const",
				"attr": {
					"value": {
						"tensor": {
							"dtype": "DT_INT32",
							"tensorShape": {
								"dim": [
									{
										"size": "4"
									}
								]
							}
						}
					},
					"dtype": {
						"type": "DT_INT32"
					}
				}
			},
			{
				"name": "StatefulPartitionedCall/split_7",
				"op": "Const",
				"attr": {
					"value": {
						"tensor": {
							"dtype": "DT_FLOAT",
							"tensorShape": {
								"dim": [
									{
										"size": "1"
									},
									{
										"size": "1"
									},
									{
										"size": "64"
									},
									{
										"size": "64"
									}
								]
							}
						}
					},
					"dtype": {
						"type": "DT_FLOAT"
					}
				}
			},
			{
				"name": "unknown_14",
				"op": "Const",
				"attr": {
					"value": {
						"tensor": {
							"dtype": "DT_FLOAT",
							"tensorShape": {
								"dim": [
									{
										"size": "64"
									}
								]
							}
						}
					},
					"dtype": {
						"type": "DT_FLOAT"
					}
				}
			},
			{
				"name": "StatefulPartitionedCall/transpose_23/perm",
				"op": "Const",
				"attr": {
					"value": {
						"tensor": {
							"dtype": "DT_INT32",
							"tensorShape": {
								"dim": [
									{
										"size": "4"
									}
								]
							}
						}
					},
					"dtype": {
						"type": "DT_INT32"
					}
				}
			},
			{
				"name": "StatefulPartitionedCall/zeros_3",
				"op": "Const",
				"attr": {
					"value": {
						"tensor": {
							"dtype": "DT_INT64",
							"tensorShape": {}
						}
					},
					"dtype": {
						"type": "DT_INT64"
					}
				}
			},
			{
				"name": "StatefulPartitionedCall/Const_12",
				"op": "Const",
				"attr": {
					"value": {
						"tensor": {
							"dtype": "DT_INT64",
							"tensorShape": {}
						}
					},
					"dtype": {
						"type": "DT_INT64"
					}
				}
			},
			{
				"name": "StatefulPartitionedCall/Shape_3",
				"op": "Const",
				"attr": {
					"value": {
						"tensor": {
							"dtype": "DT_INT64",
							"tensorShape": {
								"dim": [
									{
										"size": "4"
									}
								]
							}
						}
					},
					"dtype": {
						"type": "DT_INT64"
					}
				}
			},
			{
				"name": "StatefulPartitionedCall/ExpandDims_3",
				"op": "Const",
				"attr": {
					"value": {
						"tensor": {
							"dtype": "DT_INT64",
							"tensorShape": {
								"dim": [
									{
										"size": "1"
									},
									{
										"size": "1"
									}
								]
							}
						}
					},
					"dtype": {
						"type": "DT_INT64"
					}
				}
			},
			{
				"name": "StatefulPartitionedCall/Cast_13",
				"op": "Const",
				"attr": {
					"value": {
						"tensor": {
							"dtype": "DT_INT64",
							"tensorShape": {
								"dim": [
									{
										"size": "1"
									}
								]
							}
						}
					},
					"dtype": {
						"type": "DT_INT64"
					}
				}
			},
			{
				"name": "StatefulPartitionedCall/Const_11",
				"op": "Const",
				"attr": {
					"value": {
						"tensor": {
							"dtype": "DT_INT64",
							"tensorShape": {}
						}
					},
					"dtype": {
						"type": "DT_INT64"
					}
				}
			},
			{
				"name": "StatefulPartitionedCall/ones_3",
				"op": "Const",
				"attr": {
					"value": {
						"tensor": {
							"dtype": "DT_INT64",
							"tensorShape": {
								"dim": [
									{
										"size": "4"
									}
								]
							}
						}
					},
					"dtype": {
						"type": "DT_INT64"
					}
				}
			},
			{
				"name": "StatefulPartitionedCall/Const_13",
				"op": "Const",
				"attr": {
					"value": {
						"tensor": {
							"dtype": "DT_INT32",
							"tensorShape": {
								"dim": [
									{
										"size": "4"
									},
									{
										"size": "2"
									}
								]
							}
						}
					},
					"dtype": {
						"type": "DT_INT32"
					}
				}
			},
			{
				"name": "StatefulPartitionedCall/transpose_25/perm",
				"op": "Const",
				"attr": {
					"value": {
						"tensor": {
							"dtype": "DT_INT32",
							"tensorShape": {
								"dim": [
									{
										"size": "4"
									}
								]
							}
						}
					},
					"dtype": {
						"type": "DT_INT32"
					}
				}
			},
			{
				"name": "StatefulPartitionedCall/split_8",
				"op": "Const",
				"attr": {
					"value": {
						"tensor": {
							"dtype": "DT_FLOAT",
							"tensorShape": {
								"dim": [
									{
										"size": "3"
									},
									{
										"size": "3"
									},
									{
										"size": "32"
									},
									{
										"size": "32"
									}
								]
							}
						}
					},
					"dtype": {
						"type": "DT_FLOAT"
					}
				}
			},
			{
				"name": "unknown_16",
				"op": "Const",
				"attr": {
					"value": {
						"tensor": {
							"dtype": "DT_FLOAT",
							"tensorShape": {
								"dim": [
									{
										"size": "32"
									}
								]
							}
						}
					},
					"dtype": {
						"type": "DT_FLOAT"
					}
				}
			},
			{
				"name": "StatefulPartitionedCall/transpose_26/perm",
				"op": "Const",
				"attr": {
					"value": {
						"tensor": {
							"dtype": "DT_INT32",
							"tensorShape": {
								"dim": [
									{
										"size": "4"
									}
								]
							}
						}
					},
					"dtype": {
						"type": "DT_INT32"
					}
				}
			},
			{
				"name": "StatefulPartitionedCall/Const_14",
				"op": "Const",
				"attr": {
					"value": {
						"tensor": {
							"dtype": "DT_INT32",
							"tensorShape": {
								"dim": [
									{
										"size": "4"
									},
									{
										"size": "2"
									}
								]
							}
						}
					},
					"dtype": {
						"type": "DT_INT32"
					}
				}
			},
			{
				"name": "StatefulPartitionedCall/transpose_28/perm",
				"op": "Const",
				"attr": {
					"value": {
						"tensor": {
							"dtype": "DT_INT32",
							"tensorShape": {
								"dim": [
									{
										"size": "4"
									}
								]
							}
						}
					},
					"dtype": {
						"type": "DT_INT32"
					}
				}
			},
			{
				"name": "StatefulPartitionedCall/split_9",
				"op": "Const",
				"attr": {
					"value": {
						"tensor": {
							"dtype": "DT_FLOAT",
							"tensorShape": {
								"dim": [
									{
										"size": "3"
									},
									{
										"size": "3"
									},
									{
										"size": "32"
									},
									{
										"size": "32"
									}
								]
							}
						}
					},
					"dtype": {
						"type": "DT_FLOAT"
					}
				}
			},
			{
				"name": "unknown_18",
				"op": "Const",
				"attr": {
					"value": {
						"tensor": {
							"dtype": "DT_FLOAT",
							"tensorShape": {
								"dim": [
									{
										"size": "32"
									}
								]
							}
						}
					},
					"dtype": {
						"type": "DT_FLOAT"
					}
				}
			},
			{
				"name": "StatefulPartitionedCall/transpose_29/perm",
				"op": "Const",
				"attr": {
					"value": {
						"tensor": {
							"dtype": "DT_INT32",
							"tensorShape": {
								"dim": [
									{
										"size": "4"
									}
								]
							}
						}
					},
					"dtype": {
						"type": "DT_INT32"
					}
				}
			},
			{
				"name": "StatefulPartitionedCall/Const_15",
				"op": "Const",
				"attr": {
					"value": {
						"tensor": {
							"dtype": "DT_INT32",
							"tensorShape": {
								"dim": [
									{
										"size": "4"
									},
									{
										"size": "2"
									}
								]
							}
						}
					},
					"dtype": {
						"type": "DT_INT32"
					}
				}
			},
			{
				"name": "StatefulPartitionedCall/transpose_31/perm",
				"op": "Const",
				"attr": {
					"value": {
						"tensor": {
							"dtype": "DT_INT32",
							"tensorShape": {
								"dim": [
									{
										"size": "4"
									}
								]
							}
						}
					},
					"dtype": {
						"type": "DT_INT32"
					}
				}
			},
			{
				"name": "StatefulPartitionedCall/split_10",
				"op": "Const",
				"attr": {
					"value": {
						"tensor": {
							"dtype": "DT_FLOAT",
							"tensorShape": {
								"dim": [
									{
										"size": "3"
									},
									{
										"size": "3"
									},
									{
										"size": "32"
									},
									{
										"size": "32"
									}
								]
							}
						}
					},
					"dtype": {
						"type": "DT_FLOAT"
					}
				}
			},
			{
				"name": "unknown_20",
				"op": "Const",
				"attr": {
					"value": {
						"tensor": {
							"dtype": "DT_FLOAT",
							"tensorShape": {
								"dim": [
									{
										"size": "32"
									}
								]
							}
						}
					},
					"dtype": {
						"type": "DT_FLOAT"
					}
				}
			},
			{
				"name": "StatefulPartitionedCall/transpose_32/perm",
				"op": "Const",
				"attr": {
					"value": {
						"tensor": {
							"dtype": "DT_INT32",
							"tensorShape": {
								"dim": [
									{
										"size": "4"
									}
								]
							}
						}
					},
					"dtype": {
						"type": "DT_INT32"
					}
				}
			},
			{
				"name": "StatefulPartitionedCall/Const_16",
				"op": "Const",
				"attr": {
					"value": {
						"tensor": {
							"dtype": "DT_INT32",
							"tensorShape": {
								"dim": [
									{
										"size": "4"
									},
									{
										"size": "2"
									}
								]
							}
						}
					},
					"dtype": {
						"type": "DT_INT32"
					}
				}
			},
			{
				"name": "StatefulPartitionedCall/transpose_34/perm",
				"op": "Const",
				"attr": {
					"value": {
						"tensor": {
							"dtype": "DT_INT32",
							"tensorShape": {
								"dim": [
									{
										"size": "4"
									}
								]
							}
						}
					},
					"dtype": {
						"type": "DT_INT32"
					}
				}
			},
			{
				"name": "StatefulPartitionedCall/split_11",
				"op": "Const",
				"attr": {
					"value": {
						"tensor": {
							"dtype": "DT_FLOAT",
							"tensorShape": {
								"dim": [
									{
										"size": "3"
									},
									{
										"size": "3"
									},
									{
										"size": "32"
									},
									{
										"size": "32"
									}
								]
							}
						}
					},
					"dtype": {
						"type": "DT_FLOAT"
					}
				}
			},
			{
				"name": "unknown_22",
				"op": "Const",
				"attr": {
					"value": {
						"tensor": {
							"dtype": "DT_FLOAT",
							"tensorShape": {
								"dim": [
									{
										"size": "32"
									}
								]
							}
						}
					},
					"dtype": {
						"type": "DT_FLOAT"
					}
				}
			},
			{
				"name": "StatefulPartitionedCall/transpose_35/perm",
				"op": "Const",
				"attr": {
					"value": {
						"tensor": {
							"dtype": "DT_INT32",
							"tensorShape": {
								"dim": [
									{
										"size": "4"
									}
								]
							}
						}
					},
					"dtype": {
						"type": "DT_INT32"
					}
				}
			},
			{
				"name": "StatefulPartitionedCall/onnx_tf_prefix_/model.4/Concat/axis",
				"op": "Const",
				"attr": {
					"value": {
						"tensor": {
							"dtype": "DT_INT32",
							"tensorShape": {}
						}
					},
					"dtype": {
						"type": "DT_INT32"
					}
				}
			},
			{
				"name": "StatefulPartitionedCall/transpose_37/perm",
				"op": "Const",
				"attr": {
					"value": {
						"tensor": {
							"dtype": "DT_INT32",
							"tensorShape": {
								"dim": [
									{
										"size": "4"
									}
								]
							}
						}
					},
					"dtype": {
						"type": "DT_INT32"
					}
				}
			},
			{
				"name": "StatefulPartitionedCall/split_12",
				"op": "Const",
				"attr": {
					"value": {
						"tensor": {
							"dtype": "DT_FLOAT",
							"tensorShape": {
								"dim": [
									{
										"size": "1"
									},
									{
										"size": "1"
									},
									{
										"size": "128"
									},
									{
										"size": "64"
									}
								]
							}
						}
					},
					"dtype": {
						"type": "DT_FLOAT"
					}
				}
			},
			{
				"name": "unknown_24",
				"op": "Const",
				"attr": {
					"value": {
						"tensor": {
							"dtype": "DT_FLOAT",
							"tensorShape": {
								"dim": [
									{
										"size": "64"
									}
								]
							}
						}
					},
					"dtype": {
						"type": "DT_FLOAT"
					}
				}
			},
			{
				"name": "StatefulPartitionedCall/transpose_38/perm",
				"op": "Const",
				"attr": {
					"value": {
						"tensor": {
							"dtype": "DT_INT32",
							"tensorShape": {
								"dim": [
									{
										"size": "4"
									}
								]
							}
						}
					},
					"dtype": {
						"type": "DT_INT32"
					}
				}
			},
			{
				"name": "StatefulPartitionedCall/Const_17",
				"op": "Const",
				"attr": {
					"value": {
						"tensor": {
							"dtype": "DT_INT32",
							"tensorShape": {
								"dim": [
									{
										"size": "4"
									},
									{
										"size": "2"
									}
								]
							}
						}
					},
					"dtype": {
						"type": "DT_INT32"
					}
				}
			},
			{
				"name": "StatefulPartitionedCall/transpose_40/perm",
				"op": "Const",
				"attr": {
					"value": {
						"tensor": {
							"dtype": "DT_INT32",
							"tensorShape": {
								"dim": [
									{
										"size": "4"
									}
								]
							}
						}
					},
					"dtype": {
						"type": "DT_INT32"
					}
				}
			},
			{
				"name": "StatefulPartitionedCall/split_13",
				"op": "Const",
				"attr": {
					"value": {
						"tensor": {
							"dtype": "DT_FLOAT",
							"tensorShape": {
								"dim": [
									{
										"size": "3"
									},
									{
										"size": "3"
									},
									{
										"size": "64"
									},
									{
										"size": "128"
									}
								]
							}
						}
					},
					"dtype": {
						"type": "DT_FLOAT"
					}
				}
			},
			{
				"name": "unknown_26",
				"op": "Const",
				"attr": {
					"value": {
						"tensor": {
							"dtype": "DT_FLOAT",
							"tensorShape": {
								"dim": [
									{
										"size": "128"
									}
								]
							}
						}
					},
					"dtype": {
						"type": "DT_FLOAT"
					}
				}
			},
			{
				"name": "StatefulPartitionedCall/transpose_41/perm",
				"op": "Const",
				"attr": {
					"value": {
						"tensor": {
							"dtype": "DT_INT32",
							"tensorShape": {
								"dim": [
									{
										"size": "4"
									}
								]
							}
						}
					},
					"dtype": {
						"type": "DT_INT32"
					}
				}
			},
			{
				"name": "StatefulPartitionedCall/transpose_43/perm",
				"op": "Const",
				"attr": {
					"value": {
						"tensor": {
							"dtype": "DT_INT32",
							"tensorShape": {
								"dim": [
									{
										"size": "4"
									}
								]
							}
						}
					},
					"dtype": {
						"type": "DT_INT32"
					}
				}
			},
			{
				"name": "StatefulPartitionedCall/split_14",
				"op": "Const",
				"attr": {
					"value": {
						"tensor": {
							"dtype": "DT_FLOAT",
							"tensorShape": {
								"dim": [
									{
										"size": "1"
									},
									{
										"size": "1"
									},
									{
										"size": "128"
									},
									{
										"size": "128"
									}
								]
							}
						}
					},
					"dtype": {
						"type": "DT_FLOAT"
					}
				}
			},
			{
				"name": "unknown_28",
				"op": "Const",
				"attr": {
					"value": {
						"tensor": {
							"dtype": "DT_FLOAT",
							"tensorShape": {
								"dim": [
									{
										"size": "128"
									}
								]
							}
						}
					},
					"dtype": {
						"type": "DT_FLOAT"
					}
				}
			},
			{
				"name": "StatefulPartitionedCall/transpose_44/perm",
				"op": "Const",
				"attr": {
					"value": {
						"tensor": {
							"dtype": "DT_INT32",
							"tensorShape": {
								"dim": [
									{
										"size": "4"
									}
								]
							}
						}
					},
					"dtype": {
						"type": "DT_INT32"
					}
				}
			},
			{
				"name": "StatefulPartitionedCall/zeros_5",
				"op": "Const",
				"attr": {
					"value": {
						"tensor": {
							"dtype": "DT_INT64",
							"tensorShape": {}
						}
					},
					"dtype": {
						"type": "DT_INT64"
					}
				}
			},
			{
				"name": "StatefulPartitionedCall/Const_21",
				"op": "Const",
				"attr": {
					"value": {
						"tensor": {
							"dtype": "DT_INT64",
							"tensorShape": {}
						}
					},
					"dtype": {
						"type": "DT_INT64"
					}
				}
			},
			{
				"name": "StatefulPartitionedCall/Shape_5",
				"op": "Const",
				"attr": {
					"value": {
						"tensor": {
							"dtype": "DT_INT64",
							"tensorShape": {
								"dim": [
									{
										"size": "4"
									}
								]
							}
						}
					},
					"dtype": {
						"type": "DT_INT64"
					}
				}
			},
			{
				"name": "StatefulPartitionedCall/ExpandDims_5",
				"op": "Const",
				"attr": {
					"value": {
						"tensor": {
							"dtype": "DT_INT64",
							"tensorShape": {
								"dim": [
									{
										"size": "1"
									},
									{
										"size": "1"
									}
								]
							}
						}
					},
					"dtype": {
						"type": "DT_INT64"
					}
				}
			},
			{
				"name": "StatefulPartitionedCall/Cast_20",
				"op": "Const",
				"attr": {
					"value": {
						"tensor": {
							"dtype": "DT_INT64",
							"tensorShape": {
								"dim": [
									{
										"size": "1"
									}
								]
							}
						}
					},
					"dtype": {
						"type": "DT_INT64"
					}
				}
			},
			{
				"name": "StatefulPartitionedCall/Const_20",
				"op": "Const",
				"attr": {
					"value": {
						"tensor": {
							"dtype": "DT_INT64",
							"tensorShape": {}
						}
					},
					"dtype": {
						"type": "DT_INT64"
					}
				}
			},
			{
				"name": "StatefulPartitionedCall/ones_5",
				"op": "Const",
				"attr": {
					"value": {
						"tensor": {
							"dtype": "DT_INT64",
							"tensorShape": {
								"dim": [
									{
										"size": "4"
									}
								]
							}
						}
					},
					"dtype": {
						"type": "DT_INT64"
					}
				}
			},
			{
				"name": "StatefulPartitionedCall/Const_22",
				"op": "Const",
				"attr": {
					"value": {
						"tensor": {
							"dtype": "DT_INT32",
							"tensorShape": {
								"dim": [
									{
										"size": "4"
									},
									{
										"size": "2"
									}
								]
							}
						}
					},
					"dtype": {
						"type": "DT_INT32"
					}
				}
			},
			{
				"name": "StatefulPartitionedCall/transpose_46/perm",
				"op": "Const",
				"attr": {
					"value": {
						"tensor": {
							"dtype": "DT_INT32",
							"tensorShape": {
								"dim": [
									{
										"size": "4"
									}
								]
							}
						}
					},
					"dtype": {
						"type": "DT_INT32"
					}
				}
			},
			{
				"name": "StatefulPartitionedCall/split_15",
				"op": "Const",
				"attr": {
					"value": {
						"tensor": {
							"dtype": "DT_FLOAT",
							"tensorShape": {
								"dim": [
									{
										"size": "3"
									},
									{
										"size": "3"
									},
									{
										"size": "64"
									},
									{
										"size": "64"
									}
								]
							}
						}
					},
					"dtype": {
						"type": "DT_FLOAT"
					}
				}
			},
			{
				"name": "unknown_30",
				"op": "Const",
				"attr": {
					"value": {
						"tensor": {
							"dtype": "DT_FLOAT",
							"tensorShape": {
								"dim": [
									{
										"size": "64"
									}
								]
							}
						}
					},
					"dtype": {
						"type": "DT_FLOAT"
					}
				}
			},
			{
				"name": "StatefulPartitionedCall/transpose_47/perm",
				"op": "Const",
				"attr": {
					"value": {
						"tensor": {
							"dtype": "DT_INT32",
							"tensorShape": {
								"dim": [
									{
										"size": "4"
									}
								]
							}
						}
					},
					"dtype": {
						"type": "DT_INT32"
					}
				}
			},
			{
				"name": "StatefulPartitionedCall/Const_23",
				"op": "Const",
				"attr": {
					"value": {
						"tensor": {
							"dtype": "DT_INT32",
							"tensorShape": {
								"dim": [
									{
										"size": "4"
									},
									{
										"size": "2"
									}
								]
							}
						}
					},
					"dtype": {
						"type": "DT_INT32"
					}
				}
			},
			{
				"name": "StatefulPartitionedCall/transpose_49/perm",
				"op": "Const",
				"attr": {
					"value": {
						"tensor": {
							"dtype": "DT_INT32",
							"tensorShape": {
								"dim": [
									{
										"size": "4"
									}
								]
							}
						}
					},
					"dtype": {
						"type": "DT_INT32"
					}
				}
			},
			{
				"name": "StatefulPartitionedCall/split_16",
				"op": "Const",
				"attr": {
					"value": {
						"tensor": {
							"dtype": "DT_FLOAT",
							"tensorShape": {
								"dim": [
									{
										"size": "3"
									},
									{
										"size": "3"
									},
									{
										"size": "64"
									},
									{
										"size": "64"
									}
								]
							}
						}
					},
					"dtype": {
						"type": "DT_FLOAT"
					}
				}
			},
			{
				"name": "unknown_32",
				"op": "Const",
				"attr": {
					"value": {
						"tensor": {
							"dtype": "DT_FLOAT",
							"tensorShape": {
								"dim": [
									{
										"size": "64"
									}
								]
							}
						}
					},
					"dtype": {
						"type": "DT_FLOAT"
					}
				}
			},
			{
				"name": "StatefulPartitionedCall/transpose_50/perm",
				"op": "Const",
				"attr": {
					"value": {
						"tensor": {
							"dtype": "DT_INT32",
							"tensorShape": {
								"dim": [
									{
										"size": "4"
									}
								]
							}
						}
					},
					"dtype": {
						"type": "DT_INT32"
					}
				}
			},
			{
				"name": "StatefulPartitionedCall/Const_24",
				"op": "Const",
				"attr": {
					"value": {
						"tensor": {
							"dtype": "DT_INT32",
							"tensorShape": {
								"dim": [
									{
										"size": "4"
									},
									{
										"size": "2"
									}
								]
							}
						}
					},
					"dtype": {
						"type": "DT_INT32"
					}
				}
			},
			{
				"name": "StatefulPartitionedCall/transpose_52/perm",
				"op": "Const",
				"attr": {
					"value": {
						"tensor": {
							"dtype": "DT_INT32",
							"tensorShape": {
								"dim": [
									{
										"size": "4"
									}
								]
							}
						}
					},
					"dtype": {
						"type": "DT_INT32"
					}
				}
			},
			{
				"name": "StatefulPartitionedCall/split_17",
				"op": "Const",
				"attr": {
					"value": {
						"tensor": {
							"dtype": "DT_FLOAT",
							"tensorShape": {
								"dim": [
									{
										"size": "3"
									},
									{
										"size": "3"
									},
									{
										"size": "64"
									},
									{
										"size": "64"
									}
								]
							}
						}
					},
					"dtype": {
						"type": "DT_FLOAT"
					}
				}
			},
			{
				"name": "unknown_34",
				"op": "Const",
				"attr": {
					"value": {
						"tensor": {
							"dtype": "DT_FLOAT",
							"tensorShape": {
								"dim": [
									{
										"size": "64"
									}
								]
							}
						}
					},
					"dtype": {
						"type": "DT_FLOAT"
					}
				}
			},
			{
				"name": "StatefulPartitionedCall/transpose_53/perm",
				"op": "Const",
				"attr": {
					"value": {
						"tensor": {
							"dtype": "DT_INT32",
							"tensorShape": {
								"dim": [
									{
										"size": "4"
									}
								]
							}
						}
					},
					"dtype": {
						"type": "DT_INT32"
					}
				}
			},
			{
				"name": "StatefulPartitionedCall/Const_25",
				"op": "Const",
				"attr": {
					"value": {
						"tensor": {
							"dtype": "DT_INT32",
							"tensorShape": {
								"dim": [
									{
										"size": "4"
									},
									{
										"size": "2"
									}
								]
							}
						}
					},
					"dtype": {
						"type": "DT_INT32"
					}
				}
			},
			{
				"name": "StatefulPartitionedCall/transpose_55/perm",
				"op": "Const",
				"attr": {
					"value": {
						"tensor": {
							"dtype": "DT_INT32",
							"tensorShape": {
								"dim": [
									{
										"size": "4"
									}
								]
							}
						}
					},
					"dtype": {
						"type": "DT_INT32"
					}
				}
			},
			{
				"name": "StatefulPartitionedCall/split_18",
				"op": "Const",
				"attr": {
					"value": {
						"tensor": {
							"dtype": "DT_FLOAT",
							"tensorShape": {
								"dim": [
									{
										"size": "3"
									},
									{
										"size": "3"
									},
									{
										"size": "64"
									},
									{
										"size": "64"
									}
								]
							}
						}
					},
					"dtype": {
						"type": "DT_FLOAT"
					}
				}
			},
			{
				"name": "unknown_36",
				"op": "Const",
				"attr": {
					"value": {
						"tensor": {
							"dtype": "DT_FLOAT",
							"tensorShape": {
								"dim": [
									{
										"size": "64"
									}
								]
							}
						}
					},
					"dtype": {
						"type": "DT_FLOAT"
					}
				}
			},
			{
				"name": "StatefulPartitionedCall/transpose_56/perm",
				"op": "Const",
				"attr": {
					"value": {
						"tensor": {
							"dtype": "DT_INT32",
							"tensorShape": {
								"dim": [
									{
										"size": "4"
									}
								]
							}
						}
					},
					"dtype": {
						"type": "DT_INT32"
					}
				}
			},
			{
				"name": "StatefulPartitionedCall/onnx_tf_prefix_/model.6/Concat/axis",
				"op": "Const",
				"attr": {
					"value": {
						"tensor": {
							"dtype": "DT_INT32",
							"tensorShape": {}
						}
					},
					"dtype": {
						"type": "DT_INT32"
					}
				}
			},
			{
				"name": "StatefulPartitionedCall/transpose_58/perm",
				"op": "Const",
				"attr": {
					"value": {
						"tensor": {
							"dtype": "DT_INT32",
							"tensorShape": {
								"dim": [
									{
										"size": "4"
									}
								]
							}
						}
					},
					"dtype": {
						"type": "DT_INT32"
					}
				}
			},
			{
				"name": "StatefulPartitionedCall/split_19",
				"op": "Const",
				"attr": {
					"value": {
						"tensor": {
							"dtype": "DT_FLOAT",
							"tensorShape": {
								"dim": [
									{
										"size": "1"
									},
									{
										"size": "1"
									},
									{
										"size": "256"
									},
									{
										"size": "128"
									}
								]
							}
						}
					},
					"dtype": {
						"type": "DT_FLOAT"
					}
				}
			},
			{
				"name": "unknown_38",
				"op": "Const",
				"attr": {
					"value": {
						"tensor": {
							"dtype": "DT_FLOAT",
							"tensorShape": {
								"dim": [
									{
										"size": "128"
									}
								]
							}
						}
					},
					"dtype": {
						"type": "DT_FLOAT"
					}
				}
			},
			{
				"name": "StatefulPartitionedCall/transpose_59/perm",
				"op": "Const",
				"attr": {
					"value": {
						"tensor": {
							"dtype": "DT_INT32",
							"tensorShape": {
								"dim": [
									{
										"size": "4"
									}
								]
							}
						}
					},
					"dtype": {
						"type": "DT_INT32"
					}
				}
			},
			{
				"name": "StatefulPartitionedCall/Const_26",
				"op": "Const",
				"attr": {
					"value": {
						"tensor": {
							"dtype": "DT_INT32",
							"tensorShape": {
								"dim": [
									{
										"size": "4"
									},
									{
										"size": "2"
									}
								]
							}
						}
					},
					"dtype": {
						"type": "DT_INT32"
					}
				}
			},
			{
				"name": "StatefulPartitionedCall/transpose_61/perm",
				"op": "Const",
				"attr": {
					"value": {
						"tensor": {
							"dtype": "DT_INT32",
							"tensorShape": {
								"dim": [
									{
										"size": "4"
									}
								]
							}
						}
					},
					"dtype": {
						"type": "DT_INT32"
					}
				}
			},
			{
				"name": "StatefulPartitionedCall/split_20",
				"op": "Const",
				"attr": {
					"value": {
						"tensor": {
							"dtype": "DT_FLOAT",
							"tensorShape": {
								"dim": [
									{
										"size": "3"
									},
									{
										"size": "3"
									},
									{
										"size": "128"
									},
									{
										"size": "256"
									}
								]
							}
						}
					},
					"dtype": {
						"type": "DT_FLOAT"
					}
				}
			},
			{
				"name": "unknown_40",
				"op": "Const",
				"attr": {
					"value": {
						"tensor": {
							"dtype": "DT_FLOAT",
							"tensorShape": {
								"dim": [
									{
										"size": "256"
									}
								]
							}
						}
					},
					"dtype": {
						"type": "DT_FLOAT"
					}
				}
			},
			{
				"name": "StatefulPartitionedCall/transpose_62/perm",
				"op": "Const",
				"attr": {
					"value": {
						"tensor": {
							"dtype": "DT_INT32",
							"tensorShape": {
								"dim": [
									{
										"size": "4"
									}
								]
							}
						}
					},
					"dtype": {
						"type": "DT_INT32"
					}
				}
			},
			{
				"name": "StatefulPartitionedCall/transpose_64/perm",
				"op": "Const",
				"attr": {
					"value": {
						"tensor": {
							"dtype": "DT_INT32",
							"tensorShape": {
								"dim": [
									{
										"size": "4"
									}
								]
							}
						}
					},
					"dtype": {
						"type": "DT_INT32"
					}
				}
			},
			{
				"name": "StatefulPartitionedCall/split_21",
				"op": "Const",
				"attr": {
					"value": {
						"tensor": {
							"dtype": "DT_FLOAT",
							"tensorShape": {
								"dim": [
									{
										"size": "1"
									},
									{
										"size": "1"
									},
									{
										"size": "256"
									},
									{
										"size": "256"
									}
								]
							}
						}
					},
					"dtype": {
						"type": "DT_FLOAT"
					}
				}
			},
			{
				"name": "unknown_42",
				"op": "Const",
				"attr": {
					"value": {
						"tensor": {
							"dtype": "DT_FLOAT",
							"tensorShape": {
								"dim": [
									{
										"size": "256"
									}
								]
							}
						}
					},
					"dtype": {
						"type": "DT_FLOAT"
					}
				}
			},
			{
				"name": "StatefulPartitionedCall/transpose_65/perm",
				"op": "Const",
				"attr": {
					"value": {
						"tensor": {
							"dtype": "DT_INT32",
							"tensorShape": {
								"dim": [
									{
										"size": "4"
									}
								]
							}
						}
					},
					"dtype": {
						"type": "DT_INT32"
					}
				}
			},
			{
				"name": "StatefulPartitionedCall/zeros_7",
				"op": "Const",
				"attr": {
					"value": {
						"tensor": {
							"dtype": "DT_INT64",
							"tensorShape": {}
						}
					},
					"dtype": {
						"type": "DT_INT64"
					}
				}
			},
			{
				"name": "StatefulPartitionedCall/Const_30",
				"op": "Const",
				"attr": {
					"value": {
						"tensor": {
							"dtype": "DT_INT64",
							"tensorShape": {}
						}
					},
					"dtype": {
						"type": "DT_INT64"
					}
				}
			},
			{
				"name": "StatefulPartitionedCall/Shape_7",
				"op": "Const",
				"attr": {
					"value": {
						"tensor": {
							"dtype": "DT_INT64",
							"tensorShape": {
								"dim": [
									{
										"size": "4"
									}
								]
							}
						}
					},
					"dtype": {
						"type": "DT_INT64"
					}
				}
			},
			{
				"name": "StatefulPartitionedCall/ExpandDims_7",
				"op": "Const",
				"attr": {
					"value": {
						"tensor": {
							"dtype": "DT_INT64",
							"tensorShape": {
								"dim": [
									{
										"size": "1"
									},
									{
										"size": "1"
									}
								]
							}
						}
					},
					"dtype": {
						"type": "DT_INT64"
					}
				}
			},
			{
				"name": "StatefulPartitionedCall/Cast_27",
				"op": "Const",
				"attr": {
					"value": {
						"tensor": {
							"dtype": "DT_INT64",
							"tensorShape": {
								"dim": [
									{
										"size": "1"
									}
								]
							}
						}
					},
					"dtype": {
						"type": "DT_INT64"
					}
				}
			},
			{
				"name": "StatefulPartitionedCall/Const_29",
				"op": "Const",
				"attr": {
					"value": {
						"tensor": {
							"dtype": "DT_INT64",
							"tensorShape": {}
						}
					},
					"dtype": {
						"type": "DT_INT64"
					}
				}
			},
			{
				"name": "StatefulPartitionedCall/ones_7",
				"op": "Const",
				"attr": {
					"value": {
						"tensor": {
							"dtype": "DT_INT64",
							"tensorShape": {
								"dim": [
									{
										"size": "4"
									}
								]
							}
						}
					},
					"dtype": {
						"type": "DT_INT64"
					}
				}
			},
			{
				"name": "StatefulPartitionedCall/Const_31",
				"op": "Const",
				"attr": {
					"value": {
						"tensor": {
							"dtype": "DT_INT32",
							"tensorShape": {
								"dim": [
									{
										"size": "4"
									},
									{
										"size": "2"
									}
								]
							}
						}
					},
					"dtype": {
						"type": "DT_INT32"
					}
				}
			},
			{
				"name": "StatefulPartitionedCall/transpose_67/perm",
				"op": "Const",
				"attr": {
					"value": {
						"tensor": {
							"dtype": "DT_INT32",
							"tensorShape": {
								"dim": [
									{
										"size": "4"
									}
								]
							}
						}
					},
					"dtype": {
						"type": "DT_INT32"
					}
				}
			},
			{
				"name": "StatefulPartitionedCall/split_22",
				"op": "Const",
				"attr": {
					"value": {
						"tensor": {
							"dtype": "DT_FLOAT",
							"tensorShape": {
								"dim": [
									{
										"size": "3"
									},
									{
										"size": "3"
									},
									{
										"size": "128"
									},
									{
										"size": "128"
									}
								]
							}
						}
					},
					"dtype": {
						"type": "DT_FLOAT"
					}
				}
			},
			{
				"name": "unknown_44",
				"op": "Const",
				"attr": {
					"value": {
						"tensor": {
							"dtype": "DT_FLOAT",
							"tensorShape": {
								"dim": [
									{
										"size": "128"
									}
								]
							}
						}
					},
					"dtype": {
						"type": "DT_FLOAT"
					}
				}
			},
			{
				"name": "StatefulPartitionedCall/transpose_68/perm",
				"op": "Const",
				"attr": {
					"value": {
						"tensor": {
							"dtype": "DT_INT32",
							"tensorShape": {
								"dim": [
									{
										"size": "4"
									}
								]
							}
						}
					},
					"dtype": {
						"type": "DT_INT32"
					}
				}
			},
			{
				"name": "StatefulPartitionedCall/Const_32",
				"op": "Const",
				"attr": {
					"value": {
						"tensor": {
							"dtype": "DT_INT32",
							"tensorShape": {
								"dim": [
									{
										"size": "4"
									},
									{
										"size": "2"
									}
								]
							}
						}
					},
					"dtype": {
						"type": "DT_INT32"
					}
				}
			},
			{
				"name": "StatefulPartitionedCall/transpose_70/perm",
				"op": "Const",
				"attr": {
					"value": {
						"tensor": {
							"dtype": "DT_INT32",
							"tensorShape": {
								"dim": [
									{
										"size": "4"
									}
								]
							}
						}
					},
					"dtype": {
						"type": "DT_INT32"
					}
				}
			},
			{
				"name": "StatefulPartitionedCall/split_23",
				"op": "Const",
				"attr": {
					"value": {
						"tensor": {
							"dtype": "DT_FLOAT",
							"tensorShape": {
								"dim": [
									{
										"size": "3"
									},
									{
										"size": "3"
									},
									{
										"size": "128"
									},
									{
										"size": "128"
									}
								]
							}
						}
					},
					"dtype": {
						"type": "DT_FLOAT"
					}
				}
			},
			{
				"name": "unknown_46",
				"op": "Const",
				"attr": {
					"value": {
						"tensor": {
							"dtype": "DT_FLOAT",
							"tensorShape": {
								"dim": [
									{
										"size": "128"
									}
								]
							}
						}
					},
					"dtype": {
						"type": "DT_FLOAT"
					}
				}
			},
			{
				"name": "StatefulPartitionedCall/transpose_71/perm",
				"op": "Const",
				"attr": {
					"value": {
						"tensor": {
							"dtype": "DT_INT32",
							"tensorShape": {
								"dim": [
									{
										"size": "4"
									}
								]
							}
						}
					},
					"dtype": {
						"type": "DT_INT32"
					}
				}
			},
			{
				"name": "StatefulPartitionedCall/onnx_tf_prefix_/model.8/Concat/axis",
				"op": "Const",
				"attr": {
					"value": {
						"tensor": {
							"dtype": "DT_INT32",
							"tensorShape": {}
						}
					},
					"dtype": {
						"type": "DT_INT32"
					}
				}
			},
			{
				"name": "StatefulPartitionedCall/transpose_73/perm",
				"op": "Const",
				"attr": {
					"value": {
						"tensor": {
							"dtype": "DT_INT32",
							"tensorShape": {
								"dim": [
									{
										"size": "4"
									}
								]
							}
						}
					},
					"dtype": {
						"type": "DT_INT32"
					}
				}
			},
			{
				"name": "StatefulPartitionedCall/split_24",
				"op": "Const",
				"attr": {
					"value": {
						"tensor": {
							"dtype": "DT_FLOAT",
							"tensorShape": {
								"dim": [
									{
										"size": "1"
									},
									{
										"size": "1"
									},
									{
										"size": "384"
									},
									{
										"size": "256"
									}
								]
							}
						}
					},
					"dtype": {
						"type": "DT_FLOAT"
					}
				}
			},
			{
				"name": "unknown_48",
				"op": "Const",
				"attr": {
					"value": {
						"tensor": {
							"dtype": "DT_FLOAT",
							"tensorShape": {
								"dim": [
									{
										"size": "256"
									}
								]
							}
						}
					},
					"dtype": {
						"type": "DT_FLOAT"
					}
				}
			},
			{
				"name": "StatefulPartitionedCall/transpose_74/perm",
				"op": "Const",
				"attr": {
					"value": {
						"tensor": {
							"dtype": "DT_INT32",
							"tensorShape": {
								"dim": [
									{
										"size": "4"
									}
								]
							}
						}
					},
					"dtype": {
						"type": "DT_INT32"
					}
				}
			},
			{
				"name": "StatefulPartitionedCall/transpose_76/perm",
				"op": "Const",
				"attr": {
					"value": {
						"tensor": {
							"dtype": "DT_INT32",
							"tensorShape": {
								"dim": [
									{
										"size": "4"
									}
								]
							}
						}
					},
					"dtype": {
						"type": "DT_INT32"
					}
				}
			},
			{
				"name": "StatefulPartitionedCall/split_25",
				"op": "Const",
				"attr": {
					"value": {
						"tensor": {
							"dtype": "DT_FLOAT",
							"tensorShape": {
								"dim": [
									{
										"size": "1"
									},
									{
										"size": "1"
									},
									{
										"size": "256"
									},
									{
										"size": "128"
									}
								]
							}
						}
					},
					"dtype": {
						"type": "DT_FLOAT"
					}
				}
			},
			{
				"name": "unknown_50",
				"op": "Const",
				"attr": {
					"value": {
						"tensor": {
							"dtype": "DT_FLOAT",
							"tensorShape": {
								"dim": [
									{
										"size": "128"
									}
								]
							}
						}
					},
					"dtype": {
						"type": "DT_FLOAT"
					}
				}
			},
			{
				"name": "StatefulPartitionedCall/transpose_77/perm",
				"op": "Const",
				"attr": {
					"value": {
						"tensor": {
							"dtype": "DT_INT32",
							"tensorShape": {
								"dim": [
									{
										"size": "4"
									}
								]
							}
						}
					},
					"dtype": {
						"type": "DT_INT32"
					}
				}
			},
			{
				"name": "StatefulPartitionedCall/transpose_78/perm",
				"op": "Const",
				"attr": {
					"value": {
						"tensor": {
							"dtype": "DT_INT32",
							"tensorShape": {
								"dim": [
									{
										"size": "4"
									}
								]
							}
						}
					},
					"dtype": {
						"type": "DT_INT32"
					}
				}
			},
			{
				"name": "StatefulPartitionedCall/transpose_83/perm",
				"op": "Const",
				"attr": {
					"value": {
…
					"name": "StatefulPartitionedCall/Shape_11",
					"shape": [
						4
					],
					"dtype": "int32"
				},
				{
					"name": "StatefulPartitionedCall/ExpandDims_11",
					"shape": [
						1,
						1
					],
					"dtype": "int32"
				},
				{
					"name": "StatefulPartitionedCall/Cast_45",
					"shape": [
						1
					],
					"dtype": "int32"
				},
				{
					"name": "StatefulPartitionedCall/Const_43",
					"shape": [],
					"dtype": "int32"
				},
				{
					"name": "StatefulPartitionedCall/ones_11",
					"shape": [
						4
					],
					"dtype": "int32"
				},
				{
					"name": "StatefulPartitionedCall/Const_45",
					"shape": [
						4,
						2
					],
					"dtype": "int32"
				},
				{
					"name": "StatefulPartitionedCall/transpose_107/perm",
					"shape": [
						4
					],
					"dtype": "int32"
				},
				{
					"name": "StatefulPartitionedCall/split_32",
					"shape": [
						3,
						3,
						32,
						32
					],
					"dtype": "float32"
				},
				{
					"name": "unknown_64",
					"shape": [
						32
					],
					"dtype": "float32"
				},
				{
					"name": "StatefulPartitionedCall/transpose_108/perm",
					"shape": [
						4
					],
					"dtype": "int32"
				},
				{
					"name": "StatefulPartitionedCall/Const_46",
					"shape": [
						4,
						2
					],
					"dtype": "int32"
				},
				{
					"name": "StatefulPartitionedCall/transpose_110/perm",
					"shape": [
						4
					],
					"dtype": "int32"
				},
				{
					"name": "StatefulPartitionedCall/split_33",
					"shape": [
						3,
						3,
						32,
						32
					],
					"dtype": "float32"
				},
				{
					"name": "unknown_66",
					"shape": [
						32
					],
					"dtype": "float32"
				},
				{
					"name": "StatefulPartitionedCall/transpose_111/perm",
					"shape": [
						4
					],
					"dtype": "int32"
				},
				{
					"name": "StatefulPartitionedCall/onnx_tf_prefix_/model.15/Concat/axis",
					"shape": [],
					"dtype": "int32"
				},
				{
					"name": "StatefulPartitionedCall/transpose_113/perm",
					"shape": [
						4
					],
					"dtype": "int32"
				},
				{
					"name": "StatefulPartitionedCall/split_34",
					"shape": [
						1,
						1,
						96,
						64
					],
					"dtype": "float32"
				},
				{
					"name": "unknown_68",
					"shape": [
						64
					],
					"dtype": "float32"
				},
				{
					"name": "StatefulPartitionedCall/transpose_114/perm",
					"shape": [
						4
					],
					"dtype": "int32"
				},
				{
					"name": "StatefulPartitionedCall/Const_47",
					"shape": [
						4,
						2
					],
					"dtype": "int32"
				},
				{
					"name": "StatefulPartitionedCall/transpose_116/perm",
					"shape": [
						4
					],
					"dtype": "int32"
				},
				{
					"name": "StatefulPartitionedCall/split_35",
					"shape": [
						3,
						3,
						64,
						64
					],
					"dtype": "float32"
				},
				{
					"name": "unknown_70",
					"shape": [
						64
					],
					"dtype": "float32"
				},
				{
					"name": "StatefulPartitionedCall/transpose_117/perm",
					"shape": [
						4
					],
					"dtype": "int32"
				},
				{
					"name": "StatefulPartitionedCall/SelectV2_33",
					"shape": [
						1
					],
					"dtype": "int32"
				},
				{
					"name": "StatefulPartitionedCall/zeros_8",
					"shape": [],
					"dtype": "int32"
				},
				{
					"name": "StatefulPartitionedCall/Const_35",
					"shape": [],
					"dtype": "int32"
				},
				{
					"name": "StatefulPartitionedCall/Shape_8",
					"shape": [
						4
					],
					"dtype": "int32"
				},
				{
					"name": "StatefulPartitionedCall/ExpandDims_8",
					"shape": [
						1,
						1
					],
					"dtype": "int32"
				},
				{
					"name": "StatefulPartitionedCall/Cast_34",
					"shape": [
						1
					],
					"dtype": "int32"
				},
				{
					"name": "StatefulPartitionedCall/Const_34",
					"shape": [],
					"dtype": "int32"
				},
				{
					"name": "StatefulPartitionedCall/ones_8",
					"shape": [
						4
					],
					"dtype": "int32"
				},
				{
					"name": "StatefulPartitionedCall/transpose_87/perm",
					"shape": [
						4
					],
					"dtype": "int32"
				},
				{
					"name": "StatefulPartitionedCall/Cast_29",
					"shape": [
						2
					],
					"dtype": "int32"
				},
				{
					"name": "StatefulPartitionedCall/transpose_88/perm",
					"shape": [
						4
					],
					"dtype": "int32"
				},
				{
					"name": "StatefulPartitionedCall/onnx_tf_prefix_/model.11/Concat/axis",
					"shape": [],
					"dtype": "int32"
				},
				{
					"name": "StatefulPartitionedCall/transpose_90/perm",
					"shape": [
						4
					],
					"dtype": "int32"
				},
				{
					"name": "StatefulPartitionedCall/split_27",
					"shape": [
						1,
						1,
						384,
						128
					],
					"dtype": "float32"
				},
				{
					"name": "unknown_54",
					"shape": [
						128
					],
					"dtype": "float32"
				},
				{
					"name": "StatefulPartitionedCall/transpose_91/perm",
					"shape": [
						4
					],
					"dtype": "int32"
				},
				{
					"name": "StatefulPartitionedCall/zeros_9",
					"shape": [],
					"dtype": "int32"
				},
				{
					"name": "StatefulPartitionedCall/Const_37",
					"shape": [],
					"dtype": "int32"
				},
				{
					"name": "StatefulPartitionedCall/Shape_9",
					"shape": [
						4
					],
					"dtype": "int32"
				},
				{
					"name": "StatefulPartitionedCall/ExpandDims_9",
					"shape": [
						1,
						1
					],
					"dtype": "int32"
				},
				{
					"name": "StatefulPartitionedCall/Cast_36",
					"shape": [
						1
					],
					"dtype": "int32"
				},
				{
					"name": "StatefulPartitionedCall/Const_36",
					"shape": [],
					"dtype": "int32"
				},
				{
					"name": "StatefulPartitionedCall/ones_9",
					"shape": [
						4
					],
					"dtype": "int32"
				},
				{
					"name": "StatefulPartitionedCall/Const_38",
					"shape": [
						4,
						2
					],
					"dtype": "int32"
				},
				{
					"name": "StatefulPartitionedCall/transpose_93/perm",
					"shape": [
						4
					],
					"dtype": "int32"
				},
				{
					"name": "StatefulPartitionedCall/split_28",
					"shape": [
						3,
						3,
						64,
						64
					],
					"dtype": "float32"
				},
				{
					"name": "unknown_56",
					"shape": [
						64
					],
					"dtype": "float32"
				},
				{
					"name": "StatefulPartitionedCall/transpose_94/perm",
					"shape": [
						4
					],
					"dtype": "int32"
				},
				{
					"name": "StatefulPartitionedCall/Const_39",
					"shape": [
						4,
						2
					],
					"dtype": "int32"
				},
				{
					"name": "StatefulPartitionedCall/transpose_96/perm",
					"shape": [
						4
					],
					"dtype": "int32"
				},
				{
					"name": "StatefulPartitionedCall/split_29",
					"shape": [
						3,
						3,
						64,
						64
					],
					"dtype": "float32"
				},
				{
					"name": "unknown_58",
					"shape": [
						64
					],
					"dtype": "float32"
				},
				{
					"name": "StatefulPartitionedCall/transpose_97/perm",
					"shape": [
						4
					],
					"dtype": "int32"
				},
				{
					"name": "StatefulPartitionedCall/onnx_tf_prefix_/model.12/Concat/axis",
					"shape": [],
					"dtype": "int32"
				},
				{
					"name": "StatefulPartitionedCall/transpose_99/perm",
					"shape": [
						4
					],
					"dtype": "int32"
				},
				{
					"name": "StatefulPartitionedCall/split_30",
					"shape": [
						1,
						1,
						192,
						128
					],
					"dtype": "float32"
				},
				{
					"name": "unknown_60",
					"shape": [
						128
					],
					"dtype": "float32"
				},
				{
					"name": "StatefulPartitionedCall/transpose_100/perm",
					"shape": [
						4
					],
					"dtype": "int32"
				},
				{
					"name": "StatefulPartitionedCall/onnx_tf_prefix_/model.17/Concat/axis",
					"shape": [],
					"dtype": "int32"
				},
				{
					"name": "StatefulPartitionedCall/transpose_119/perm",
					"shape": [
						4
					],
					"dtype": "int32"
				},
				{
					"name": "StatefulPartitionedCall/split_36",
					"shape": [
						1,
						1,
						192,
						128
					],
					"dtype": "float32"
				},
				{
					"name": "unknown_72",
					"shape": [
						128
					],
					"dtype": "float32"
				},
				{
					"name": "StatefulPartitionedCall/transpose_120/perm",
					"shape": [
						4
					],
					"dtype": "int32"
				},
				{
					"name": "StatefulPartitionedCall/zeros_13",
					"shape": [],
					"dtype": "int32"
				},
				{
					"name": "StatefulPartitionedCall/Const_51",
					"shape": [],
					"dtype": "int32"
				},
				{
					"name": "StatefulPartitionedCall/Shape_13",
					"shape": [
						4
					],
					"dtype": "int32"
				},
				{
					"name": "StatefulPartitionedCall/ExpandDims_13",
					"shape": [
						1,
						1
					],
					"dtype": "int32"
				},
				{
					"name": "StatefulPartitionedCall/Cast_52",
					"shape": [
						1
					],
					"dtype": "int32"
				},
				{
					"name": "StatefulPartitionedCall/Const_50",
					"shape": [],
					"dtype": "int32"
				},
				{
					"name": "StatefulPartitionedCall/ones_13",
					"shape": [
						4
					],
					"dtype": "int32"
				},
				{
					"name": "StatefulPartitionedCall/Const_52",
					"shape": [
						4,
						2
					],
					"dtype": "int32"
				},
				{
					"name": "StatefulPartitionedCall/transpose_122/perm",
					"shape": [
						4
					],
					"dtype": "int32"
				},
				{
					"name": "StatefulPartitionedCall/split_37",
					"shape": [
						3,
						3,
						64,
						64
					],
					"dtype": "float32"
				},
				{
					"name": "unknown_74",
					"shape": [
						64
					],
					"dtype": "float32"
				},
				{
					"name": "StatefulPartitionedCall/transpose_123/perm",
					"shape": [
						4
					],
					"dtype": "int32"
				},
				{
					"name": "StatefulPartitionedCall/Const_53",
					"shape": [
						4,
						2
					],
					"dtype": "int32"
				},
				{
					"name": "StatefulPartitionedCall/transpose_125/perm",
					"shape": [
						4
					],
					"dtype": "int32"
				},
				{
					"name": "StatefulPartitionedCall/split_38",
					"shape": [
						3,
						3,
						64,
						64
					],
					"dtype": "float32"
				},
				{
					"name": "unknown_76",
					"shape": [
						64
					],
					"dtype": "float32"
				},
				{
					"name": "StatefulPartitionedCall/transpose_126/perm",
					"shape": [
						4
					],
					"dtype": "int32"
				},
				{
					"name": "StatefulPartitionedCall/onnx_tf_prefix_/model.18/Concat/axis",
					"shape": [],
					"dtype": "int32"
				},
				{
					"name": "StatefulPartitionedCall/transpose_128/perm",
					"shape": [
						4
					],
					"dtype": "int32"
				},
				{
					"name": "StatefulPartitionedCall/split_39",
					"shape": [
						1,
						1,
						192,
						128
					],
					"dtype": "float32"
				},
				{
					"name": "unknown_78",
					"shape": [
						128
					],
					"dtype": "float32"
				},
				{
					"name": "StatefulPartitionedCall/transpose_129/perm",
					"shape": [
						4
					],
					"dtype": "int32"
				},
				{
					"name": "StatefulPartitionedCall/Const_54",
					"shape": [
						4,
						2
					],
					"dtype": "int32"
				},
				{
					"name": "StatefulPartitionedCall/transpose_131/perm",
					"shape": [
						4
					],
					"dtype": "int32"
				},
				{
					"name": "StatefulPartitionedCall/split_40",
					"shape": [
						3,
						3,
						128,
						128
					],
					"dtype": "float32"
				},
				{
					"name": "unknown_80",
					"shape": [
						128
					],
					"dtype": "float32"
				},
				{
					"name": "StatefulPartitionedCall/transpose_132/perm",
					"shape": [
						4
					],
					"dtype": "int32"
				},
				{
					"name": "StatefulPartitionedCall/transpose_79/perm",
					"shape": [
						4
					],
					"dtype": "int32"
				},
				{
					"name": "StatefulPartitionedCall/transpose_81/perm",
					"shape": [
						4
					],
					"dtype": "int32"
				},
				{
					"name": "StatefulPartitionedCall/SelectV2_25",
					"shape": [
						1
					],
					"dtype": "int32"
				},
				{
					"name": "StatefulPartitionedCall/zeros_6",
					"shape": [],
					"dtype": "int32"
				},
				{
					"name": "StatefulPartitionedCall/Const_28",
					"shape": [],
					"dtype": "int32"
				},
				{
					"name": "StatefulPartitionedCall/Shape_6",
					"shape": [
						4
					],
					"dtype": "int32"
				},
				{
					"name": "StatefulPartitionedCall/ExpandDims_6",
					"shape": [
						1,
						1
					],
					"dtype": "int32"
				},
				{
					"name": "StatefulPartitionedCall/Cast_25",
					"shape": [
						1
					],
					"dtype": "int32"
				},
				{
					"name": "StatefulPartitionedCall/Const_27",
					"shape": [],
					"dtype": "int32"
				},
				{
					"name": "StatefulPartitionedCall/ones_6",
					"shape": [
						4
					],
					"dtype": "int32"
				},
				{
					"name": "StatefulPartitionedCall/SelectV2_17",
					"shape": [
						1
					],
					"dtype": "int32"
				},
				{
					"name": "StatefulPartitionedCall/zeros_4",
					"shape": [],
					"dtype": "int32"
				},
				{
					"name": "StatefulPartitionedCall/Const_19",
					"shape": [],
					"dtype": "int32"
				},
				{
					"name": "StatefulPartitionedCall/Shape_4",
					"shape": [
						4
					],
					"dtype": "int32"
				},
				{
					"name": "StatefulPartitionedCall/ExpandDims_4",
					"shape": [
						1,
						1
					],
					"dtype": "int32"
				},
				{
					"name": "StatefulPartitionedCall/Cast_18",
					"shape": [
						1
					],
					"dtype": "int32"
				},
				{
					"name": "StatefulPartitionedCall/Const_18",
					"shape": [],
					"dtype": "int32"
				},
				{
					"name": "StatefulPartitionedCall/ones_4",
					"shape": [
						4
					],
					"dtype": "int32"
				},
				{
					"name": "StatefulPartitionedCall/SelectV2_9",
					"shape": [
						1
					],
					"dtype": "int32"
				},
				{
					"name": "StatefulPartitionedCall/zeros_2",
					"shape": [],
					"dtype": "int32"
				},
				{
					"name": "StatefulPartitionedCall/Const_10",
					"shape": [],
					"dtype": "int32"
				},
				{
					"name": "StatefulPartitionedCall/Shape_2",
					"shape": [
						4
					],
					"dtype": "int32"
				},
				{
					"name": "StatefulPartitionedCall/ExpandDims_2",
					"shape": [
						1,
						1
					],
					"dtype": "int32"
				},
				{
					"name": "StatefulPartitionedCall/Cast_11",
					"shape": [
						1
					],
					"dtype": "int32"
				},
				{
					"name": "StatefulPartitionedCall/Const_9",
					"shape": [],
					"dtype": "int32"
				},
				{
					"name": "StatefulPartitionedCall/ones_2",
					"shape": [
						4
					],
					"dtype": "int32"
				},
				{
					"name": "StatefulPartitionedCall/SelectV2_1",
					"shape": [
						1
					],
					"dtype": "int32"
				},
				{
					"name": "StatefulPartitionedCall/zeros",
					"shape": [],
					"dtype": "int32"
				},
				{
					"name": "StatefulPartitionedCall/Const_3",
					"shape": [],
					"dtype": "int32"
				},
				{
					"name": "StatefulPartitionedCall/Shape",
					"shape": [
						4
					],
					"dtype": "int32"
				},
				{
					"name": "StatefulPartitionedCall/ExpandDims",
					"shape": [
						1,
						1
					],
					"dtype": "int32"
				},
				{
					"name": "StatefulPartitionedCall/Cast_4",
					"shape": [
						1
					],
					"dtype": "int32"
				},
				{
					"name": "StatefulPartitionedCall/Const_2",
					"shape": [],
					"dtype": "int32"
				},
				{
					"name": "StatefulPartitionedCall/ones",
					"shape": [
						4
					],
					"dtype": "int32"
				},
				{
					"name": "StatefulPartitionedCall/Const",
					"shape": [
						4,
						2
					],
					"dtype": "int32"
				},
				{
					"name": "StatefulPartitionedCall/transpose_1/perm",
					"shape": [
						4
					],
					"dtype": "int32"
				},
				{
					"name": "StatefulPartitionedCall/split",
					"shape": [
						3,
						3,
						3,
						16
					],
					"dtype": "float32"
				},
				{
					"name": "unknown_0",
					"shape": [
						16
					],
					"dtype": "float32"
				},
				{
					"name": "StatefulPartitionedCall/transpose_2/perm",
					"shape": [
						4
					],
					"dtype": "int32"
				},
				{
					"name": "StatefulPartitionedCall/Const_1",
					"shape": [
						4,
						2
					],
					"dtype": "int32"
				},
				{
					"name": "StatefulPartitionedCall/transpose_4/perm",
					"shape": [
						4
					],
					"dtype": "int32"
				},
				{
					"name": "StatefulPartitionedCall/split_1",
					"shape": [
						3,
						3,
						16,
						32
					],
					"dtype": "float32"
				},
				{
					"name": "unknown_2",
					"shape": [
						32
					],
					"dtype": "float32"
				},
				{
					"name": "StatefulPartitionedCall/transpose_5/perm",
					"shape": [
						4
					],
					"dtype": "int32"
				},
				{
					"name": "StatefulPartitionedCall/transpose_7/perm",
					"shape": [
						4
					],
					"dtype": "int32"
				},
				{
					"name": "StatefulPartitionedCall/split_2",
					"shape": [
						1,
						1,
						32,
						32
					],
					"dtype": "float32"
				},
				{
					"name": "unknown_4",
					"shape": [
						32
					],
					"dtype": "float32"
				},
				{
					"name": "StatefulPartitionedCall/transpose_8/perm",
					"shape": [
						4
					],
					"dtype": "int32"
				},
				{
					"name": "StatefulPartitionedCall/zeros_1",
					"shape": [],
					"dtype": "int32"
				},
				{
					"name": "StatefulPartitionedCall/Const_5",
					"shape": [],
					"dtype": "int32"
				},
				{
					"name": "StatefulPartitionedCall/Shape_1",
					"shape": [
						4
					],
					"dtype": "int32"
				},
				{
					"name": "StatefulPartitionedCall/ExpandDims_1",
					"shape": [
						1,
						1
					],
					"dtype": "int32"
				},
				{
					"name": "StatefulPartitionedCall/Cast_6",
					"shape": [
						1
					],
					"dtype": "int32"
				},
				{
					"name": "Func/StatefulPartitionedCall/assert_equal_1/Assert/AssertGuard/then/_133/output/_227",
					"shape": [],
					"dtype": "bool"
				},
				{
					"name": "StatefulPartitionedCall/Const_4",
					"shape": [],
					"dtype": "int32"
				},
				{
					"name": "StatefulPartitionedCall/ones_1",
					"shape": [
						4
					],
					"dtype": "int32"
				},
				{
					"name": "StatefulPartitionedCall/Const_6",
					"shape": [
						4,
						2
					],
					"dtype": "int32"
				},
				{
					"name": "StatefulPartitionedCall/transpose_10/perm",
					"shape": [
						4
					],
					"dtype": "int32"
				},
				{
					"name": "StatefulPartitionedCall/split_3",
					"shape": [
						3,
						3,
						16,
						16
					],
					"dtype": "float32"
				},
				{
					"name": "unknown_6",
					"shape": [
						16
					],
					"dtype": "float32"
				},
				{
					"name": "StatefulPartitionedCall/transpose_11/perm",
					"shape": [
						4
					],
					"dtype": "int32"
				},
				{
					"name": "StatefulPartitionedCall/Const_7",
					"shape": [
						4,
						2
					],
					"dtype": "int32"
				},
				{
					"name": "StatefulPartitionedCall/transpose_13/perm",
					"shape": [
						4
					],
					"dtype": "int32"
				},
				{
					"name": "StatefulPartitionedCall/split_4",
					"shape": [
						3,
						3,
						16,
						16
					],
					"dtype": "float32"
				},
				{
					"name": "unknown_8",
					"shape": [
						16
					],
					"dtype": "float32"
				},
				{
					"name": "StatefulPartitionedCall/transpose_14/perm",
					"shape": [
						4
					],
					"dtype": "int32"
				},
				{
					"name": "StatefulPartitionedCall/onnx_tf_prefix_/model.2/Concat/axis",
					"shape": [],
					"dtype": "int32"
				},
				{
					"name": "StatefulPartitionedCall/transpose_16/perm",
					"shape": [
						4
					],
					"dtype": "int32"
				},
				{
					"name": "StatefulPartitionedCall/split_5",
					"shape": [
						1,
						1,
						48,
						32
					],
					"dtype": "float32"
				},
				{
					"name": "unknown_10",
					"shape": [
						32
					],
					"dtype": "float32"
				},
				{
					"name": "StatefulPartitionedCall/transpose_17/perm",
					"shape": [
						4
					],
					"dtype": "int32"
				},
				{
					"name": "StatefulPartitionedCall/Const_8",
					"shape": [
						4,
						2
					],
					"dtype": "int32"
				},
				{
					"name": "StatefulPartitionedCall/transpose_19/perm",
					"shape": [
						4
					],
					"dtype": "int32"
				},
				{
					"name": "StatefulPartitionedCall/split_6",
					"shape": [
						3,
						3,
						32,
						64
					],
					"dtype": "float32"
				},
				{
					"name": "unknown_12",
					"shape": [
						64
					],
					"dtype": "float32"
				},
				{
					"name": "StatefulPartitionedCall/transpose_20/perm",
					"shape": [
						4
					],
					"dtype": "int32"
				},
				{
					"name": "StatefulPartitionedCall/transpose_22/perm",
					"shape": [
						4
					],
					"dtype": "int32"
				},
				{
					"name": "StatefulPartitionedCall/split_7",
					"shape": [
						1,
						1,
						64,
						64
					],
					"dtype": "float32"
				},
				{
					"name": "unknown_14",
					"shape": [
						64
					],
					"dtype": "float32"
				},
				{
					"name": "StatefulPartitionedCall/transpose_23/perm",
					"shape": [
						4
					],
					"dtype": "int32"
				},
				{
					"name": "StatefulPartitionedCall/zeros_3",
					"shape": [],
					"dtype": "int32"
				},
				{
					"name": "StatefulPartitionedCall/Const_12",
					"shape": [],
					"dtype": "int32"
				},
				{
					"name": "StatefulPartitionedCall/Shape_3",
					"shape": [
						4
					],
					"dtype": "int32"
				},
				{
					"name": "StatefulPartitionedCall/ExpandDims_3",
					"shape": [
						1,
						1
					],
					"dtype": "int32"
				},
				{
					"name": "StatefulPartitionedCall/Cast_13",
					"shape": [
						1
					],
					"dtype": "int32"
				},
				{
					"name": "StatefulPartitionedCall/Const_11",
					"shape": [],
					"dtype": "int32"
				},
				{
					"name": "StatefulPartitionedCall/ones_3",
					"shape": [
						4
					],
					"dtype": "int32"
				},
				{
					"name": "StatefulPartitionedCall/Const_13",
					"shape": [
						4,
						2
					],
					"dtype": "int32"
				},
				{
					"name": "StatefulPartitionedCall/transpose_25/perm",
					"shape": [
						4
					],
					"dtype": "int32"
				},
				{
					"name": "StatefulPartitionedCall/split_8",
					"shape": [
						3,
						3,
						32,
						32
					],
					"dtype": "float32"
				},
				{
					"name": "unknown_16",
					"shape": [
						32
					],
					"dtype": "float32"
				},
				{
					"name": "StatefulPartitionedCall/transpose_26/perm",
					"shape": [
						4
					],
					"dtype": "int32"
				},
				{
					"name": "StatefulPartitionedCall/Const_14",
					"shape": [
						4,
						2
					],
					"dtype": "int32"
				},
				{
					"name": "StatefulPartitionedCall/transpose_28/perm",
					"shape": [
						4
					],
					"dtype": "int32"
				},
				{
					"name": "StatefulPartitionedCall/split_9",
					"shape": [
						3,
						3,
						32,
						32
					],
					"dtype": "float32"
				},
				{
					"name": "unknown_18",
					"shape": [
						32
					],
					"dtype": "float32"
				},
				{
					"name": "StatefulPartitionedCall/transpose_29/perm",
					"shape": [
						4
					],
					"dtype": "int32"
				},
				{
					"name": "StatefulPartitionedCall/Const_15",
					"shape": [
						4,
						2
					],
					"dtype": "int32"
				},
				{
					"name": "StatefulPartitionedCall/transpose_31/perm",
					"shape": [
						4
					],
					"dtype": "int32"
				},
				{
					"name": "StatefulPartitionedCall/split_10",
					"shape": [
						3,
						3,
						32,
						32
					],
					"dtype": "float32"
				},
				{
					"name": "unknown_20",
					"shape": [
						32
					],
					"dtype": "float32"
				},
				{
					"name": "StatefulPartitionedCall/transpose_32/perm",
					"shape": [
						4
					],
					"dtype": "int32"
				},
				{
					"name": "StatefulPartitionedCall/Const_16",
					"shape": [
						4,
						2
					],
					"dtype": "int32"
				},
				{
					"name": "StatefulPartitionedCall/transpose_34/perm",
					"shape": [
						4
					],
					"dtype": "int32"
				},
				{
					"name": "StatefulPartitionedCall/split_11",
					"shape": [
						3,
						3,
						32,
						32
					],
					"dtype": "float32"
				},
				{
					"name": "unknown_22",
					"shape": [
						32
					],
					"dtype": "float32"
				},
				{
					"name": "StatefulPartitionedCall/transpose_35/perm",
					"shape": [
						4
					],
					"dtype": "int32"
				},
				{
					"name": "StatefulPartitionedCall/onnx_tf_prefix_/model.4/Concat/axis",
					"shape": [],
					"dtype": "int32"
				},
				{
					"name": "StatefulPartitionedCall/transpose_37/perm",
					"shape": [
						4
					],
					"dtype": "int32"
				},
				{
					"name": "StatefulPartitionedCall/split_12",
					"shape": [
						1,
						1,
						128,
						64
					],
					"dtype": "float32"
				},
				{
					"name": "unknown_24",
					"shape": [
						64
					],
					"dtype": "float32"
				},
				{
					"name": "StatefulPartitionedCall/transpose_38/perm",
					"shape": [
						4
					],
					"dtype": "int32"
				},
				{
					"name": "StatefulPartitionedCall/Const_17",
					"shape": [
						4,
						2
					],
					"dtype": "int32"
				},
				{
					"name": "StatefulPartitionedCall/transpose_40/perm",
					"shape": [
						4
					],
					"dtype": "int32"
				},
				{
					"name": "StatefulPartitionedCall/split_13",
					"shape": [
						3,
						3,
						64,
						128
					],
					"dtype": "float32"
				},
				{
					"name": "unknown_26",
					"shape": [
						128
					],
					"dtype": "float32"
				},
				{
					"name": "StatefulPartitionedCall/transpose_41/perm",
					"shape": [
						4
					],
					"dtype": "int32"
				},
				{
					"name": "StatefulPartitionedCall/transpose_43/perm",
					"shape": [
						4
					],
					"dtype": "int32"
				},
				{
					"name": "StatefulPartitionedCall/split_14",
					"shape": [
						1,
						1,
						128,
						128
					],
					"dtype": "float32"
				},
				{
					"name": "unknown_28",
					"shape": [
						128
					],
					"dtype": "float32"
				},
				{
					"name": "StatefulPartitionedCall/transpose_44/perm",
					"shape": [
						4
					],
					"dtype": "int32"
				},
				{
					"name": "StatefulPartitionedCall/zeros_5",
					"shape": [],
					"dtype": "int32"
				},
				{
					"name": "StatefulPartitionedCall/Const_21",
					"shape": [],
					"dtype": "int32"
				},
				{
					"name": "StatefulPartitionedCall/Shape_5",
					"shape": [
						4
					],
					"dtype": "int32"
				},
				{
					"name": "StatefulPartitionedCall/ExpandDims_5",
					"shape": [
						1,
						1
					],
					"dtype": "int32"
				},
				{
					"name": "StatefulPartitionedCall/Cast_20",
					"shape": [
						1
					],
					"dtype": "int32"
				},
				{
					"name": "StatefulPartitionedCall/Const_20",
					"shape": [],
					"dtype": "int32"
				},
				{
					"name": "StatefulPartitionedCall/ones_5",
					"shape": [
						4
					],
					"dtype": "int32"
				},
				{
					"name": "StatefulPartitionedCall/Const_22",
					"shape": [
						4,
						2
					],
					"dtype": "int32"
				},
				{
					"name": "StatefulPartitionedCall/transpose_46/perm",
					"shape": [
						4
					],
					"dtype": "int32"
				},
				{
					"name": "StatefulPartitionedCall/split_15",
					"shape": [
						3,
						3,
						64,
						64
					],
					"dtype": "float32"
				},
				{
					"name": "unknown_30",
					"shape": [
						64
					],
					"dtype": "float32"
				},
				{
					"name": "StatefulPartitionedCall/transpose_47/perm",
					"shape": [
						4
					],
					"dtype": "int32"
				},
				{
					"name": "StatefulPartitionedCall/Const_23",
					"shape": [
						4,
						2
					],
					"dtype": "int32"
				},
				{
					"name": "StatefulPartitionedCall/transpose_49/perm",
					"shape": [
						4
					],
					"dtype": "int32"
				},
				{
					"name": "StatefulPartitionedCall/split_16",
					"shape": [
						3,
						3,
						64,
						64
					],
					"dtype": "float32"
				},
				{
					"name": "unknown_32",
					"shape": [
						64
					],
					"dtype": "float32"
				},
				{
					"name": "StatefulPartitionedCall/transpose_50/perm",
					"shape": [
						4
					],
					"dtype": "int32"
				},
				{
					"name": "StatefulPartitionedCall/Const_24",
					"shape": [
						4,
						2
					],
					"dtype": "int32"
				},
				{
					"name": "StatefulPartitionedCall/transpose_52/perm",
					"shape": [
						4
					],
					"dtype": "int32"
				},
				{
					"name": "StatefulPartitionedCall/split_17",
					"shape": [
						3,
						3,
						64,
						64
					],
					"dtype": "float32"
				},
				{
					"name": "unknown_34",
					"shape": [
						64
					],
					"dtype": "float32"
				},
				{
					"name": "StatefulPartitionedCall/transpose_53/perm",
					"shape": [
						4
					],
					"dtype": "int32"
				},
				{
					"name": "StatefulPartitionedCall/Const_25",
					"shape": [
						4,
						2
					],
					"dtype": "int32"
				},
				{
					"name": "StatefulPartitionedCall/transpose_55/perm",
					"shape": [
						4
					],
					"dtype": "int32"
				},
				{
					"name": "StatefulPartitionedCall/split_18",
					"shape": [
						3,
						3,
						64,
						64
					],
					"dtype": "float32"
				},
				{
					"name": "unknown_36",
					"shape": [
						64
					],
					"dtype": "float32"
				},
				{
					"name": "StatefulPartitionedCall/transpose_56/perm",
					"shape": [
						4
					],
					"dtype": "int32"
				},
				{
					"name": "StatefulPartitionedCall/onnx_tf_prefix_/model.6/Concat/axis",
					"shape": [],
					"dtype": "int32"
				},
				{
					"name": "StatefulPartitionedCall/transpose_58/perm",
					"shape": [
						4
					],
					"dtype": "int32"
				},
				{
					"name": "StatefulPartitionedCall/split_19",
					"shape": [
						1,
						1,
						256,
						128
					],
					"dtype": "float32"
				},
				{
					"name": "unknown_38",
					"shape": [
						128
					],
					"dtype": "float32"
				},
				{
					"name": "StatefulPartitionedCall/transpose_59/perm",
					"shape": [
						4
					],
					"dtype": "int32"
				},
				{
					"name": "StatefulPartitionedCall/Const_26",
					"shape": [
						4,
						2
					],
					"dtype": "int32"
				},
				{
					"name": "StatefulPartitionedCall/transpose_61/perm",
					"shape": [
						4
					],
					"dtype": "int32"
				},
				{
					"name": "StatefulPartitionedCall/split_20",
					"shape": [
						3,
						3,
						128,
						256
					],
					"dtype": "float32"
				},
				{
					"name": "unknown_40",
					"shape": [
						256
					],
					"dtype": "float32"
				},
				{
					"name": "StatefulPartitionedCall/transpose_62/perm",
					"shape": [
						4
					],
					"dtype": "int32"
				},
				{
					"name": "StatefulPartitionedCall/transpose_64/perm",
					"shape": [
						4
					],
					"dtype": "int32"
				},
				{
					"name": "StatefulPartitionedCall/split_21",
					"shape": [
						1,
						1,
						256,
						256
					],
					"dtype": "float32"
				},
				{
					"name": "unknown_42",
					"shape": [
						256
					],
					"dtype": "float32"
				},
				{
					"name": "StatefulPartitionedCall/transpose_65/perm",
					"shape": [
						4
					],
					"dtype": "int32"
				},
				{
					"name": "StatefulPartitionedCall/zeros_7",
					"shape": [],
					"dtype": "int32"
				},
				{
					"name": "StatefulPartitionedCall/Const_30",
					"shape": [],
					"dtype": "int32"
				},
				{
					"name": "StatefulPartitionedCall/Shape_7",
					"shape": [
						4
					],
					"dtype": "int32"
				},
				{
					"name": "StatefulPartitionedCall/ExpandDims_7",
					"shape": [
						1,
						1
					],
					"dtype": "int32"
				},
				{
					"name": "StatefulPartitionedCall/Cast_27",
					"shape": [
						1
					],
					"dtype": "int32"
				},
				{
					"name": "StatefulPartitionedCall/Const_29",
					"shape": [],
					"dtype": "int32"
				},
				{
					"name": "StatefulPartitionedCall/ones_7",
					"shape": [
						4
					],
					"dtype": "int32"
				},
				{
					"name": "StatefulPartitionedCall/Const_31",
					"shape": [
						4,
						2
					],
					"dtype": "int32"
				},
				{
					"name": "StatefulPartitionedCall/transpose_67/perm",
					"shape": [
						4
					],
					"dtype": "int32"
				},
				{
					"name": "StatefulPartitionedCall/split_22",
					"shape": [
						3,
						3,
						128,
						128
					],
					"dtype": "float32"
				},
				{
					"name": "unknown_44",
					"shape": [
						128
					],
					"dtype": "float32"
				},
				{
					"name": "StatefulPartitionedCall/transpose_68/perm",
					"shape": [
						4
					],
					"dtype": "int32"
				},
				{
					"name": "StatefulPartitionedCall/Const_32",
					"shape": [
						4,
						2
					],
					"dtype": "int32"
				},
				{
					"name": "StatefulPartitionedCall/transpose_70/perm",
					"shape": [
						4
					],
					"dtype": "int32"
				},
				{
					"name": "StatefulPartitionedCall/split_23",
					"shape": [
						3,
						3,
						128,
						128
					],
					"dtype": "float32"
				},
				{
					"name": "unknown_46",
					"shape": [
						128
					],
					"dtype": "float32"
				},
				{
					"name": "StatefulPartitionedCall/transpose_71/perm",
					"shape": [
						4
					],
					"dtype": "int32"
				},
				{
					"name": "StatefulPartitionedCall/onnx_tf_prefix_/model.8/Concat/axis",
					"shape": [],
					"dtype": "int32"
				},
				{
					"name": "StatefulPartitionedCall/transpose_73/perm",
					"shape": [
						4
					],
					"dtype": "int32"
				},
				{
					"name": "StatefulPartitionedCall/split_24",
					"shape": [
						1,
						1,
						384,
						256
					],
					"dtype": "float32"
				},
				{
					"name": "unknown_48",
					"shape": [
						256
					],
					"dtype": "float32"
				},
				{
					"name": "StatefulPartitionedCall/transpose_74/perm",
					"shape": [
						4
					],
					"dtype": "int32"
				},
				{
					"name": "StatefulPartitionedCall/transpose_76/perm",
					"shape": [
						4
					],
					"dtype": "int32"
				},
				{
					"name": "StatefulPartitionedCall/split_25",
					"shape": [
						1,
						1,
						256,
						128
					],
					"dtype": "float32"
				},
				{
					"name": "unknown_50",
					"shape": [
						128
					],
					"dtype": "float32"
				},
				{
					"name": "StatefulPartitionedCall/transpose_77/perm",
					"shape": [
						4
					],
					"dtype": "int32"
				},
				{
					"name": "StatefulPartitionedCall/transpose_78/perm",
					"shape": [
						4
					],
					"dtype": "int32"
				},
				{
					"name": "StatefulPartitionedCall/transpose_83/perm",
					"shape": [
						4
					],
					"dtype": "int32"
				},
				{
					"name": "StatefulPartitionedCall/onnx_tf_prefix_/model.9/Concat/axis",
					"shape": [],
					"dtype": "int32"
				},
				{
					"name": "StatefulPartitionedCall/transpose_85/perm",
					"shape": [
						4
					],
					"dtype": "int32"
				},
				{
					"name": "StatefulPartitionedCall/split_26",
					"shape": [
						1,
						1,
						512,
						256
					],
					"dtype": "float32"
				},
				{
					"name": "unknown_52",
					"shape": [
						256
					],
					"dtype": "float32"
				},
				{
					"name": "StatefulPartitionedCall/transpose_86/perm",
					"shape": [
						4
					],
					"dtype": "int32"
				},
				{
					"name": "StatefulPartitionedCall/onnx_tf_prefix_/model.20/Concat/axis",
					"shape": [],
					"dtype": "int32"
				},
				{
					"name": "StatefulPartitionedCall/transpose_134/perm",
					"shape": [
						4
					],
					"dtype": "int32"
				},
				{
					"name": "StatefulPartitionedCall/split_41",
					"shape": [
						1,
						1,
						384,
						256
					],
					"dtype": "float32"
				},
				{
					"name": "unknown_82",
					"shape": [
						256
					],
					"dtype": "float32"
				},
				{
					"name": "StatefulPartitionedCall/transpose_135/perm",
					"shape": [
						4
					],
					"dtype": "int32"
				},
				{
					"name": "StatefulPartitionedCall/zeros_15",
					"shape": [],
					"dtype": "int32"
				},
				{
					"name": "StatefulPartitionedCall/Const_58",
					"shape": [],
					"dtype": "int32"
				},
				{
					"name": "StatefulPartitionedCall/Shape_15",
					"shape": [
						4
					],
					"dtype": "int32"
				},
				{
					"name": "StatefulPartitionedCall/ExpandDims_15",
					"shape": [
						1,
						1
					],
					"dtype": "int32"
				},
				{
					"name": "StatefulPartitionedCall/Cast_59",
					"shape": [
						1
					],
					"dtype": "int32"
				},
				{
					"name": "StatefulPartitionedCall/Const_57",
					"shape": [],
					"dtype": "int32"
				},
				{
					"name": "StatefulPartitionedCall/ones_15",
					"shape": [
						4
					],
					"dtype": "int32"
				},
				{
					"name": "StatefulPartitionedCall/Const_59",
					"shape": [
						4,
						2
					],
					"dtype": "int32"
				},
				{
					"name": "StatefulPartitionedCall/transpose_137/perm",
					"shape": [
						4
					],
					"dtype": "int32"
				},
				{
					"name": "StatefulPartitionedCall/split_42",
					"shape": [
						3,
						3,
						128,
						128
					],
					"dtype": "float32"
				},
				{
					"name": "unknown_84",
					"shape": [
						128
					],
					"dtype": "float32"
				},
				{
					"name": "StatefulPartitionedCall/transpose_138/perm",
					"shape": [
						4
					],
					"dtype": "int32"
				},
				{
					"name": "StatefulPartitionedCall/Const_60",
					"shape": [
						4,
						2
					],
					"dtype": "int32"
				},
				{
					"name": "StatefulPartitionedCall/transpose_140/perm",
					"shape": [
						4
					],
					"dtype": "int32"
				},
				{
					"name": "StatefulPartitionedCall/split_43",
					"shape": [
						3,
						3,
						128,
						128
					],
					"dtype": "float32"
				},
				{
					"name": "unknown_86",
					"shape": [
						128
					],
					"dtype": "float32"
				},
				{
					"name": "StatefulPartitionedCall/transpose_141/perm",
					"shape": [
						4
					],
					"dtype": "int32"
				},
				{
					"name": "StatefulPartitionedCall/onnx_tf_prefix_/model.21/Concat/axis",
					"shape": [],
					"dtype": "int32"
				},
				{
					"name": "StatefulPartitionedCall/transpose_143/perm",
					"shape": [
						4
					],
					"dtype": "int32"
				},
				{
					"name": "StatefulPartitionedCall/split_44",
					"shape": [
						1,
						1,
						384,
						256
					],
					"dtype": "float32"
				},
				{
					"name": "unknown_88",
					"shape": [
						256
					],
					"dtype": "float32"
				},
				{
					"name": "StatefulPartitionedCall/transpose_144/perm",
					"shape": [
						4
					],
					"dtype": "int32"
				},
				{
					"name": "StatefulPartitionedCall/Const_71",
					"shape": [
						4,
						2
					],
					"dtype": "int32"
				},
				{
					"name": "StatefulPartitionedCall/transpose_191/perm",
					"shape": [
						4
					],
					"dtype": "int32"
				},
				{
					"name": "StatefulPartitionedCall/split_60",
					"shape": [
						3,
						3,
						256,
						64
					],
					"dtype": "float32"
				},
				{
					"name": "unknown_120",
					"shape": [
						64
					],
					"dtype": "float32"
				},
				{
					"name": "StatefulPartitionedCall/transpose_192/perm",
					"shape": [
						4
					],
					"dtype": "int32"
				},
				{
					"name": "StatefulPartitionedCall/Const_72",
					"shape": [
						4,
						2
					],
					"dtype": "int32"
				},
				{
					"name": "StatefulPartitionedCall/transpose_194/perm",
					"shape": [
						4
					],
					"dtype": "int32"
				},
				{
					"name": "StatefulPartitionedCall/split_61",
					"shape": [
						3,
						3,
						64,
						64
					],
					"dtype": "float32"
				},
				{
					"name": "unknown_122",
					"shape": [
						64
					],
					"dtype": "float32"
				},
				{
					"name": "StatefulPartitionedCall/transpose_195/perm",
					"shape": [
						4
					],
					"dtype": "int32"
				},
				{
					"name": "StatefulPartitionedCall/transpose_197/perm",
					"shape": [
						4
					],
					"dtype": "int32"
				},
				{
					"name": "StatefulPartitionedCall/split_62",
					"shape": [
						1,
						1,
						64,
						1
					],
					"dtype": "float32"
				},
				{
					"name": "unknown_124",
					"shape": [
						1
					],
					"dtype": "float32"
				},
				{
					"name": "StatefulPartitionedCall/transpose_198/perm",
					"shape": [
						4
					],
					"dtype": "int32"
				},
				{
					"name": "StatefulPartitionedCall/onnx_tf_prefix_/model.22/Concat_2/axis",
					"shape": [],
					"dtype": "int32"
				},
				{
					"name": "StatefulPartitionedCall/onnx_tf_prefix_/model.22/Constant_2",
					"shape": [
						3
					],
					"dtype": "int32"
				},
				{
					"name": "StatefulPartitionedCall/Where_2",
					"shape": [
						0,
						1
					],
					"dtype": "int32"
				},
				{
					"name": "StatefulPartitionedCall/Cast_62",
					"shape": [
						1
					],
					"dtype": "int32"
				},
				{
					"name": "StatefulPartitionedCall/GatherV2_2",
					"shape": [
						0
					],
					"dtype": "int32"
				},
				{
					"name": "StatefulPartitionedCall/zeros_18",
					"shape": [],
					"dtype": "int32"
				},
				{
					"name": "StatefulPartitionedCall/onnx_tf_prefix_/model.22/Concat_3/axis",
					"shape": [],
					"dtype": "int32"
				},
				{
					"name": "StatefulPartitionedCall/onnx_tf_prefix_Constant_325",
					"shape": [
						2
					],
					"dtype": "int32"
				},
				{
					"name": "StatefulPartitionedCall/onnx_tf_prefix_/model.22/Split/split_dim",
					"shape": [],
					"dtype": "int32"
				},
				{
					"name": "StatefulPartitionedCall/onnx_tf_prefix_/model.22/Concat_5/axis",
					"shape": [],
					"dtype": "int32"
				},
				{
					"name": "StatefulPartitionedCall/LogicalAnd_8",
					"shape": [
						1
					],
					"dtype": "bool"
				},
				{
					"name": "StatefulPartitionedCall/assert_equal_17/y",
					"shape": [],
					"dtype": "bool"
				},
				{
					"name": "StatefulPartitionedCall/assert_equal_17/All",
					"shape": [],
					"dtype": "bool"
				},
				{
					"name": "StatefulPartitionedCall/LogicalAnd_7",
					"shape": [
						1
					],
					"dtype": "bool"
				},
				{
					"name": "StatefulPartitionedCall/assert_equal_15/y",
					"shape": [],
					"dtype": "bool"
				},
				{
					"name": "StatefulPartitionedCall/assert_equal_15/All",
					"shape": [],
					"dtype": "bool"
				},
				{
					"name": "StatefulPartitionedCall/LogicalAnd_6",
					"shape": [
						1
					],
					"dtype": "bool"
				},
				{
					"name": "StatefulPartitionedCall/assert_equal_13/y",
					"shape": [],
					"dtype": "bool"
				},
				{
					"name": "StatefulPartitionedCall/assert_equal_13/All",
					"shape": [],
					"dtype": "bool"
				},
				{
					"name": "StatefulPartitionedCall/LogicalAnd_5",
					"shape": [
						1
					],
					"dtype": "bool"
				},
				{
					"name": "StatefulPartitionedCall/assert_equal_11/y",
					"shape": [],
					"dtype": "bool"
				},
				{
					"name": "StatefulPartitionedCall/assert_equal_11/All",
					"shape": [],
					"dtype": "bool"
				},
				{
					"name": "StatefulPartitionedCall/LogicalAnd_4",
					"shape": [
						1
					],
					"dtype": "bool"
				},
				{
					"name": "StatefulPartitionedCall/assert_equal_9/y",
					"shape": [],
					"dtype": "bool"
				},
				{
					"name": "StatefulPartitionedCall/assert_equal_9/All",
					"shape": [],
					"dtype": "bool"
				},
				{
					"name": "StatefulPartitionedCall/LogicalAnd_3",
					"shape": [
						1
					],
					"dtype": "bool"
				},
				{
					"name": "StatefulPartitionedCall/assert_equal_7/y",
					"shape": [],
					"dtype": "bool"
				},
				{
					"name": "StatefulPartitionedCall/assert_equal_7/All",
					"shape": [],
					"dtype": "bool"
				},
				{
					"name": "StatefulPartitionedCall/LogicalAnd_2",
					"shape": [
						1
					],
					"dtype": "bool"
				},
				{
					"name": "StatefulPartitionedCall/assert_equal_5/y",
					"shape": [],
					"dtype": "bool"
				},
				{
					"name": "StatefulPartitionedCall/assert_equal_5/All",
					"shape": [],
					"dtype": "bool"
				},
				{
					"name": "StatefulPartitionedCall/LogicalAnd_1",
					"shape": [
						1
					],
					"dtype": "bool"
				},
				{
					"name": "StatefulPartitionedCall/assert_equal_3/y",
					"shape": [],
					"dtype": "bool"
				},
				{
					"name": "StatefulPartitionedCall/assert_equal_3/All",
					"shape": [],
					"dtype": "bool"
				},
				{
					"name": "StatefulPartitionedCall/assert_equal_1/Assert/AssertGuard/pivot_t/_137",
					"shape": [],
					"dtype": "bool"
				},
				{
					"name": "StatefulPartitionedCall/LogicalAnd",
					"shape": [
						1
					],
					"dtype": "bool"
				},
				{
					"name": "StatefulPartitionedCall/assert_equal_1/y",
					"shape": [],
					"dtype": "bool"
				},
				{
					"name": "StatefulPartitionedCall/assert_equal_1/All",
					"shape": [],
					"dtype": "bool"
				},
				{
					"name": "StatefulPartitionedCall/assert_equal_3/Assert/AssertGuard/pivot_t/_147",
					"shape": [],
					"dtype": "bool"
				},
				{
					"name": "StatefulPartitionedCall/SelectV2_2",
					"shape": [
						1
					],
					"dtype": "int32"
				},
				{
					"name": "StatefulPartitionedCall/SelectV2_5",
					"shape": [
						1
					],
					"dtype": "int32"
				},
				{
					"name": "StatefulPartitionedCall/SelectV2_6",
					"shape": [
						1
					],
					"dtype": "int32"
				},
				{
					"name": "Func/StatefulPartitionedCall/assert_equal_3/Assert/AssertGuard/then/_143/output/_239",
					"shape": [],
					"dtype": "bool"
				},
				{
					"name": "StatefulPartitionedCall/assert_equal_5/Assert/AssertGuard/pivot_t/_157",
					"shape": [],
					"dtype": "bool"
				},
				{
					"name": "StatefulPartitionedCall/SelectV2_10",
					"shape": [
						1
					],
					"dtype": "int32"
				},
				{
					"name": "StatefulPartitionedCall/SelectV2_13",
					"shape": [
						1
					],
					"dtype": "int32"
				},
				{
					"name": "StatefulPartitionedCall/SelectV2_14",
					"shape": [
						1
					],
					"dtype": "int32"
				},
				{
					"name": "Func/StatefulPartitionedCall/assert_equal_5/Assert/AssertGuard/then/_153/output/_251",
					"shape": [],
					"dtype": "bool"
				},
				{
					"name": "StatefulPartitionedCall/assert_equal_7/Assert/AssertGuard/pivot_t/_167",
					"shape": [],
					"dtype": "bool"
				},
				{
					"name": "StatefulPartitionedCall/SelectV2_18",
					"shape": [
						1
					],
					"dtype": "int32"
				},
				{
					"name": "StatefulPartitionedCall/SelectV2_21",
					"shape": [
						1
					],
					"dtype": "int32"
				},
				{
					"name": "StatefulPartitionedCall/SelectV2_22",
					"shape": [
						1
					],
					"dtype": "int32"
				},
				{
					"name": "Func/StatefulPartitionedCall/assert_equal_7/Assert/AssertGuard/then/_163/output/_263",
					"shape": [],
					"dtype": "bool"
				},
				{
					"name": "StatefulPartitionedCall/assert_equal_9/Assert/AssertGuard/pivot_t/_177",
					"shape": [],
					"dtype": "bool"
				},
				{
					"name": "StatefulPartitionedCall/SelectV2_26",
					"shape": [
						1
					],
					"dtype": "int32"
				},
				{
					"name": "StatefulPartitionedCall/SelectV2_29",
					"shape": [
						1
					],
					"dtype": "int32"
				},
				{
					"name": "StatefulPartitionedCall/SelectV2_30",
					"shape": [
						1
					],
					"dtype": "int32"
				},
				{
					"name": "Func/StatefulPartitionedCall/assert_equal_9/Assert/AssertGuard/then/_173/output/_275",
					"shape": [],
					"dtype": "bool"
				},
				{
					"name": "StatefulPartitionedCall/assert_equal_11/Assert/AssertGuard/pivot_t/_187",
					"shape": [],
					"dtype": "bool"
				},
				{
					"name": "StatefulPartitionedCall/SelectV2_34",
					"shape": [
						1
					],
					"dtype": "int32"
				},
				{
					"name": "StatefulPartitionedCall/SelectV2_37",
					"shape": [
						1
					],
					"dtype": "int32"
				},
				{
					"name": "StatefulPartitionedCall/SelectV2_38",
					"shape": [
						1
					],
					"dtype": "int32"
				},
				{
					"name": "Func/StatefulPartitionedCall/assert_equal_11/Assert/AssertGuard/then/_183/output/_287",
					"shape": [],
					"dtype": "bool"
				},
				{
					"name": "StatefulPartitionedCall/assert_equal_13/Assert/AssertGuard/pivot_t/_197",
					"shape": [],
					"dtype": "bool"
				},
				{
					"name": "StatefulPartitionedCall/SelectV2_42",
					"shape": [
						1
					],
					"dtype": "int32"
				},
				{
					"name": "StatefulPartitionedCall/SelectV2_45",
					"shape": [
						1
					],
					"dtype": "int32"
				},
				{
					"name": "StatefulPartitionedCall/SelectV2_46",
					"shape": [
						1
					],
					"dtype": "int32"
				},
				{
					"name": "Func/StatefulPartitionedCall/assert_equal_13/Assert/AssertGuard/then/_193/output/_299",
					"shape": [],
					"dtype": "bool"
				},
				{
					"name": "StatefulPartitionedCall/assert_equal_15/Assert/AssertGuard/pivot_t/_207",
					"shape": [],
					"dtype": "bool"
				},
				{
					"name": "StatefulPartitionedCall/SelectV2_50",
					"shape": [
						1
					],
					"dtype": "int32"
				},
				{
					"name": "StatefulPartitionedCall/SelectV2_53",
					"shape": [
						1
					],
					"dtype": "int32"
				},
				{
					"name": "StatefulPartitionedCall/SelectV2_54",
					"shape": [
						1
					],
					"dtype": "int32"
				},
				{
					"name": "Func/StatefulPartitionedCall/assert_equal_15/Assert/AssertGuard/then/_203/output/_311",
					"shape": [],
					"dtype": "bool"
				},
				{
					"name": "StatefulPartitionedCall/assert_equal_17/Assert/AssertGuard/pivot_t/_217",
					"shape": [],
					"dtype": "bool"
				},
				{
					"name": "StatefulPartitionedCall/SelectV2_58",
					"shape": [
						1
					],
					"dtype": "int32"
				},
				{
					"name": "StatefulPartitionedCall/SelectV2_61",
					"shape": [
						1
					],
					"dtype": "int32"
				},
				{
					"name": "StatefulPartitionedCall/SelectV2_62",
					"shape": [
						1
					],
					"dtype": "int32"
				},
				{
					"name": "Func/StatefulPartitionedCall/assert_equal_17/Assert/AssertGuard/then/_213/output/_323",
					"shape": [],
					"dtype": "bool"
				},
				{
					"name": "StatefulPartitionedCall/SelectV2_69",
					"shape": [
						1
					],
					"dtype": "int32"
				},
				{
					"name": "StatefulPartitionedCall/SelectV2_70",
					"shape": [
						1
					],
					"dtype": "int32"
				},
				{
					"name": "StatefulPartitionedCall/SelectV2_66",
					"shape": [
						1
					],
					"dtype": "int32"
				}
			]
		}
	]
}
