{"format": "graph-model", "generatedBy": "2.12.0", "convertedBy": "TensorFlow.js Converter v4.6.0", "signature": {"outputs": {"Func/PartitionedCall/output/_49": {"name": "Func/PartitionedCall/output/_49"}}}, "modelTopology": {"node": [{"name": "PartitionedCall/model_2/rnn_2/TensorArrayV2_1/element_shape", "op": "Const", "attr": {"dtype": {"type": "DT_INT32"}, "value": {"tensor": {"dtype": "DT_INT32", "tensorShape": {"dim": [{"size": "2"}]}}}}}, {"name": "869", "op": "Const", "attr": {"dtype": {"type": "DT_FLOAT"}, "value": {"tensor": {"dtype": "DT_FLOAT", "tensorShape": {"dim": [{"size": "1"}, {"size": "64"}]}}}}}, {"name": "863", "op": "Const", "attr": {"dtype": {"type": "DT_FLOAT"}, "value": {"tensor": {"dtype": "DT_FLOAT", "tensorShape": {"dim": [{"size": "1"}, {"size": "64"}]}}}}}, {"name": "867", "op": "Const", "attr": {"value": {"tensor": {"dtype": "DT_FLOAT", "tensorShape": {"dim": [{"size": "31"}, {"size": "64"}]}}}, "dtype": {"type": "DT_FLOAT"}}}, {"name": "861", "op": "Const", "attr": {"dtype": {"type": "DT_FLOAT"}, "value": {"tensor": {"dtype": "DT_FLOAT", "tensorShape": {"dim": [{"size": "1"}, {"size": "64"}]}}}}}, {"name": "PartitionedCall/model_2/rnn_2/TensorArrayUnstack/TensorListFromTensor/element_shape", "op": "Const", "attr": {"value": {"tensor": {"dtype": "DT_INT32", "tensorShape": {"dim": [{"size": "2"}]}}}, "dtype": {"type": "DT_INT32"}}}, {"name": "855", "op": "Const", "attr": {"dtype": {"type": "DT_FLOAT"}, "value": {"tensor": {"dtype": "DT_FLOAT", "tensorShape": {"dim": [{"size": "128"}, {"size": "256"}]}}}}}, {"name": "857", "op": "Const", "attr": {"value": {"tensor": {"dtype": "DT_FLOAT", "tensorShape": {"dim": [{"size": "31"}, {"size": "64"}]}}}, "dtype": {"type": "DT_FLOAT"}}}, {"name": "859", "op": "Const", "attr": {"value": {"tensor": {"dtype": "DT_FLOAT", "tensorShape": {"dim": [{"size": "64"}, {"size": "256"}]}}}, "dtype": {"type": "DT_FLOAT"}}}, {"name": "865", "op": "Const", "attr": {"value": {"tensor": {"dtype": "DT_FLOAT", "tensorShape": {"dim": [{"size": "1"}, {"size": "64"}]}}}, "dtype": {"type": "DT_FLOAT"}}}, {"name": "PartitionedCall/model_2/rnn_2/time", "op": "Const", "attr": {"dtype": {"type": "DT_INT32"}, "value": {"tensor": {"dtype": "DT_INT32", "tensorShape": {}}}}}, {"name": "PartitionedCall/model_2/rnn_2/strided_slice", "op": "Const", "attr": {"value": {"tensor": {"dtype": "DT_INT32", "tensorShape": {}}}, "dtype": {"type": "DT_INT32"}}}, {"name": "PartitionedCall/model_2/rnn_2/while/loop_counter", "op": "Const", "attr": {"value": {"tensor": {"dtype": "DT_INT32", "tensorShape": {}}}, "dtype": {"type": "DT_INT32"}}}, {"name": "PartitionedCall/model_2/rnn_2/TensorArrayV2Stack/TensorListStack/element_shape", "op": "Const", "attr": {"dtype": {"type": "DT_INT32"}, "value": {"tensor": {"dtype": "DT_INT32", "tensorShape": {"dim": [{"size": "2"}]}}}}}, {"name": "PartitionedCall/model_2/rnn_2/transpose_1/perm", "op": "Const", "attr": {"dtype": {"type": "DT_INT32"}, "value": {"tensor": {"dtype": "DT_INT32", "tensorShape": {"dim": [{"size": "3"}]}}}}}, {"name": "PartitionedCall/model_2/tf.expand_dims_6/ExpandDims/dim", "op": "Const", "attr": {"value": {"tensor": {"dtype": "DT_INT32", "tensorShape": {}}}, "dtype": {"type": "DT_INT32"}}}, {"name": "PartitionedCall/model_2/rnn_3/TensorArrayV2_1/element_shape", "op": "Const", "attr": {"value": {"tensor": {"dtype": "DT_INT32", "tensorShape": {"dim": [{"size": "2"}]}}}, "dtype": {"type": "DT_INT32"}}}, {"name": "853", "op": "Const", "attr": {"value": {"tensor": {"dtype": "DT_FLOAT", "tensorShape": {"dim": [{"size": "1"}, {"size": "64"}]}}}, "dtype": {"type": "DT_FLOAT"}}}, {"name": "847", "op": "Const", "attr": {"value": {"tensor": {"dtype": "DT_FLOAT", "tensorShape": {"dim": [{"size": "1"}, {"size": "64"}]}}}, "dtype": {"type": "DT_FLOAT"}}}, {"name": "851", "op": "Const", "attr": {"dtype": {"type": "DT_FLOAT"}, "value": {"tensor": {"dtype": "DT_FLOAT", "tensorShape": {"dim": [{"size": "31"}, {"size": "64"}]}}}}}, {"name": "845", "op": "Const", "attr": {"value": {"tensor": {"dtype": "DT_FLOAT", "tensorShape": {"dim": [{"size": "1"}, {"size": "64"}]}}}, "dtype": {"type": "DT_FLOAT"}}}, {"name": "PartitionedCall/model_2/rnn/TensorArrayV2_1/element_shape", "op": "Const", "attr": {"dtype": {"type": "DT_INT32"}, "value": {"tensor": {"dtype": "DT_INT32", "tensorShape": {"dim": [{"size": "2"}]}}}}}, {"name": "837", "op": "Const", "attr": {"dtype": {"type": "DT_FLOAT"}, "value": {"tensor": {"dtype": "DT_FLOAT", "tensorShape": {"dim": [{"size": "1"}, {"size": "64"}]}}}}}, {"name": "831", "op": "Const", "attr": {"value": {"tensor": {"dtype": "DT_FLOAT", "tensorShape": {"dim": [{"size": "1"}, {"size": "64"}]}}}, "dtype": {"type": "DT_FLOAT"}}}, {"name": "835", "op": "Const", "attr": {"value": {"tensor": {"dtype": "DT_FLOAT", "tensorShape": {"dim": [{"size": "31"}, {"size": "64"}]}}}, "dtype": {"type": "DT_FLOAT"}}}, {"name": "829", "op": "Const", "attr": {"value": {"tensor": {"dtype": "DT_FLOAT", "tensorShape": {"dim": [{"size": "1"}, {"size": "64"}]}}}, "dtype": {"type": "DT_FLOAT"}}}, {"name": "PartitionedCall/model_2/rnn/TensorArrayUnstack/TensorListFromTensor/element_shape", "op": "Const", "attr": {"dtype": {"type": "DT_INT32"}, "value": {"tensor": {"dtype": "DT_INT32", "tensorShape": {"dim": [{"size": "2"}]}}}}}, {"name": "823", "op": "Const", "attr": {"dtype": {"type": "DT_FLOAT"}, "value": {"tensor": {"dtype": "DT_FLOAT", "tensorShape": {"dim": [{"size": "64"}, {"size": "256"}]}}}}}, {"name": "825", "op": "Const", "attr": {"dtype": {"type": "DT_FLOAT"}, "value": {"tensor": {"dtype": "DT_FLOAT", "tensorShape": {"dim": [{"size": "31"}, {"size": "64"}]}}}}}, {"name": "827", "op": "Const", "attr": {"dtype": {"type": "DT_FLOAT"}, "value": {"tensor": {"dtype": "DT_FLOAT", "tensorShape": {"dim": [{"size": "64"}, {"size": "256"}]}}}}}, {"name": "833", "op": "Const", "attr": {"value": {"tensor": {"dtype": "DT_FLOAT", "tensorShape": {"dim": [{"size": "1"}, {"size": "64"}]}}}, "dtype": {"type": "DT_FLOAT"}}}, {"name": "PartitionedCall/model_2/rnn/time", "op": "Const", "attr": {"dtype": {"type": "DT_INT32"}, "value": {"tensor": {"dtype": "DT_INT32", "tensorShape": {}}}}}, {"name": "PartitionedCall/model_2/rnn/strided_slice", "op": "Const", "attr": {"value": {"tensor": {"dtype": "DT_INT32", "tensorShape": {}}}, "dtype": {"type": "DT_INT32"}}}, {"name": "PartitionedCall/model_2/rnn/while/loop_counter", "op": "Const", "attr": {"value": {"tensor": {"dtype": "DT_INT32", "tensorShape": {}}}, "dtype": {"type": "DT_INT32"}}}, {"name": "PartitionedCall/model_2/rnn/TensorArrayV2Stack/TensorListStack/element_shape", "op": "Const", "attr": {"value": {"tensor": {"dtype": "DT_INT32", "tensorShape": {"dim": [{"size": "2"}]}}}, "dtype": {"type": "DT_INT32"}}}, {"name": "PartitionedCall/model_2/rnn/transpose_1/perm", "op": "Const", "attr": {"value": {"tensor": {"dtype": "DT_INT32", "tensorShape": {"dim": [{"size": "3"}]}}}, "dtype": {"type": "DT_INT32"}}}, {"name": "PartitionedCall/model_2/tf.expand_dims/ExpandDims/dim", "op": "Const", "attr": {"dtype": {"type": "DT_INT32"}, "value": {"tensor": {"dtype": "DT_INT32", "tensorShape": {}}}}}, {"name": "PartitionedCall/model_2/rnn_1/TensorArrayV2_1/element_shape", "op": "Const", "attr": {"dtype": {"type": "DT_INT32"}, "value": {"tensor": {"dtype": "DT_INT32", "tensorShape": {"dim": [{"size": "2"}]}}}}}, {"name": "821", "op": "Const", "attr": {"value": {"tensor": {"dtype": "DT_FLOAT", "tensorShape": {"dim": [{"size": "1"}, {"size": "64"}]}}}, "dtype": {"type": "DT_FLOAT"}}}, {"name": "815", "op": "Const", "attr": {"dtype": {"type": "DT_FLOAT"}, "value": {"tensor": {"dtype": "DT_FLOAT", "tensorShape": {"dim": [{"size": "1"}, {"size": "64"}]}}}}}, {"name": "819", "op": "Const", "attr": {"value": {"tensor": {"dtype": "DT_FLOAT", "tensorShape": {"dim": [{"size": "31"}, {"size": "64"}]}}}, "dtype": {"type": "DT_FLOAT"}}}, {"name": "813", "op": "Const", "attr": {"value": {"tensor": {"dtype": "DT_FLOAT", "tensorShape": {"dim": [{"size": "1"}, {"size": "64"}]}}}, "dtype": {"type": "DT_FLOAT"}}}, {"name": "779", "op": "Const", "attr": {"value": {"tensor": {"dtype": "DT_FLOAT", "tensorShape": {"dim": [{"size": "3"}, {"size": "3"}, {"size": "1"}, {"size": "32"}]}}}, "dtype": {"type": "DT_FLOAT"}}}, {"name": "781", "op": "Const", "attr": {"value": {"tensor": {"dtype": "DT_FLOAT", "tensorShape": {"dim": [{"size": "32"}]}}}, "dtype": {"type": "DT_FLOAT"}}}, {"name": "783", "op": "Const", "attr": {"value": {"tensor": {"dtype": "DT_FLOAT", "tensorShape": {"dim": [{"size": "3"}, {"size": "3"}, {"size": "32"}, {"size": "64"}]}}}, "dtype": {"type": "DT_FLOAT"}}}, {"name": "785", "op": "Const", "attr": {"value": {"tensor": {"dtype": "DT_FLOAT", "tensorShape": {"dim": [{"size": "64"}]}}}, "dtype": {"type": "DT_FLOAT"}}}, {"name": "787", "op": "Const", "attr": {"value": {"tensor": {"dtype": "DT_FLOAT", "tensorShape": {"dim": [{"size": "3"}, {"size": "3"}, {"size": "64"}, {"size": "128"}]}}}, "dtype": {"type": "DT_FLOAT"}}}, {"name": "789", "op": "Const", "attr": {"value": {"tensor": {"dtype": "DT_FLOAT", "tensorShape": {"dim": [{"size": "128"}]}}}, "dtype": {"type": "DT_FLOAT"}}}, {"name": "791", "op": "Const", "attr": {"value": {"tensor": {"dtype": "DT_FLOAT", "tensorShape": {"dim": [{"size": "3"}, {"size": "3"}, {"size": "128"}, {"size": "128"}]}}}, "dtype": {"type": "DT_FLOAT"}}}, {"name": "793", "op": "Const", "attr": {"dtype": {"type": "DT_FLOAT"}, "value": {"tensor": {"dtype": "DT_FLOAT", "tensorShape": {"dim": [{"size": "128"}]}}}}}, {"name": "795", "op": "Const", "attr": {"dtype": {"type": "DT_FLOAT"}, "value": {"tensor": {"dtype": "DT_FLOAT", "tensorShape": {"dim": [{"size": "3"}, {"size": "3"}, {"size": "128"}, {"size": "256"}]}}}}}, {"name": "797", "op": "Const", "attr": {"dtype": {"type": "DT_FLOAT"}, "value": {"tensor": {"dtype": "DT_FLOAT", "tensorShape": {"dim": [{"size": "256"}]}}}}}, {"name": "799", "op": "Const", "attr": {"dtype": {"type": "DT_FLOAT"}, "value": {"tensor": {"dtype": "DT_FLOAT", "tensorShape": {"dim": [{"size": "3"}, {"size": "3"}, {"size": "256"}, {"size": "256"}]}}}}}, {"name": "801", "op": "Const", "attr": {"value": {"tensor": {"dtype": "DT_FLOAT", "tensorShape": {"dim": [{"size": "256"}]}}}, "dtype": {"type": "DT_FLOAT"}}}, {"name": "803", "op": "Const", "attr": {"value": {"tensor": {"dtype": "DT_FLOAT", "tensorShape": {"dim": [{"size": "2"}, {"size": "2"}, {"size": "256"}, {"size": "64"}]}}}, "dtype": {"type": "DT_FLOAT"}}}, {"name": "805", "op": "Const", "attr": {"dtype": {"type": "DT_FLOAT"}, "value": {"tensor": {"dtype": "DT_FLOAT", "tensorShape": {"dim": [{"size": "64"}]}}}}}, {"name": "PartitionedCall/model_2/tf.compat.v1.transpose/transpose/perm", "op": "Const", "attr": {"value": {"tensor": {"dtype": "DT_INT32", "tensorShape": {"dim": [{"size": "4"}]}}}, "dtype": {"type": "DT_INT32"}}}, {"name": "PartitionedCall/model_2/tf.reshape/Reshape/shape", "op": "Const", "attr": {"value": {"tensor": {"dtype": "DT_INT32", "tensorShape": {"dim": [{"size": "3"}]}}}, "dtype": {"type": "DT_INT32"}}}, {"name": "PartitionedCall/model_2/rnn_1/TensorArrayUnstack/TensorListFromTensor/element_shape", "op": "Const", "attr": {"dtype": {"type": "DT_INT32"}, "value": {"tensor": {"dtype": "DT_INT32", "tensorShape": {"dim": [{"size": "2"}]}}}}}, {"name": "807", "op": "Const", "attr": {"dtype": {"type": "DT_FLOAT"}, "value": {"tensor": {"dtype": "DT_FLOAT", "tensorShape": {"dim": [{"size": "64"}, {"size": "256"}]}}}}}, {"name": "809", "op": "Const", "attr": {"value": {"tensor": {"dtype": "DT_FLOAT", "tensorShape": {"dim": [{"size": "31"}, {"size": "64"}]}}}, "dtype": {"type": "DT_FLOAT"}}}, {"name": "811", "op": "Const", "attr": {"value": {"tensor": {"dtype": "DT_FLOAT", "tensorShape": {"dim": [{"size": "64"}, {"size": "256"}]}}}, "dtype": {"type": "DT_FLOAT"}}}, {"name": "817", "op": "Const", "attr": {"value": {"tensor": {"dtype": "DT_FLOAT", "tensorShape": {"dim": [{"size": "1"}, {"size": "64"}]}}}, "dtype": {"type": "DT_FLOAT"}}}, {"name": "PartitionedCall/model_2/rnn_1/time", "op": "Const", "attr": {"dtype": {"type": "DT_INT32"}, "value": {"tensor": {"dtype": "DT_INT32", "tensorShape": {}}}}}, {"name": "PartitionedCall/model_2/rnn_1/strided_slice", "op": "Const", "attr": {"value": {"tensor": {"dtype": "DT_INT32", "tensorShape": {}}}, "dtype": {"type": "DT_INT32"}}}, {"name": "PartitionedCall/model_2/rnn_1/while/loop_counter", "op": "Const", "attr": {"dtype": {"type": "DT_INT32"}, "value": {"tensor": {"dtype": "DT_INT32", "tensorShape": {}}}}}, {"name": "PartitionedCall/model_2/rnn_1/TensorArrayV2Stack/TensorListStack/element_shape", "op": "Const", "attr": {"value": {"tensor": {"dtype": "DT_INT32", "tensorShape": {"dim": [{"size": "2"}]}}}, "dtype": {"type": "DT_INT32"}}}, {"name": "PartitionedCall/model_2/rnn_1/transpose_1/perm", "op": "Const", "attr": {"value": {"tensor": {"dtype": "DT_INT32", "tensorShape": {"dim": [{"size": "3"}]}}}, "dtype": {"type": "DT_INT32"}}}, {"name": "PartitionedCall/model_2/tf.expand_dims_1/ExpandDims/dim", "op": "Const", "attr": {"dtype": {"type": "DT_INT32"}, "value": {"tensor": {"dtype": "DT_INT32", "tensorShape": {}}}}}, {"name": "PartitionedCall/model_2/tf.concat/concat/axis", "op": "Const", "attr": {"dtype": {"type": "DT_INT32"}, "value": {"tensor": {"dtype": "DT_INT32", "tensorShape": {}}}}}, {"name": "PartitionedCall/model_2/tf.compat.v1.transpose_3/transpose/perm", "op": "Const", "attr": {"value": {"tensor": {"dtype": "DT_INT32", "tensorShape": {"dim": [{"size": "4"}]}}}, "dtype": {"type": "DT_INT32"}}}, {"name": "PartitionedCall/model_2/tf.compat.v1.transpose_4/transpose/perm", "op": "Const", "attr": {"dtype": {"type": "DT_INT32"}, "value": {"tensor": {"dtype": "DT_INT32", "tensorShape": {"dim": [{"size": "4"}]}}}}}, {"name": "PartitionedCall/model_2/tf.reshape_1/Reshape/shape", "op": "Const", "attr": {"value": {"tensor": {"dtype": "DT_INT32", "tensorShape": {"dim": [{"size": "3"}]}}}, "dtype": {"type": "DT_INT32"}}}, {"name": "PartitionedCall/model_2/rnn_3/TensorArrayUnstack/TensorListFromTensor/element_shape", "op": "Const", "attr": {"dtype": {"type": "DT_INT32"}, "value": {"tensor": {"dtype": "DT_INT32", "tensorShape": {"dim": [{"size": "2"}]}}}}}, {"name": "839", "op": "Const", "attr": {"dtype": {"type": "DT_FLOAT"}, "value": {"tensor": {"dtype": "DT_FLOAT", "tensorShape": {"dim": [{"size": "128"}, {"size": "256"}]}}}}}, {"name": "841", "op": "Const", "attr": {"value": {"tensor": {"dtype": "DT_FLOAT", "tensorShape": {"dim": [{"size": "31"}, {"size": "64"}]}}}, "dtype": {"type": "DT_FLOAT"}}}, {"name": "843", "op": "Const", "attr": {"value": {"tensor": {"dtype": "DT_FLOAT", "tensorShape": {"dim": [{"size": "64"}, {"size": "256"}]}}}, "dtype": {"type": "DT_FLOAT"}}}, {"name": "849", "op": "Const", "attr": {"dtype": {"type": "DT_FLOAT"}, "value": {"tensor": {"dtype": "DT_FLOAT", "tensorShape": {"dim": [{"size": "1"}, {"size": "64"}]}}}}}, {"name": "PartitionedCall/model_2/rnn_3/time", "op": "Const", "attr": {"dtype": {"type": "DT_INT32"}, "value": {"tensor": {"dtype": "DT_INT32", "tensorShape": {}}}}}, {"name": "PartitionedCall/model_2/rnn_3/strided_slice", "op": "Const", "attr": {"dtype": {"type": "DT_INT32"}, "value": {"tensor": {"dtype": "DT_INT32", "tensorShape": {}}}}}, {"name": "PartitionedCall/model_2/rnn_3/while/loop_counter", "op": "Const", "attr": {"value": {"tensor": {"dtype": "DT_INT32", "tensorShape": {}}}, "dtype": {"type": "DT_INT32"}}}, {"name": "PartitionedCall/model_2/rnn_3/TensorArrayV2Stack/TensorListStack/element_shape", "op": "Const", "attr": {"value": {"tensor": {"dtype": "DT_INT32", "tensorShape": {"dim": [{"size": "2"}]}}}, "dtype": {"type": "DT_INT32"}}}, {"name": "PartitionedCall/model_2/rnn_3/transpose_1/perm", "op": "Const", "attr": {"value": {"tensor": {"dtype": "DT_INT32", "tensorShape": {"dim": [{"size": "3"}]}}}, "dtype": {"type": "DT_INT32"}}}, {"name": "PartitionedCall/model_2/tf.expand_dims_7/ExpandDims/dim", "op": "Const", "attr": {"dtype": {"type": "DT_INT32"}, "value": {"tensor": {"dtype": "DT_INT32", "tensorShape": {}}}}}, {"name": "PartitionedCall/model_2/tf.concat_3/concat/axis", "op": "Const", "attr": {"value": {"tensor": {"dtype": "DT_INT32", "tensorShape": {}}}, "dtype": {"type": "DT_INT32"}}}, {"name": "PartitionedCall/model_2/tf.compat.v1.transpose_6/transpose/perm", "op": "Const", "attr": {"dtype": {"type": "DT_INT32"}, "value": {"tensor": {"dtype": "DT_INT32", "tensorShape": {"dim": [{"size": "4"}]}}}}}, {"name": "PartitionedCall/model_2/tf.compat.v1.transpose_7/transpose/perm", "op": "Const", "attr": {"value": {"tensor": {"dtype": "DT_INT32", "tensorShape": {"dim": [{"size": "4"}]}}}, "dtype": {"type": "DT_INT32"}}}, {"name": "PartitionedCall/model_2/tf.reshape_2/Reshape/shape", "op": "Const", "attr": {"dtype": {"type": "DT_INT32"}, "value": {"tensor": {"dtype": "DT_INT32", "tensorShape": {"dim": [{"size": "3"}]}}}}}, {"name": "871", "op": "Const", "attr": {"value": {"tensor": {"dtype": "DT_FLOAT", "tensorShape": {"dim": [{"size": "128"}, {"size": "64"}]}}}, "dtype": {"type": "DT_FLOAT"}}}, {"name": "873", "op": "Const", "attr": {"dtype": {"type": "DT_FLOAT"}, "value": {"tensor": {"dtype": "DT_FLOAT", "tensorShape": {"dim": [{"size": "64"}]}}}}}, {"name": "PartitionedCall/model_2/output/transpose/perm", "op": "Const", "attr": {"value": {"tensor": {"dtype": "DT_INT32", "tensorShape": {"dim": [{"size": "3"}]}}}, "dtype": {"type": "DT_INT32"}}}, {"name": "x", "op": "Placeholder", "attr": {"dtype": {"type": "DT_FLOAT"}, "shape": {"shape": {"dim": [{"size": "1"}, {"size": "32"}, {"size": "128"}, {"size": "1"}]}}}}, {"name": "PartitionedCall/model_2/rnn_2/while/enter/_290", "op": "Enter", "input": ["869"], "attr": {"parallel_iterations": {"i": "32"}, "T": {"type": "DT_FLOAT"}, "frame_name": {"s": "UGFydGl0aW9uZWRDYWxsL21vZGVsXzIvcm5uXzIvd2hpbGU="}, "is_constant": {"b": false}}}, {"name": "PartitionedCall/model_2/rnn_2/while/enter/_288", "op": "Enter", "input": ["863"], "attr": {"T": {"type": "DT_FLOAT"}, "is_constant": {"b": false}, "frame_name": {"s": "UGFydGl0aW9uZWRDYWxsL21vZGVsXzIvcm5uXzIvd2hpbGU="}, "parallel_iterations": {"i": "32"}}}, {"name": "PartitionedCall/model_2/rnn_2/while/enter/_282", "op": "Enter", "input": ["867"], "attr": {"frame_name": {"s": "UGFydGl0aW9uZWRDYWxsL21vZGVsXzIvcm5uXzIvd2hpbGU="}, "T": {"type": "DT_FLOAT"}, "parallel_iterations": {"i": "32"}, "is_constant": {"b": false}}}, {"name": "PartitionedCall/model_2/rnn_2/while/enter/_287", "op": "Enter", "input": ["861"], "attr": {"frame_name": {"s": "UGFydGl0aW9uZWRDYWxsL21vZGVsXzIvcm5uXzIvd2hpbGU="}, "T": {"type": "DT_FLOAT"}, "is_constant": {"b": false}, "parallel_iterations": {"i": "32"}}}, {"name": "PartitionedCall/model_2/rnn_2/while/enter/_285", "op": "Enter", "input": ["855"], "attr": {"T": {"type": "DT_FLOAT"}, "frame_name": {"s": "UGFydGl0aW9uZWRDYWxsL21vZGVsXzIvcm5uXzIvd2hpbGU="}, "parallel_iterations": {"i": "32"}, "is_constant": {"b": false}}}, {"name": "PartitionedCall/model_2/rnn_2/while/enter/_281", "op": "Enter", "input": ["857"], "attr": {"is_constant": {"b": false}, "frame_name": {"s": "UGFydGl0aW9uZWRDYWxsL21vZGVsXzIvcm5uXzIvd2hpbGU="}, "T": {"type": "DT_FLOAT"}, "parallel_iterations": {"i": "32"}}}, {"name": "PartitionedCall/model_2/rnn_2/while/enter/_286", "op": "Enter", "input": ["859"], "attr": {"T": {"type": "DT_FLOAT"}, "is_constant": {"b": false}, "frame_name": {"s": "UGFydGl0aW9uZWRDYWxsL21vZGVsXzIvcm5uXzIvd2hpbGU="}, "parallel_iterations": {"i": "32"}}}, {"name": "PartitionedCall/model_2/rnn_2/while/enter/_289", "op": "Enter", "input": ["865"], "attr": {"T": {"type": "DT_FLOAT"}, "is_constant": {"b": false}, "parallel_iterations": {"i": "32"}, "frame_name": {"s": "UGFydGl0aW9uZWRDYWxsL21vZGVsXzIvcm5uXzIvd2hpbGU="}}}, {"name": "PartitionedCall/model_2/rnn_2/while/enter/_279", "op": "Enter", "input": ["PartitionedCall/model_2/rnn_2/time"], "attr": {"T": {"type": "DT_INT32"}, "frame_name": {"s": "UGFydGl0aW9uZWRDYWxsL21vZGVsXzIvcm5uXzIvd2hpbGU="}, "is_constant": {"b": false}, "parallel_iterations": {"i": "32"}}}, {"name": "PartitionedCall/model_2/rnn_2/TensorArrayV2_1", "op": "TensorListReserve", "input": ["PartitionedCall/model_2/rnn_2/TensorArrayV2_1/element_shape", "PartitionedCall/model_2/rnn_2/strided_slice"], "attr": {"element_dtype": {"type": "DT_FLOAT"}, "shape_type": {"type": "DT_INT32"}}, "experimentalType": {"typeId": "TFT_PRODUCT", "args": [{"typeId": "TFT_ARRAY", "args": [{"typeId": "TFT_TENSOR", "args": [{"typeId": "TFT_FLOAT"}]}]}]}}, {"name": "PartitionedCall/model_2/rnn_2/while/enter/_283", "op": "Enter", "input": ["PartitionedCall/model_2/rnn_2/strided_slice"], "attr": {"T": {"type": "DT_INT32"}, "frame_name": {"s": "UGFydGl0aW9uZWRDYWxsL21vZGVsXzIvcm5uXzIvd2hpbGU="}, "is_constant": {"b": false}, "parallel_iterations": {"i": "32"}}}, {"name": "PartitionedCall/model_2/rnn_2/while/enter/_277", "op": "Enter", "input": ["PartitionedCall/model_2/rnn_2/while/loop_counter"], "attr": {"is_constant": {"b": false}, "frame_name": {"s": "UGFydGl0aW9uZWRDYWxsL21vZGVsXzIvcm5uXzIvd2hpbGU="}, "T": {"type": "DT_INT32"}, "parallel_iterations": {"i": "32"}}}, {"name": "PartitionedCall/model_2/rnn_3/while/enter/_215", "op": "Enter", "input": ["853"], "attr": {"parallel_iterations": {"i": "32"}, "is_constant": {"b": false}, "frame_name": {"s": "UGFydGl0aW9uZWRDYWxsL21vZGVsXzIvcm5uXzMvd2hpbGU="}, "T": {"type": "DT_FLOAT"}}}, {"name": "PartitionedCall/model_2/rnn_3/while/enter/_213", "op": "Enter", "input": ["847"], "attr": {"T": {"type": "DT_FLOAT"}, "parallel_iterations": {"i": "32"}, "frame_name": {"s": "UGFydGl0aW9uZWRDYWxsL21vZGVsXzIvcm5uXzMvd2hpbGU="}, "is_constant": {"b": false}}}, {"name": "PartitionedCall/model_2/rnn_3/while/enter/_207", "op": "Enter", "input": ["851"], "attr": {"is_constant": {"b": false}, "frame_name": {"s": "UGFydGl0aW9uZWRDYWxsL21vZGVsXzIvcm5uXzMvd2hpbGU="}, "parallel_iterations": {"i": "32"}, "T": {"type": "DT_FLOAT"}}}, {"name": "PartitionedCall/model_2/rnn_3/while/enter/_212", "op": "Enter", "input": ["845"], "attr": {"parallel_iterations": {"i": "32"}, "T": {"type": "DT_FLOAT"}, "frame_name": {"s": "UGFydGl0aW9uZWRDYWxsL21vZGVsXzIvcm5uXzMvd2hpbGU="}, "is_constant": {"b": false}}}, {"name": "PartitionedCall/model_2/rnn/while/enter/_140", "op": "Enter", "input": ["837"], "attr": {"T": {"type": "DT_FLOAT"}, "is_constant": {"b": false}, "frame_name": {"s": "UGFydGl0aW9uZWRDYWxsL21vZGVsXzIvcm5uL3doaWxl"}, "parallel_iterations": {"i": "32"}}}, {"name": "PartitionedCall/model_2/rnn/while/enter/_138", "op": "Enter", "input": ["831"], "attr": {"frame_name": {"s": "UGFydGl0aW9uZWRDYWxsL21vZGVsXzIvcm5uL3doaWxl"}, "T": {"type": "DT_FLOAT"}, "parallel_iterations": {"i": "32"}, "is_constant": {"b": false}}}, {"name": "PartitionedCall/model_2/rnn/while/enter/_132", "op": "Enter", "input": ["835"], "attr": {"T": {"type": "DT_FLOAT"}, "parallel_iterations": {"i": "32"}, "frame_name": {"s": "UGFydGl0aW9uZWRDYWxsL21vZGVsXzIvcm5uL3doaWxl"}, "is_constant": {"b": false}}}, {"name": "PartitionedCall/model_2/rnn/while/enter/_137", "op": "Enter", "input": ["829"], "attr": {"T": {"type": "DT_FLOAT"}, "frame_name": {"s": "UGFydGl0aW9uZWRDYWxsL21vZGVsXzIvcm5uL3doaWxl"}, "is_constant": {"b": false}, "parallel_iterations": {"i": "32"}}}, {"name": "PartitionedCall/model_2/rnn/while/enter/_135", "op": "Enter", "input": ["823"], "attr": {"T": {"type": "DT_FLOAT"}, "parallel_iterations": {"i": "32"}, "frame_name": {"s": "UGFydGl0aW9uZWRDYWxsL21vZGVsXzIvcm5uL3doaWxl"}, "is_constant": {"b": false}}}, {"name": "PartitionedCall/model_2/rnn/while/enter/_131", "op": "Enter", "input": ["825"], "attr": {"is_constant": {"b": false}, "frame_name": {"s": "UGFydGl0aW9uZWRDYWxsL21vZGVsXzIvcm5uL3doaWxl"}, "parallel_iterations": {"i": "32"}, "T": {"type": "DT_FLOAT"}}}, {"name": "PartitionedCall/model_2/rnn/while/enter/_136", "op": "Enter", "input": ["827"], "attr": {"T": {"type": "DT_FLOAT"}, "is_constant": {"b": false}, "parallel_iterations": {"i": "32"}, "frame_name": {"s": "UGFydGl0aW9uZWRDYWxsL21vZGVsXzIvcm5uL3doaWxl"}}}, {"name": "PartitionedCall/model_2/rnn/while/enter/_139", "op": "Enter", "input": ["833"], "attr": {"T": {"type": "DT_FLOAT"}, "is_constant": {"b": false}, "frame_name": {"s": "UGFydGl0aW9uZWRDYWxsL21vZGVsXzIvcm5uL3doaWxl"}, "parallel_iterations": {"i": "32"}}}, {"name": "PartitionedCall/model_2/rnn/while/enter/_129", "op": "Enter", "input": ["PartitionedCall/model_2/rnn/time"], "attr": {"is_constant": {"b": false}, "parallel_iterations": {"i": "32"}, "frame_name": {"s": "UGFydGl0aW9uZWRDYWxsL21vZGVsXzIvcm5uL3doaWxl"}, "T": {"type": "DT_INT32"}}}, {"name": "PartitionedCall/model_2/rnn/TensorArrayV2_1", "op": "TensorListReserve", "input": ["PartitionedCall/model_2/rnn/TensorArrayV2_1/element_shape", "PartitionedCall/model_2/rnn/strided_slice"], "attr": {"element_dtype": {"type": "DT_FLOAT"}, "shape_type": {"type": "DT_INT32"}}, "experimentalType": {"typeId": "TFT_PRODUCT", "args": [{"typeId": "TFT_ARRAY", "args": [{"typeId": "TFT_TENSOR", "args": [{"typeId": "TFT_FLOAT"}]}]}]}}, {"name": "PartitionedCall/model_2/rnn/while/enter/_133", "op": "Enter", "input": ["PartitionedCall/model_2/rnn/strided_slice"], "attr": {"T": {"type": "DT_INT32"}, "frame_name": {"s": "UGFydGl0aW9uZWRDYWxsL21vZGVsXzIvcm5uL3doaWxl"}, "parallel_iterations": {"i": "32"}, "is_constant": {"b": false}}}, {"name": "PartitionedCall/model_2/rnn/while/enter/_127", "op": "Enter", "input": ["PartitionedCall/model_2/rnn/while/loop_counter"], "attr": {"frame_name": {"s": "UGFydGl0aW9uZWRDYWxsL21vZGVsXzIvcm5uL3doaWxl"}, "parallel_iterations": {"i": "32"}, "is_constant": {"b": false}, "T": {"type": "DT_INT32"}}}, {"name": "PartitionedCall/model_2/rnn_1/while/enter/_65", "op": "Enter", "input": ["821"], "attr": {"frame_name": {"s": "UGFydGl0aW9uZWRDYWxsL21vZGVsXzIvcm5uXzEvd2hpbGU="}, "parallel_iterations": {"i": "32"}, "T": {"type": "DT_FLOAT"}, "is_constant": {"b": false}}}, {"name": "PartitionedCall/model_2/rnn_1/while/enter/_63", "op": "Enter", "input": ["815"], "attr": {"parallel_iterations": {"i": "32"}, "T": {"type": "DT_FLOAT"}, "frame_name": {"s": "UGFydGl0aW9uZWRDYWxsL21vZGVsXzIvcm5uXzEvd2hpbGU="}, "is_constant": {"b": false}}}, {"name": "PartitionedCall/model_2/rnn_1/while/enter/_57", "op": "Enter", "input": ["819"], "attr": {"T": {"type": "DT_FLOAT"}, "frame_name": {"s": "UGFydGl0aW9uZWRDYWxsL21vZGVsXzIvcm5uXzEvd2hpbGU="}, "parallel_iterations": {"i": "32"}, "is_constant": {"b": false}}}, {"name": "PartitionedCall/model_2/rnn_1/while/enter/_62", "op": "Enter", "input": ["813"], "attr": {"frame_name": {"s": "UGFydGl0aW9uZWRDYWxsL21vZGVsXzIvcm5uXzEvd2hpbGU="}, "T": {"type": "DT_FLOAT"}, "is_constant": {"b": false}, "parallel_iterations": {"i": "32"}}}, {"name": "PartitionedCall/model_2/rnn_1/while/enter/_60", "op": "Enter", "input": ["807"], "attr": {"parallel_iterations": {"i": "32"}, "frame_name": {"s": "UGFydGl0aW9uZWRDYWxsL21vZGVsXzIvcm5uXzEvd2hpbGU="}, "is_constant": {"b": false}, "T": {"type": "DT_FLOAT"}}}, {"name": "PartitionedCall/model_2/rnn_1/while/enter/_56", "op": "Enter", "input": ["809"], "attr": {"T": {"type": "DT_FLOAT"}, "parallel_iterations": {"i": "32"}, "frame_name": {"s": "UGFydGl0aW9uZWRDYWxsL21vZGVsXzIvcm5uXzEvd2hpbGU="}, "is_constant": {"b": false}}}, {"name": "PartitionedCall/model_2/rnn_1/while/enter/_61", "op": "Enter", "input": ["811"], "attr": {"frame_name": {"s": "UGFydGl0aW9uZWRDYWxsL21vZGVsXzIvcm5uXzEvd2hpbGU="}, "parallel_iterations": {"i": "32"}, "T": {"type": "DT_FLOAT"}, "is_constant": {"b": false}}}, {"name": "PartitionedCall/model_2/rnn_1/while/enter/_64", "op": "Enter", "input": ["817"], "attr": {"T": {"type": "DT_FLOAT"}, "frame_name": {"s": "UGFydGl0aW9uZWRDYWxsL21vZGVsXzIvcm5uXzEvd2hpbGU="}, "is_constant": {"b": false}, "parallel_iterations": {"i": "32"}}}, {"name": "PartitionedCall/model_2/rnn_1/while/enter/_54", "op": "Enter", "input": ["PartitionedCall/model_2/rnn_1/time"], "attr": {"frame_name": {"s": "UGFydGl0aW9uZWRDYWxsL21vZGVsXzIvcm5uXzEvd2hpbGU="}, "is_constant": {"b": false}, "parallel_iterations": {"i": "32"}, "T": {"type": "DT_INT32"}}}, {"name": "PartitionedCall/model_2/rnn_1/TensorArrayV2_1", "op": "TensorListReserve", "input": ["PartitionedCall/model_2/rnn_1/TensorArrayV2_1/element_shape", "PartitionedCall/model_2/rnn_1/strided_slice"], "attr": {"element_dtype": {"type": "DT_FLOAT"}, "shape_type": {"type": "DT_INT32"}}, "experimentalType": {"typeId": "TFT_PRODUCT", "args": [{"typeId": "TFT_ARRAY", "args": [{"typeId": "TFT_TENSOR", "args": [{"typeId": "TFT_FLOAT"}]}]}]}}, {"name": "PartitionedCall/model_2/rnn_1/while/enter/_58", "op": "Enter", "input": ["PartitionedCall/model_2/rnn_1/strided_slice"], "attr": {"frame_name": {"s": "UGFydGl0aW9uZWRDYWxsL21vZGVsXzIvcm5uXzEvd2hpbGU="}, "T": {"type": "DT_INT32"}, "parallel_iterations": {"i": "32"}, "is_constant": {"b": false}}}, {"name": "PartitionedCall/model_2/rnn_1/while/enter/_52", "op": "Enter", "input": ["PartitionedCall/model_2/rnn_1/while/loop_counter"], "attr": {"T": {"type": "DT_INT32"}, "frame_name": {"s": "UGFydGl0aW9uZWRDYWxsL21vZGVsXzIvcm5uXzEvd2hpbGU="}, "is_constant": {"b": false}, "parallel_iterations": {"i": "32"}}}, {"name": "PartitionedCall/model_2/rnn_3/while/enter/_210", "op": "Enter", "input": ["839"], "attr": {"T": {"type": "DT_FLOAT"}, "frame_name": {"s": "UGFydGl0aW9uZWRDYWxsL21vZGVsXzIvcm5uXzMvd2hpbGU="}, "parallel_iterations": {"i": "32"}, "is_constant": {"b": false}}}, {"name": "PartitionedCall/model_2/rnn_3/while/enter/_206", "op": "Enter", "input": ["841"], "attr": {"frame_name": {"s": "UGFydGl0aW9uZWRDYWxsL21vZGVsXzIvcm5uXzMvd2hpbGU="}, "is_constant": {"b": false}, "parallel_iterations": {"i": "32"}, "T": {"type": "DT_FLOAT"}}}, {"name": "PartitionedCall/model_2/rnn_3/while/enter/_211", "op": "Enter", "input": ["843"], "attr": {"parallel_iterations": {"i": "32"}, "frame_name": {"s": "UGFydGl0aW9uZWRDYWxsL21vZGVsXzIvcm5uXzMvd2hpbGU="}, "T": {"type": "DT_FLOAT"}, "is_constant": {"b": false}}}, {"name": "PartitionedCall/model_2/rnn_3/while/enter/_214", "op": "Enter", "input": ["849"], "attr": {"frame_name": {"s": "UGFydGl0aW9uZWRDYWxsL21vZGVsXzIvcm5uXzMvd2hpbGU="}, "is_constant": {"b": false}, "parallel_iterations": {"i": "32"}, "T": {"type": "DT_FLOAT"}}}, {"name": "PartitionedCall/model_2/rnn_3/while/enter/_204", "op": "Enter", "input": ["PartitionedCall/model_2/rnn_3/time"], "attr": {"is_constant": {"b": false}, "T": {"type": "DT_INT32"}, "parallel_iterations": {"i": "32"}, "frame_name": {"s": "UGFydGl0aW9uZWRDYWxsL21vZGVsXzIvcm5uXzMvd2hpbGU="}}}, {"name": "PartitionedCall/model_2/rnn_3/TensorArrayV2_1", "op": "TensorListReserve", "input": ["PartitionedCall/model_2/rnn_3/TensorArrayV2_1/element_shape", "PartitionedCall/model_2/rnn_3/strided_slice"], "attr": {"shape_type": {"type": "DT_INT32"}, "element_dtype": {"type": "DT_FLOAT"}}, "experimentalType": {"typeId": "TFT_PRODUCT", "args": [{"typeId": "TFT_ARRAY", "args": [{"typeId": "TFT_TENSOR", "args": [{"typeId": "TFT_FLOAT"}]}]}]}}, {"name": "PartitionedCall/model_2/rnn_3/while/enter/_208", "op": "Enter", "input": ["PartitionedCall/model_2/rnn_3/strided_slice"], "attr": {"T": {"type": "DT_INT32"}, "parallel_iterations": {"i": "32"}, "frame_name": {"s": "UGFydGl0aW9uZWRDYWxsL21vZGVsXzIvcm5uXzMvd2hpbGU="}, "is_constant": {"b": false}}}, {"name": "PartitionedCall/model_2/rnn_3/while/enter/_202", "op": "Enter", "input": ["PartitionedCall/model_2/rnn_3/while/loop_counter"], "attr": {"frame_name": {"s": "UGFydGl0aW9uZWRDYWxsL21vZGVsXzIvcm5uXzMvd2hpbGU="}, "parallel_iterations": {"i": "32"}, "T": {"type": "DT_INT32"}, "is_constant": {"b": false}}}, {"name": "PartitionedCall/model_2/tf.nn.convolution/convolution", "op": "Conv2D", "input": ["x", "779"], "device": "/device:CPU:0", "attr": {"use_cudnn_on_gpu": {"b": true}, "T": {"type": "DT_FLOAT"}, "dilations": {"list": {"i": ["1", "1", "1", "1"]}}, "padding": {"s": "U0FNRQ=="}, "explicit_paddings": {"list": {}}, "strides": {"list": {"i": ["1", "1", "1", "1"]}}, "data_format": {"s": "TkhXQw=="}}}, {"name": "PartitionedCall/model_2/rnn_2/while/merge/_304", "op": "Merge", "input": ["PartitionedCall/model_2/rnn_2/while/enter/_290", "PartitionedCall/model_2/rnn_2/while/next_iteration/_349"], "attr": {"N": {"i": "2"}, "T": {"type": "DT_FLOAT"}}}, {"name": "PartitionedCall/model_2/rnn_2/while/merge/_302", "op": "Merge", "input": ["PartitionedCall/model_2/rnn_2/while/enter/_288", "PartitionedCall/model_2/rnn_2/while/next_iteration/_347"], "attr": {"N": {"i": "2"}, "T": {"type": "DT_FLOAT"}}}, {"name": "PartitionedCall/model_2/rnn_2/while/merge/_296", "op": "Merge", "input": ["PartitionedCall/model_2/rnn_2/while/enter/_282", "PartitionedCall/model_2/rnn_2/while/next_iteration/_341"], "attr": {"T": {"type": "DT_FLOAT"}, "N": {"i": "2"}}}, {"name": "PartitionedCall/model_2/rnn_2/while/merge/_301", "op": "Merge", "input": ["PartitionedCall/model_2/rnn_2/while/enter/_287", "PartitionedCall/model_2/rnn_2/while/next_iteration/_346"], "attr": {"T": {"type": "DT_FLOAT"}, "N": {"i": "2"}}}, {"name": "PartitionedCall/model_2/rnn_2/while/merge/_299", "op": "Merge", "input": ["PartitionedCall/model_2/rnn_2/while/enter/_285", "PartitionedCall/model_2/rnn_2/while/next_iteration/_344"], "attr": {"T": {"type": "DT_FLOAT"}, "N": {"i": "2"}}}, {"name": "PartitionedCall/model_2/rnn_2/while/merge/_295", "op": "Merge", "input": ["PartitionedCall/model_2/rnn_2/while/enter/_281", "PartitionedCall/model_2/rnn_2/while/next_iteration/_340"], "attr": {"N": {"i": "2"}, "T": {"type": "DT_FLOAT"}}}, {"name": "PartitionedCall/model_2/rnn_2/while/merge/_300", "op": "Merge", "input": ["PartitionedCall/model_2/rnn_2/while/enter/_286", "PartitionedCall/model_2/rnn_2/while/next_iteration/_345"], "attr": {"N": {"i": "2"}, "T": {"type": "DT_FLOAT"}}}, {"name": "PartitionedCall/model_2/rnn_2/while/merge/_303", "op": "Merge", "input": ["PartitionedCall/model_2/rnn_2/while/enter/_289", "PartitionedCall/model_2/rnn_2/while/next_iteration/_348"], "attr": {"T": {"type": "DT_FLOAT"}, "N": {"i": "2"}}}, {"name": "PartitionedCall/model_2/rnn_2/while/merge/_293", "op": "Merge", "input": ["PartitionedCall/model_2/rnn_2/while/enter/_279", "PartitionedCall/model_2/rnn_2/while/next_iteration/_338"], "attr": {"T": {"type": "DT_INT32"}, "N": {"i": "2"}}}, {"name": "PartitionedCall/model_2/rnn_2/while/enter/_280", "op": "Enter", "input": ["PartitionedCall/model_2/rnn_2/TensorArrayV2_1"], "attr": {"is_constant": {"b": false}, "T": {"type": "DT_VARIANT"}, "parallel_iterations": {"i": "32"}, "frame_name": {"s": "UGFydGl0aW9uZWRDYWxsL21vZGVsXzIvcm5uXzIvd2hpbGU="}}}, {"name": "PartitionedCall/model_2/rnn_2/while/merge/_297", "op": "Merge", "input": ["PartitionedCall/model_2/rnn_2/while/enter/_283", "PartitionedCall/model_2/rnn_2/while/next_iteration/_342"], "attr": {"N": {"i": "2"}, "T": {"type": "DT_INT32"}}}, {"name": "PartitionedCall/model_2/rnn_2/while/merge/_291", "op": "Merge", "input": ["PartitionedCall/model_2/rnn_2/while/enter/_277", "PartitionedCall/model_2/rnn_2/while/next_iteration/_336"], "attr": {"N": {"i": "2"}, "T": {"type": "DT_INT32"}}}, {"name": "PartitionedCall/model_2/rnn_3/while/merge/_229", "op": "Merge", "input": ["PartitionedCall/model_2/rnn_3/while/enter/_215", "PartitionedCall/model_2/rnn_3/while/next_iteration/_274"], "attr": {"N": {"i": "2"}, "T": {"type": "DT_FLOAT"}}}, {"name": "PartitionedCall/model_2/rnn_3/while/merge/_227", "op": "Merge", "input": ["PartitionedCall/model_2/rnn_3/while/enter/_213", "PartitionedCall/model_2/rnn_3/while/next_iteration/_272"], "attr": {"T": {"type": "DT_FLOAT"}, "N": {"i": "2"}}}, {"name": "PartitionedCall/model_2/rnn_3/while/merge/_221", "op": "Merge", "input": ["PartitionedCall/model_2/rnn_3/while/enter/_207", "PartitionedCall/model_2/rnn_3/while/next_iteration/_266"], "attr": {"T": {"type": "DT_FLOAT"}, "N": {"i": "2"}}}, {"name": "PartitionedCall/model_2/rnn_3/while/merge/_226", "op": "Merge", "input": ["PartitionedCall/model_2/rnn_3/while/enter/_212", "PartitionedCall/model_2/rnn_3/while/next_iteration/_271"], "attr": {"N": {"i": "2"}, "T": {"type": "DT_FLOAT"}}}, {"name": "PartitionedCall/model_2/rnn/while/merge/_154", "op": "Merge", "input": ["PartitionedCall/model_2/rnn/while/enter/_140", "PartitionedCall/model_2/rnn/while/next_iteration/_199"], "attr": {"T": {"type": "DT_FLOAT"}, "N": {"i": "2"}}}, {"name": "PartitionedCall/model_2/rnn/while/merge/_152", "op": "Merge", "input": ["PartitionedCall/model_2/rnn/while/enter/_138", "PartitionedCall/model_2/rnn/while/next_iteration/_197"], "attr": {"N": {"i": "2"}, "T": {"type": "DT_FLOAT"}}}, {"name": "PartitionedCall/model_2/rnn/while/merge/_146", "op": "Merge", "input": ["PartitionedCall/model_2/rnn/while/enter/_132", "PartitionedCall/model_2/rnn/while/next_iteration/_191"], "attr": {"T": {"type": "DT_FLOAT"}, "N": {"i": "2"}}}, {"name": "PartitionedCall/model_2/rnn/while/merge/_151", "op": "Merge", "input": ["PartitionedCall/model_2/rnn/while/enter/_137", "PartitionedCall/model_2/rnn/while/next_iteration/_196"], "attr": {"T": {"type": "DT_FLOAT"}, "N": {"i": "2"}}}, {"name": "PartitionedCall/model_2/rnn/while/merge/_149", "op": "Merge", "input": ["PartitionedCall/model_2/rnn/while/enter/_135", "PartitionedCall/model_2/rnn/while/next_iteration/_194"], "attr": {"T": {"type": "DT_FLOAT"}, "N": {"i": "2"}}}, {"name": "PartitionedCall/model_2/rnn/while/merge/_145", "op": "Merge", "input": ["PartitionedCall/model_2/rnn/while/enter/_131", "PartitionedCall/model_2/rnn/while/next_iteration/_190"], "attr": {"N": {"i": "2"}, "T": {"type": "DT_FLOAT"}}}, {"name": "PartitionedCall/model_2/rnn/while/merge/_150", "op": "Merge", "input": ["PartitionedCall/model_2/rnn/while/enter/_136", "PartitionedCall/model_2/rnn/while/next_iteration/_195"], "attr": {"N": {"i": "2"}, "T": {"type": "DT_FLOAT"}}}, {"name": "PartitionedCall/model_2/rnn/while/merge/_153", "op": "Merge", "input": ["PartitionedCall/model_2/rnn/while/enter/_139", "PartitionedCall/model_2/rnn/while/next_iteration/_198"], "attr": {"N": {"i": "2"}, "T": {"type": "DT_FLOAT"}}}, {"name": "PartitionedCall/model_2/rnn/while/merge/_143", "op": "Merge", "input": ["PartitionedCall/model_2/rnn/while/enter/_129", "PartitionedCall/model_2/rnn/while/next_iteration/_188"], "attr": {"T": {"type": "DT_INT32"}, "N": {"i": "2"}}}, {"name": "PartitionedCall/model_2/rnn/while/enter/_130", "op": "Enter", "input": ["PartitionedCall/model_2/rnn/TensorArrayV2_1"], "attr": {"T": {"type": "DT_VARIANT"}, "is_constant": {"b": false}, "frame_name": {"s": "UGFydGl0aW9uZWRDYWxsL21vZGVsXzIvcm5uL3doaWxl"}, "parallel_iterations": {"i": "32"}}}, {"name": "PartitionedCall/model_2/rnn/while/merge/_147", "op": "Merge", "input": ["PartitionedCall/model_2/rnn/while/enter/_133", "PartitionedCall/model_2/rnn/while/next_iteration/_192"], "attr": {"N": {"i": "2"}, "T": {"type": "DT_INT32"}}}, {"name": "PartitionedCall/model_2/rnn/while/merge/_141", "op": "Merge", "input": ["PartitionedCall/model_2/rnn/while/enter/_127", "PartitionedCall/model_2/rnn/while/next_iteration/_186"], "attr": {"N": {"i": "2"}, "T": {"type": "DT_INT32"}, "_has_manual_control_dependencies": {"b": true}}}, {"name": "PartitionedCall/model_2/rnn_1/while/merge/_79", "op": "Merge", "input": ["PartitionedCall/model_2/rnn_1/while/enter/_65", "PartitionedCall/model_2/rnn_1/while/next_iteration/_124"], "attr": {"N": {"i": "2"}, "T": {"type": "DT_FLOAT"}}}, {"name": "PartitionedCall/model_2/rnn_1/while/merge/_77", "op": "Merge", "input": ["PartitionedCall/model_2/rnn_1/while/enter/_63", "PartitionedCall/model_2/rnn_1/while/next_iteration/_122"], "attr": {"T": {"type": "DT_FLOAT"}, "N": {"i": "2"}}}, {"name": "PartitionedCall/model_2/rnn_1/while/merge/_71", "op": "Merge", "input": ["PartitionedCall/model_2/rnn_1/while/enter/_57", "PartitionedCall/model_2/rnn_1/while/next_iteration/_116"], "attr": {"T": {"type": "DT_FLOAT"}, "N": {"i": "2"}}}, {"name": "PartitionedCall/model_2/rnn_1/while/merge/_76", "op": "Merge", "input": ["PartitionedCall/model_2/rnn_1/while/enter/_62", "PartitionedCall/model_2/rnn_1/while/next_iteration/_121"], "attr": {"N": {"i": "2"}, "T": {"type": "DT_FLOAT"}}}, {"name": "PartitionedCall/model_2/rnn_1/while/merge/_74", "op": "Merge", "input": ["PartitionedCall/model_2/rnn_1/while/enter/_60", "PartitionedCall/model_2/rnn_1/while/next_iteration/_119"], "attr": {"N": {"i": "2"}, "T": {"type": "DT_FLOAT"}}}, {"name": "PartitionedCall/model_2/rnn_1/while/merge/_70", "op": "Merge", "input": ["PartitionedCall/model_2/rnn_1/while/enter/_56", "PartitionedCall/model_2/rnn_1/while/next_iteration/_115"], "attr": {"T": {"type": "DT_FLOAT"}, "N": {"i": "2"}}}, {"name": "PartitionedCall/model_2/rnn_1/while/merge/_75", "op": "Merge", "input": ["PartitionedCall/model_2/rnn_1/while/enter/_61", "PartitionedCall/model_2/rnn_1/while/next_iteration/_120"], "attr": {"T": {"type": "DT_FLOAT"}, "N": {"i": "2"}}}, {"name": "PartitionedCall/model_2/rnn_1/while/merge/_78", "op": "Merge", "input": ["PartitionedCall/model_2/rnn_1/while/enter/_64", "PartitionedCall/model_2/rnn_1/while/next_iteration/_123"], "attr": {"T": {"type": "DT_FLOAT"}, "N": {"i": "2"}}}, {"name": "PartitionedCall/model_2/rnn_1/while/merge/_68", "op": "Merge", "input": ["PartitionedCall/model_2/rnn_1/while/enter/_54", "PartitionedCall/model_2/rnn_1/while/next_iteration/_113"], "attr": {"N": {"i": "2"}, "T": {"type": "DT_INT32"}}}, {"name": "PartitionedCall/model_2/rnn_1/while/enter/_55", "op": "Enter", "input": ["PartitionedCall/model_2/rnn_1/TensorArrayV2_1"], "attr": {"T": {"type": "DT_VARIANT"}, "is_constant": {"b": false}, "parallel_iterations": {"i": "32"}, "frame_name": {"s": "UGFydGl0aW9uZWRDYWxsL21vZGVsXzIvcm5uXzEvd2hpbGU="}}}, {"name": "PartitionedCall/model_2/rnn_1/while/merge/_72", "op": "Merge", "input": ["PartitionedCall/model_2/rnn_1/while/enter/_58", "PartitionedCall/model_2/rnn_1/while/next_iteration/_117"], "attr": {"T": {"type": "DT_INT32"}, "N": {"i": "2"}}}, {"name": "PartitionedCall/model_2/rnn_1/while/merge/_66", "op": "Merge", "input": ["PartitionedCall/model_2/rnn_1/while/enter/_52", "PartitionedCall/model_2/rnn_1/while/next_iteration/_111"], "attr": {"T": {"type": "DT_INT32"}, "_has_manual_control_dependencies": {"b": true}, "N": {"i": "2"}}}, {"name": "PartitionedCall/model_2/rnn_3/while/merge/_224", "op": "Merge", "input": ["PartitionedCall/model_2/rnn_3/while/enter/_210", "PartitionedCall/model_2/rnn_3/while/next_iteration/_269"], "attr": {"N": {"i": "2"}, "T": {"type": "DT_FLOAT"}}}, {"name": "PartitionedCall/model_2/rnn_3/while/merge/_220", "op": "Merge", "input": ["PartitionedCall/model_2/rnn_3/while/enter/_206", "PartitionedCall/model_2/rnn_3/while/next_iteration/_265"], "attr": {"N": {"i": "2"}, "T": {"type": "DT_FLOAT"}}}, {"name": "PartitionedCall/model_2/rnn_3/while/merge/_225", "op": "Merge", "input": ["PartitionedCall/model_2/rnn_3/while/enter/_211", "PartitionedCall/model_2/rnn_3/while/next_iteration/_270"], "attr": {"N": {"i": "2"}, "T": {"type": "DT_FLOAT"}}}, {"name": "PartitionedCall/model_2/rnn_3/while/merge/_228", "op": "Merge", "input": ["PartitionedCall/model_2/rnn_3/while/enter/_214", "PartitionedCall/model_2/rnn_3/while/next_iteration/_273"], "attr": {"N": {"i": "2"}, "T": {"type": "DT_FLOAT"}}}, {"name": "PartitionedCall/model_2/rnn_3/while/merge/_218", "op": "Merge", "input": ["PartitionedCall/model_2/rnn_3/while/enter/_204", "PartitionedCall/model_2/rnn_3/while/next_iteration/_263"], "attr": {"T": {"type": "DT_INT32"}, "N": {"i": "2"}}}, {"name": "PartitionedCall/model_2/rnn_3/while/enter/_205", "op": "Enter", "input": ["PartitionedCall/model_2/rnn_3/TensorArrayV2_1"], "attr": {"T": {"type": "DT_VARIANT"}, "is_constant": {"b": false}, "frame_name": {"s": "UGFydGl0aW9uZWRDYWxsL21vZGVsXzIvcm5uXzMvd2hpbGU="}, "parallel_iterations": {"i": "32"}}}, {"name": "PartitionedCall/model_2/rnn_3/while/merge/_222", "op": "Merge", "input": ["PartitionedCall/model_2/rnn_3/while/enter/_208", "PartitionedCall/model_2/rnn_3/while/next_iteration/_267"], "attr": {"T": {"type": "DT_INT32"}, "N": {"i": "2"}}}, {"name": "PartitionedCall/model_2/rnn_3/while/merge/_216", "op": "Merge", "input": ["PartitionedCall/model_2/rnn_3/while/enter/_202", "PartitionedCall/model_2/rnn_3/while/next_iteration/_261"], "attr": {"T": {"type": "DT_INT32"}, "N": {"i": "2"}}}, {"name": "PartitionedCall/model_2/tf.math.add/Add", "op": "AddV2", "input": ["PartitionedCall/model_2/tf.nn.convolution/convolution", "781"], "attr": {"T": {"type": "DT_FLOAT"}}}, {"name": "PartitionedCall/model_2/rnn_2/while/merge/_294", "op": "Merge", "input": ["PartitionedCall/model_2/rnn_2/while/enter/_280", "PartitionedCall/model_2/rnn_2/while/next_iteration/_339"], "attr": {"N": {"i": "2"}, "T": {"type": "DT_VARIANT"}}}, {"name": "PartitionedCall/model_2/rnn_2/while/cond/_275/model_2/rnn_2/while/Less", "op": "Less", "input": ["PartitionedCall/model_2/rnn_2/while/merge/_293", "PartitionedCall/model_2/rnn_2/while/merge/_297", "^PartitionedCall/model_2/rnn_2/while/merge/_291"], "attr": {"T": {"type": "DT_INT32"}}}, {"name": "PartitionedCall/model_2/rnn/while/merge/_144", "op": "Merge", "input": ["PartitionedCall/model_2/rnn/while/enter/_130", "PartitionedCall/model_2/rnn/while/next_iteration/_189"], "attr": {"T": {"type": "DT_VARIANT"}, "N": {"i": "2"}}}, {"name": "PartitionedCall/model_2/rnn/while/cond/_125/model_2/rnn/while/Less", "op": "Less", "input": ["PartitionedCall/model_2/rnn/while/merge/_143", "PartitionedCall/model_2/rnn/while/merge/_147", "^PartitionedCall/model_2/rnn/while/merge/_141"], "attr": {"T": {"type": "DT_INT32"}}}, {"name": "PartitionedCall/model_2/rnn_1/while/merge/_69", "op": "Merge", "input": ["PartitionedCall/model_2/rnn_1/while/enter/_55", "PartitionedCall/model_2/rnn_1/while/next_iteration/_114"], "attr": {"N": {"i": "2"}, "T": {"type": "DT_VARIANT"}}}, {"name": "PartitionedCall/model_2/rnn_1/while/cond/_50/model_2/rnn_1/while/Less", "op": "Less", "input": ["PartitionedCall/model_2/rnn_1/while/merge/_68", "PartitionedCall/model_2/rnn_1/while/merge/_72", "^PartitionedCall/model_2/rnn_1/while/merge/_66"], "attr": {"T": {"type": "DT_INT32"}}}, {"name": "PartitionedCall/model_2/rnn_3/while/merge/_219", "op": "Merge", "input": ["PartitionedCall/model_2/rnn_3/while/enter/_205", "PartitionedCall/model_2/rnn_3/while/next_iteration/_264"], "attr": {"T": {"type": "DT_VARIANT"}, "N": {"i": "2"}}}, {"name": "PartitionedCall/model_2/rnn_3/while/cond/_200/model_2/rnn_3/while/Less", "op": "Less", "input": ["PartitionedCall/model_2/rnn_3/while/merge/_218", "PartitionedCall/model_2/rnn_3/while/merge/_222", "^PartitionedCall/model_2/rnn_3/while/merge/_216"], "attr": {"T": {"type": "DT_INT32"}}}, {"name": "PartitionedCall/model_2/tf.nn.max_pool2d/MaxPool2d", "op": "MaxPool", "input": ["PartitionedCall/model_2/tf.math.add/Add"], "attr": {"strides": {"list": {"i": ["1", "2", "2", "1"]}}, "T": {"type": "DT_FLOAT"}, "ksize": {"list": {"i": ["1", "2", "2", "1"]}}, "data_format": {"s": "TkhXQw=="}, "explicit_paddings": {"list": {}}, "padding": {"s": "VkFMSUQ="}}}, {"name": "PartitionedCall/model_2/rnn_2/while/LoopCond/_305", "op": "LoopCond", "input": ["PartitionedCall/model_2/rnn_2/while/cond/_275/model_2/rnn_2/while/Less"]}, {"name": "PartitionedCall/model_2/rnn/while/LoopCond/_155", "op": "LoopCond", "input": ["PartitionedCall/model_2/rnn/while/cond/_125/model_2/rnn/while/Less"]}, {"name": "PartitionedCall/model_2/rnn_1/while/LoopCond/_80", "op": "LoopCond", "input": ["PartitionedCall/model_2/rnn_1/while/cond/_50/model_2/rnn_1/while/Less"]}, {"name": "PartitionedCall/model_2/rnn_3/while/LoopCond/_230", "op": "LoopCond", "input": ["PartitionedCall/model_2/rnn_3/while/cond/_200/model_2/rnn_3/while/Less"]}, {"name": "PartitionedCall/model_2/tf.nn.relu/Relu", "op": "Relu", "input": ["PartitionedCall/model_2/tf.nn.max_pool2d/MaxPool2d"], "attr": {"T": {"type": "DT_FLOAT"}}}, {"name": "PartitionedCall/model_2/rnn_2/while/Func/PartitionedCall/input/_46_switch/_319", "op": "Switch", "input": ["PartitionedCall/model_2/rnn_2/while/merge/_304", "PartitionedCall/model_2/rnn_2/while/LoopCond/_305"], "attr": {"T": {"type": "DT_FLOAT"}}}, {"name": "PartitionedCall/model_2/rnn_2/while/Func/PartitionedCall/input/_43_switch/_317", "op": "Switch", "input": ["PartitionedCall/model_2/rnn_2/while/merge/_302", "PartitionedCall/model_2/rnn_2/while/LoopCond/_305"], "attr": {"T": {"type": "DT_FLOAT"}}}, {"name": "PartitionedCall/model_2/rnn_2/while/Func/PartitionedCall/input/_45_switch/_311", "op": "Switch", "input": ["PartitionedCall/model_2/rnn_2/while/merge/_296", "PartitionedCall/model_2/rnn_2/while/LoopCond/_305"], "attr": {"T": {"type": "DT_FLOAT"}}}, {"name": "PartitionedCall/model_2/rnn_2/while/Func/PartitionedCall/input/_42_switch/_316", "op": "Switch", "input": ["PartitionedCall/model_2/rnn_2/while/merge/_301", "PartitionedCall/model_2/rnn_2/while/LoopCond/_305"], "attr": {"T": {"type": "DT_FLOAT"}}}, {"name": "PartitionedCall/model_2/rnn_2/while/Func/PartitionedCall/input/_39_switch/_314", "op": "Switch", "input": ["PartitionedCall/model_2/rnn_2/while/merge/_299", "PartitionedCall/model_2/rnn_2/while/LoopCond/_305"], "attr": {"T": {"type": "DT_FLOAT"}}}, {"name": "PartitionedCall/model_2/rnn_2/while/Func/PartitionedCall/input/_40_switch/_310", "op": "Switch", "input": ["PartitionedCall/model_2/rnn_2/while/merge/_295", "PartitionedCall/model_2/rnn_2/while/LoopCond/_305"], "attr": {"T": {"type": "DT_FLOAT"}}}, {"name": "PartitionedCall/model_2/rnn_2/while/Func/PartitionedCall/input/_41_switch/_315", "op": "Switch", "input": ["PartitionedCall/model_2/rnn_2/while/merge/_300", "PartitionedCall/model_2/rnn_2/while/LoopCond/_305"], "attr": {"T": {"type": "DT_FLOAT"}}}, {"name": "PartitionedCall/model_2/rnn_2/while/Func/PartitionedCall/input/_44_switch/_318", "op": "Switch", "input": ["PartitionedCall/model_2/rnn_2/while/merge/_303", "PartitionedCall/model_2/rnn_2/while/LoopCond/_305"], "attr": {"T": {"type": "DT_FLOAT"}}}, {"name": "PartitionedCall/model_2/rnn_2/while/PartitionedCall/model_2/rnn_2/time_switch/_308", "op": "Switch", "input": ["PartitionedCall/model_2/rnn_2/while/merge/_293", "PartitionedCall/model_2/rnn_2/while/LoopCond/_305"], "attr": {"T": {"type": "DT_INT32"}}}, {"name": "PartitionedCall/model_2/rnn_2/while/PartitionedCall/model_2/rnn_2/strided_slice_switch/_312", "op": "Switch", "input": ["PartitionedCall/model_2/rnn_2/while/merge/_297", "PartitionedCall/model_2/rnn_2/while/LoopCond/_305"], "attr": {"T": {"type": "DT_INT32"}}}, {"name": "PartitionedCall/model_2/rnn_2/while/PartitionedCall/model_2/rnn_2/while/loop_counter_switch/_306", "op": "Switch", "input": ["PartitionedCall/model_2/rnn_2/while/merge/_291", "PartitionedCall/model_2/rnn_2/while/LoopCond/_305"], "attr": {"T": {"type": "DT_INT32"}}}, {"name": "PartitionedCall/model_2/rnn_2/while/PartitionedCall/model_2/rnn_2/TensorArrayV2_1_switch/_309", "op": "Switch", "input": ["PartitionedCall/model_2/rnn_2/while/merge/_294", "PartitionedCall/model_2/rnn_2/while/LoopCond/_305"], "attr": {"T": {"type": "DT_VARIANT"}}}, {"name": "PartitionedCall/model_2/rnn/while/Func/PartitionedCall/input/_30_switch/_169", "op": "Switch", "input": ["PartitionedCall/model_2/rnn/while/merge/_154", "PartitionedCall/model_2/rnn/while/LoopCond/_155"], "attr": {"T": {"type": "DT_FLOAT"}}}, {"name": "PartitionedCall/model_2/rnn/while/Func/PartitionedCall/input/_27_switch/_167", "op": "Switch", "input": ["PartitionedCall/model_2/rnn/while/merge/_152", "PartitionedCall/model_2/rnn/while/LoopCond/_155"], "attr": {"T": {"type": "DT_FLOAT"}}}, {"name": "PartitionedCall/model_2/rnn/while/Func/PartitionedCall/input/_29_switch/_161", "op": "Switch", "input": ["PartitionedCall/model_2/rnn/while/merge/_146", "PartitionedCall/model_2/rnn/while/LoopCond/_155"], "attr": {"T": {"type": "DT_FLOAT"}}}, {"name": "PartitionedCall/model_2/rnn/while/Func/PartitionedCall/input/_26_switch/_166", "op": "Switch", "input": ["PartitionedCall/model_2/rnn/while/merge/_151", "PartitionedCall/model_2/rnn/while/LoopCond/_155"], "attr": {"T": {"type": "DT_FLOAT"}}}, {"name": "PartitionedCall/model_2/rnn/while/Func/PartitionedCall/input/_23_switch/_164", "op": "Switch", "input": ["PartitionedCall/model_2/rnn/while/merge/_149", "PartitionedCall/model_2/rnn/while/LoopCond/_155"], "attr": {"T": {"type": "DT_FLOAT"}}}, {"name": "PartitionedCall/model_2/rnn/while/Func/PartitionedCall/input/_24_switch/_160", "op": "Switch", "input": ["PartitionedCall/model_2/rnn/while/merge/_145", "PartitionedCall/model_2/rnn/while/LoopCond/_155"], "attr": {"T": {"type": "DT_FLOAT"}}}, {"name": "PartitionedCall/model_2/rnn/while/Func/PartitionedCall/input/_25_switch/_165", "op": "Switch", "input": ["PartitionedCall/model_2/rnn/while/merge/_150", "PartitionedCall/model_2/rnn/while/LoopCond/_155"], "attr": {"T": {"type": "DT_FLOAT"}}}, {"name": "PartitionedCall/model_2/rnn/while/Func/PartitionedCall/input/_28_switch/_168", "op": "Switch", "input": ["PartitionedCall/model_2/rnn/while/merge/_153", "PartitionedCall/model_2/rnn/while/LoopCond/_155"], "attr": {"T": {"type": "DT_FLOAT"}}}, {"name": "PartitionedCall/model_2/rnn/while/PartitionedCall/model_2/rnn/time_switch/_158", "op": "Switch", "input": ["PartitionedCall/model_2/rnn/while/merge/_143", "PartitionedCall/model_2/rnn/while/LoopCond/_155"], "attr": {"T": {"type": "DT_INT32"}}}, {"name": "PartitionedCall/model_2/rnn/while/PartitionedCall/model_2/rnn/strided_slice_switch/_162", "op": "Switch", "input": ["PartitionedCall/model_2/rnn/while/merge/_147", "PartitionedCall/model_2/rnn/while/LoopCond/_155"], "attr": {"T": {"type": "DT_INT32"}}}, {"name": "PartitionedCall/model_2/rnn/while/PartitionedCall/model_2/rnn/while/loop_counter_switch/_156", "op": "Switch", "input": ["PartitionedCall/model_2/rnn/while/merge/_141", "PartitionedCall/model_2/rnn/while/LoopCond/_155"], "attr": {"T": {"type": "DT_INT32"}}}, {"name": "PartitionedCall/model_2/rnn/while/PartitionedCall/model_2/rnn/TensorArrayV2_1_switch/_159", "op": "Switch", "input": ["PartitionedCall/model_2/rnn/while/merge/_144", "PartitionedCall/model_2/rnn/while/LoopCond/_155"], "attr": {"T": {"type": "DT_VARIANT"}}}, {"name": "PartitionedCall/model_2/rnn_1/while/Func/PartitionedCall/input/_22_switch/_94", "op": "Switch", "input": ["PartitionedCall/model_2/rnn_1/while/merge/_79", "PartitionedCall/model_2/rnn_1/while/LoopCond/_80"], "attr": {"T": {"type": "DT_FLOAT"}}}, {"name": "PartitionedCall/model_2/rnn_1/while/Func/PartitionedCall/input/_19_switch/_92", "op": "Switch", "input": ["PartitionedCall/model_2/rnn_1/while/merge/_77", "PartitionedCall/model_2/rnn_1/while/LoopCond/_80"], "attr": {"T": {"type": "DT_FLOAT"}}}, {"name": "PartitionedCall/model_2/rnn_1/while/Func/PartitionedCall/input/_21_switch/_86", "op": "Switch", "input": ["PartitionedCall/model_2/rnn_1/while/merge/_71", "PartitionedCall/model_2/rnn_1/while/LoopCond/_80"], "attr": {"T": {"type": "DT_FLOAT"}}}, {"name": "PartitionedCall/model_2/rnn_1/while/Func/PartitionedCall/input/_18_switch/_91", "op": "Switch", "input": ["PartitionedCall/model_2/rnn_1/while/merge/_76", "PartitionedCall/model_2/rnn_1/while/LoopCond/_80"], "attr": {"T": {"type": "DT_FLOAT"}}}, {"name": "PartitionedCall/model_2/rnn_1/while/Func/PartitionedCall/input/_15_switch/_89", "op": "Switch", "input": ["PartitionedCall/model_2/rnn_1/while/merge/_74", "PartitionedCall/model_2/rnn_1/while/LoopCond/_80"], "attr": {"T": {"type": "DT_FLOAT"}}}, {"name": "PartitionedCall/model_2/rnn_1/while/Func/PartitionedCall/input/_16_switch/_85", "op": "Switch", "input": ["PartitionedCall/model_2/rnn_1/while/merge/_70", "PartitionedCall/model_2/rnn_1/while/LoopCond/_80"], "attr": {"T": {"type": "DT_FLOAT"}}}, {"name": "PartitionedCall/model_2/rnn_1/while/Func/PartitionedCall/input/_17_switch/_90", "op": "Switch", "input": ["PartitionedCall/model_2/rnn_1/while/merge/_75", "PartitionedCall/model_2/rnn_1/while/LoopCond/_80"], "attr": {"T": {"type": "DT_FLOAT"}}}, {"name": "PartitionedCall/model_2/rnn_1/while/Func/PartitionedCall/input/_20_switch/_93", "op": "Switch", "input": ["PartitionedCall/model_2/rnn_1/while/merge/_78", "PartitionedCall/model_2/rnn_1/while/LoopCond/_80"], "attr": {"T": {"type": "DT_FLOAT"}}}, {"name": "PartitionedCall/model_2/rnn_1/while/PartitionedCall/model_2/rnn_1/time_switch/_83", "op": "Switch", "input": ["PartitionedCall/model_2/rnn_1/while/merge/_68", "PartitionedCall/model_2/rnn_1/while/LoopCond/_80"], "attr": {"T": {"type": "DT_INT32"}}}, {"name": "PartitionedCall/model_2/rnn_1/while/PartitionedCall/model_2/rnn_1/strided_slice_switch/_87", "op": "Switch", "input": ["PartitionedCall/model_2/rnn_1/while/merge/_72", "PartitionedCall/model_2/rnn_1/while/LoopCond/_80"], "attr": {"T": {"type": "DT_INT32"}}}, {"name": "PartitionedCall/model_2/rnn_1/while/PartitionedCall/model_2/rnn_1/while/loop_counter_switch/_81", "op": "Switch", "input": ["PartitionedCall/model_2/rnn_1/while/merge/_66", "PartitionedCall/model_2/rnn_1/while/LoopCond/_80"], "attr": {"T": {"type": "DT_INT32"}}}, {"name": "PartitionedCall/model_2/rnn_1/while/PartitionedCall/model_2/rnn_1/TensorArrayV2_1_switch/_84", "op": "Switch", "input": ["PartitionedCall/model_2/rnn_1/while/merge/_69", "PartitionedCall/model_2/rnn_1/while/LoopCond/_80"], "attr": {"T": {"type": "DT_VARIANT"}}}, {"name": "PartitionedCall/model_2/rnn_3/while/Func/PartitionedCall/input/_38_switch/_244", "op": "Switch", "input": ["PartitionedCall/model_2/rnn_3/while/merge/_229", "PartitionedCall/model_2/rnn_3/while/LoopCond/_230"], "attr": {"T": {"type": "DT_FLOAT"}}}, {"name": "PartitionedCall/model_2/rnn_3/while/Func/PartitionedCall/input/_35_switch/_242", "op": "Switch", "input": ["PartitionedCall/model_2/rnn_3/while/merge/_227", "PartitionedCall/model_2/rnn_3/while/LoopCond/_230"], "attr": {"T": {"type": "DT_FLOAT"}}}, {"name": "PartitionedCall/model_2/rnn_3/while/Func/PartitionedCall/input/_37_switch/_236", "op": "Switch", "input": ["PartitionedCall/model_2/rnn_3/while/merge/_221", "PartitionedCall/model_2/rnn_3/while/LoopCond/_230"], "attr": {"T": {"type": "DT_FLOAT"}}}, {"name": "PartitionedCall/model_2/rnn_3/while/Func/PartitionedCall/input/_34_switch/_241", "op": "Switch", "input": ["PartitionedCall/model_2/rnn_3/while/merge/_226", "PartitionedCall/model_2/rnn_3/while/LoopCond/_230"], "attr": {"T": {"type": "DT_FLOAT"}}}, {"name": "PartitionedCall/model_2/rnn_3/while/Func/PartitionedCall/input/_31_switch/_239", "op": "Switch", "input": ["PartitionedCall/model_2/rnn_3/while/merge/_224", "PartitionedCall/model_2/rnn_3/while/LoopCond/_230"], "attr": {"T": {"type": "DT_FLOAT"}}}, {"name": "PartitionedCall/model_2/rnn_3/while/Func/PartitionedCall/input/_32_switch/_235", "op": "Switch", "input": ["PartitionedCall/model_2/rnn_3/while/merge/_220", "PartitionedCall/model_2/rnn_3/while/LoopCond/_230"], "attr": {"T": {"type": "DT_FLOAT"}}}, {"name": "PartitionedCall/model_2/rnn_3/while/Func/PartitionedCall/input/_33_switch/_240", "op": "Switch", "input": ["PartitionedCall/model_2/rnn_3/while/merge/_225", "PartitionedCall/model_2/rnn_3/while/LoopCond/_230"], "attr": {"T": {"type": "DT_FLOAT"}}}, {"name": "PartitionedCall/model_2/rnn_3/while/Func/PartitionedCall/input/_36_switch/_243", "op": "Switch", "input": ["PartitionedCall/model_2/rnn_3/while/merge/_228", "PartitionedCall/model_2/rnn_3/while/LoopCond/_230"], "attr": {"T": {"type": "DT_FLOAT"}}}, {"name": "PartitionedCall/model_2/rnn_3/while/PartitionedCall/model_2/rnn_3/time_switch/_233", "op": "Switch", "input": ["PartitionedCall/model_2/rnn_3/while/merge/_218", "PartitionedCall/model_2/rnn_3/while/LoopCond/_230"], "attr": {"T": {"type": "DT_INT32"}}}, {"name": "PartitionedCall/model_2/rnn_3/while/PartitionedCall/model_2/rnn_3/strided_slice_switch/_237", "op": "Switch", "input": ["PartitionedCall/model_2/rnn_3/while/merge/_222", "PartitionedCall/model_2/rnn_3/while/LoopCond/_230"], "attr": {"T": {"type": "DT_INT32"}}}, {"name": "PartitionedCall/model_2/rnn_3/while/PartitionedCall/model_2/rnn_3/while/loop_counter_switch/_231", "op": "Switch", "input": ["PartitionedCall/model_2/rnn_3/while/merge/_216", "PartitionedCall/model_2/rnn_3/while/LoopCond/_230"], "attr": {"T": {"type": "DT_INT32"}}}, {"name": "PartitionedCall/model_2/rnn_3/while/PartitionedCall/model_2/rnn_3/TensorArrayV2_1_switch/_234", "op": "Switch", "input": ["PartitionedCall/model_2/rnn_3/while/merge/_219", "PartitionedCall/model_2/rnn_3/while/LoopCond/_230"], "attr": {"T": {"type": "DT_VARIANT"}}}, {"name": "PartitionedCall/model_2/tf.nn.convolution_1/convolution", "op": "Conv2D", "input": ["PartitionedCall/model_2/tf.nn.relu/Relu", "783"], "device": "/device:CPU:0", "attr": {"strides": {"list": {"i": ["1", "1", "1", "1"]}}, "use_cudnn_on_gpu": {"b": true}, "explicit_paddings": {"list": {}}, "padding": {"s": "U0FNRQ=="}, "T": {"type": "DT_FLOAT"}, "dilations": {"list": {"i": ["1", "1", "1", "1"]}}, "data_format": {"s": "TkhXQw=="}}}, {"name": "PartitionedCall/model_2/rnn_2/while/loop_body_control/_320", "op": "Identity", "input": ["PartitionedCall/model_2/rnn_2/while/PartitionedCall/model_2/rnn_2/while/loop_counter_switch/_306:1"], "attr": {"_has_manual_control_dependencies": {"b": true}, "T": {"type": "DT_INT32"}}}, {"name": "PartitionedCall/model_2/rnn_2/while/exit/_324", "op": "Exit", "input": ["PartitionedCall/model_2/rnn_2/while/PartitionedCall/model_2/rnn_2/TensorArrayV2_1_switch/_309"], "attr": {"T": {"type": "DT_VARIANT"}}}, {"name": "PartitionedCall/model_2/rnn/while/loop_body_control/_170", "op": "Identity", "input": ["PartitionedCall/model_2/rnn/while/PartitionedCall/model_2/rnn/while/loop_counter_switch/_156:1"], "attr": {"T": {"type": "DT_INT32"}, "_has_manual_control_dependencies": {"b": true}}}, {"name": "PartitionedCall/model_2/rnn/while/exit/_174", "op": "Exit", "input": ["PartitionedCall/model_2/rnn/while/PartitionedCall/model_2/rnn/TensorArrayV2_1_switch/_159"], "attr": {"T": {"type": "DT_VARIANT"}}}, {"name": "PartitionedCall/model_2/rnn_1/while/loop_body_control/_95", "op": "Identity", "input": ["PartitionedCall/model_2/rnn_1/while/PartitionedCall/model_2/rnn_1/while/loop_counter_switch/_81:1"], "attr": {"_has_manual_control_dependencies": {"b": true}, "T": {"type": "DT_INT32"}}}, {"name": "PartitionedCall/model_2/rnn_1/while/exit/_99", "op": "Exit", "input": ["PartitionedCall/model_2/rnn_1/while/PartitionedCall/model_2/rnn_1/TensorArrayV2_1_switch/_84"], "attr": {"T": {"type": "DT_VARIANT"}}}, {"name": "PartitionedCall/model_2/rnn_3/while/loop_body_control/_245", "op": "Identity", "input": ["PartitionedCall/model_2/rnn_3/while/PartitionedCall/model_2/rnn_3/while/loop_counter_switch/_231:1"], "attr": {"_has_manual_control_dependencies": {"b": true}, "T": {"type": "DT_INT32"}}}, {"name": "PartitionedCall/model_2/rnn_3/while/exit/_249", "op": "Exit", "input": ["PartitionedCall/model_2/rnn_3/while/PartitionedCall/model_2/rnn_3/TensorArrayV2_1_switch/_234"], "attr": {"T": {"type": "DT_VARIANT"}}}, {"name": "PartitionedCall/model_2/tf.math.add_1/Add", "op": "AddV2", "input": ["PartitionedCall/model_2/tf.nn.convolution_1/convolution", "785"], "attr": {"T": {"type": "DT_FLOAT"}}}, {"name": "PartitionedCall/model_2/rnn_2/while/next_iteration/_349", "op": "NextIteration", "input": ["PartitionedCall/model_2/rnn_2/while/Func/PartitionedCall/input/_46_switch/_319:1", "^PartitionedCall/model_2/rnn_2/while/loop_body_control/_320"], "attr": {"T": {"type": "DT_FLOAT"}}}, {"name": "PartitionedCall/model_2/rnn_2/while/next_iteration/_347", "op": "NextIteration", "input": ["PartitionedCall/model_2/rnn_2/while/Func/PartitionedCall/input/_43_switch/_317:1", "^PartitionedCall/model_2/rnn_2/while/loop_body_control/_320"], "attr": {"T": {"type": "DT_FLOAT"}}}, {"name": "PartitionedCall/model_2/rnn_2/while/next_iteration/_346", "op": "NextIteration", "input": ["PartitionedCall/model_2/rnn_2/while/Func/PartitionedCall/input/_42_switch/_316:1", "^PartitionedCall/model_2/rnn_2/while/loop_body_control/_320"], "attr": {"T": {"type": "DT_FLOAT"}}}, {"name": "PartitionedCall/model_2/rnn_2/while/body/_276/model_2/rnn_2/while/custom_lstm_cell_2/split/split_dim", "op": "Const", "input": ["^PartitionedCall/model_2/rnn_2/while/loop_body_control/_320"], "attr": {"dtype": {"type": "DT_INT32"}, "value": {"tensor": {"dtype": "DT_INT32", "tensorShape": {}}}}}, {"name": "PartitionedCall/model_2/rnn_2/while/body/_276/model_2/rnn_2/while/TensorArrayV2Read/TensorListGetItem/element_shape", "op": "Const", "input": ["^PartitionedCall/model_2/rnn_2/while/loop_body_control/_320"], "attr": {"value": {"tensor": {"dtype": "DT_INT32", "tensorShape": {"dim": [{"size": "2"}]}}}, "dtype": {"type": "DT_INT32"}}}, {"name": "PartitionedCall/model_2/rnn_2/while/next_iteration/_344", "op": "NextIteration", "input": ["PartitionedCall/model_2/rnn_2/while/Func/PartitionedCall/input/_39_switch/_314:1", "^PartitionedCall/model_2/rnn_2/while/loop_body_control/_320"], "attr": {"T": {"type": "DT_FLOAT"}}}, {"name": "PartitionedCall/model_2/rnn_2/while/next_iteration/_345", "op": "NextIteration", "input": ["PartitionedCall/model_2/rnn_2/while/Func/PartitionedCall/input/_41_switch/_315:1", "^PartitionedCall/model_2/rnn_2/while/loop_body_control/_320"], "attr": {"T": {"type": "DT_FLOAT"}}}, {"name": "PartitionedCall/model_2/rnn_2/while/body/_276/model_2/rnn_2/while/custom_lstm_cell_2/MatMul_1", "op": "MatMul", "input": ["PartitionedCall/model_2/rnn_2/while/Func/PartitionedCall/input/_40_switch/_310:1", "PartitionedCall/model_2/rnn_2/while/Func/PartitionedCall/input/_41_switch/_315:1", "^PartitionedCall/model_2/rnn_2/while/loop_body_control/_320"], "device": "/device:CPU:0", "attr": {"transpose_b": {"b": false}, "T": {"type": "DT_FLOAT"}, "transpose_a": {"b": false}}}, {"name": "PartitionedCall/model_2/rnn_2/while/next_iteration/_348", "op": "NextIteration", "input": ["PartitionedCall/model_2/rnn_2/while/Func/PartitionedCall/input/_44_switch/_318:1", "^PartitionedCall/model_2/rnn_2/while/loop_body_control/_320"], "attr": {"T": {"type": "DT_FLOAT"}}}, {"name": "Func/PartitionedCall/model_2/rnn_2/while/body/_276/input/_507", "op": "Identity", "input": ["PartitionedCall/model_2/rnn_2/while/PartitionedCall/model_2/rnn_2/time_switch/_308:1", "^PartitionedCall/model_2/rnn_2/while/loop_body_control/_320"], "attr": {"T": {"type": "DT_INT32"}}}, {"name": "PartitionedCall/model_2/rnn_2/while/body/_276/model_2/rnn_2/while/add/y", "op": "Const", "input": ["^PartitionedCall/model_2/rnn_2/while/loop_body_control/_320"], "attr": {"value": {"tensor": {"dtype": "DT_INT32", "tensorShape": {}}}, "dtype": {"type": "DT_INT32"}}}, {"name": "PartitionedCall/model_2/rnn_2/while/next_iteration/_342", "op": "NextIteration", "input": ["PartitionedCall/model_2/rnn_2/while/PartitionedCall/model_2/rnn_2/strided_slice_switch/_312:1", "^PartitionedCall/model_2/rnn_2/while/loop_body_control/_320"], "attr": {"T": {"type": "DT_INT32"}}}, {"name": "PartitionedCall/model_2/rnn_2/while/body/_276/model_2/rnn_2/while/add_1/y", "op": "Const", "input": ["^PartitionedCall/model_2/rnn_2/while/loop_body_control/_320"], "attr": {"dtype": {"type": "DT_INT32"}, "value": {"tensor": {"dtype": "DT_INT32", "tensorShape": {}}}}}, {"name": "PartitionedCall/model_2/rnn_2/TensorArrayV2Stack/TensorListStack", "op": "TensorListStack", "input": ["PartitionedCall/model_2/rnn_2/while/exit/_324", "PartitionedCall/model_2/rnn_2/TensorArrayV2Stack/TensorListStack/element_shape"], "attr": {"num_elements": {"i": "-1"}, "element_dtype": {"type": "DT_FLOAT"}}}, {"name": "PartitionedCall/model_2/rnn/while/next_iteration/_199", "op": "NextIteration", "input": ["PartitionedCall/model_2/rnn/while/Func/PartitionedCall/input/_30_switch/_169:1", "^PartitionedCall/model_2/rnn/while/loop_body_control/_170"], "attr": {"T": {"type": "DT_FLOAT"}}}, {"name": "PartitionedCall/model_2/rnn/while/next_iteration/_197", "op": "NextIteration", "input": ["PartitionedCall/model_2/rnn/while/Func/PartitionedCall/input/_27_switch/_167:1", "^PartitionedCall/model_2/rnn/while/loop_body_control/_170"], "attr": {"T": {"type": "DT_FLOAT"}}}, {"name": "PartitionedCall/model_2/rnn/while/next_iteration/_196", "op": "NextIteration", "input": ["PartitionedCall/model_2/rnn/while/Func/PartitionedCall/input/_26_switch/_166:1", "^PartitionedCall/model_2/rnn/while/loop_body_control/_170"], "attr": {"T": {"type": "DT_FLOAT"}}}, {"name": "PartitionedCall/model_2/rnn/while/body/_126/model_2/rnn/while/custom_lstm_cell/split/split_dim", "op": "Const", "input": ["^PartitionedCall/model_2/rnn/while/loop_body_control/_170"], "attr": {"value": {"tensor": {"dtype": "DT_INT32", "tensorShape": {}}}, "dtype": {"type": "DT_INT32"}}}, {"name": "PartitionedCall/model_2/rnn/while/body/_126/model_2/rnn/while/TensorArrayV2Read/TensorListGetItem/element_shape", "op": "Const", "input": ["^PartitionedCall/model_2/rnn/while/loop_body_control/_170"], "attr": {"dtype": {"type": "DT_INT32"}, "value": {"tensor": {"dtype": "DT_INT32", "tensorShape": {"dim": [{"size": "2"}]}}}}}, {"name": "PartitionedCall/model_2/rnn/while/next_iteration/_194", "op": "NextIteration", "input": ["PartitionedCall/model_2/rnn/while/Func/PartitionedCall/input/_23_switch/_164:1", "^PartitionedCall/model_2/rnn/while/loop_body_control/_170"], "attr": {"T": {"type": "DT_FLOAT"}}}, {"name": "PartitionedCall/model_2/rnn/while/next_iteration/_195", "op": "NextIteration", "input": ["PartitionedCall/model_2/rnn/while/Func/PartitionedCall/input/_25_switch/_165:1", "^PartitionedCall/model_2/rnn/while/loop_body_control/_170"], "attr": {"T": {"type": "DT_FLOAT"}}}, {"name": "PartitionedCall/model_2/rnn/while/body/_126/model_2/rnn/while/custom_lstm_cell/MatMul_1", "op": "MatMul", "input": ["PartitionedCall/model_2/rnn/while/Func/PartitionedCall/input/_24_switch/_160:1", "PartitionedCall/model_2/rnn/while/Func/PartitionedCall/input/_25_switch/_165:1", "^PartitionedCall/model_2/rnn/while/loop_body_control/_170"], "device": "/device:CPU:0", "attr": {"T": {"type": "DT_FLOAT"}, "transpose_b": {"b": false}, "transpose_a": {"b": false}}}, {"name": "PartitionedCall/model_2/rnn/while/next_iteration/_198", "op": "NextIteration", "input": ["PartitionedCall/model_2/rnn/while/Func/PartitionedCall/input/_28_switch/_168:1", "^PartitionedCall/model_2/rnn/while/loop_body_control/_170"], "attr": {"T": {"type": "DT_FLOAT"}}}, {"name": "Func/PartitionedCall/model_2/rnn/while/body/_126/input/_415", "op": "Identity", "input": ["PartitionedCall/model_2/rnn/while/PartitionedCall/model_2/rnn/time_switch/_158:1", "^PartitionedCall/model_2/rnn/while/loop_body_control/_170"], "attr": {"T": {"type": "DT_INT32"}}}, {"name": "PartitionedCall/model_2/rnn/while/body/_126/model_2/rnn/while/add/y", "op": "Const", "input": ["^PartitionedCall/model_2/rnn/while/loop_body_control/_170"], "attr": {"dtype": {"type": "DT_INT32"}, "value": {"tensor": {"dtype": "DT_INT32", "tensorShape": {}}}}}, {"name": "PartitionedCall/model_2/rnn/while/next_iteration/_192", "op": "NextIteration", "input": ["PartitionedCall/model_2/rnn/while/PartitionedCall/model_2/rnn/strided_slice_switch/_162:1", "^PartitionedCall/model_2/rnn/while/loop_body_control/_170"], "attr": {"T": {"type": "DT_INT32"}}}, {"name": "PartitionedCall/model_2/rnn/while/body/_126/model_2/rnn/while/add_1/y", "op": "Const", "input": ["^PartitionedCall/model_2/rnn/while/loop_body_control/_170"], "attr": {"value": {"tensor": {"dtype": "DT_INT32", "tensorShape": {}}}, "dtype": {"type": "DT_INT32"}}}, {"name": "PartitionedCall/model_2/rnn/TensorArrayV2Stack/TensorListStack", "op": "TensorListStack", "input": ["PartitionedCall/model_2/rnn/while/exit/_174", "PartitionedCall/model_2/rnn/TensorArrayV2Stack/TensorListStack/element_shape"], "attr": {"element_dtype": {"type": "DT_FLOAT"}, "num_elements": {"i": "-1"}}}, {"name": "PartitionedCall/model_2/rnn_1/while/next_iteration/_124", "op": "NextIteration", "input": ["PartitionedCall/model_2/rnn_1/while/Func/PartitionedCall/input/_22_switch/_94:1", "^PartitionedCall/model_2/rnn_1/while/loop_body_control/_95"], "attr": {"T": {"type": "DT_FLOAT"}}}, {"name": "PartitionedCall/model_2/rnn_1/while/next_iteration/_122", "op": "NextIteration", "input": ["PartitionedCall/model_2/rnn_1/while/Func/PartitionedCall/input/_19_switch/_92:1", "^PartitionedCall/model_2/rnn_1/while/loop_body_control/_95"], "attr": {"T": {"type": "DT_FLOAT"}}}, {"name": "PartitionedCall/model_2/rnn_1/while/next_iteration/_121", "op": "NextIteration", "input": ["PartitionedCall/model_2/rnn_1/while/Func/PartitionedCall/input/_18_switch/_91:1", "^PartitionedCall/model_2/rnn_1/while/loop_body_control/_95"], "attr": {"T": {"type": "DT_FLOAT"}}}, {"name": "PartitionedCall/model_2/rnn_1/while/body/_51/model_2/rnn_1/while/custom_lstm_cell_1/split/split_dim", "op": "Const", "input": ["^PartitionedCall/model_2/rnn_1/while/loop_body_control/_95"], "attr": {"value": {"tensor": {"dtype": "DT_INT32", "tensorShape": {}}}, "dtype": {"type": "DT_INT32"}}}, {"name": "PartitionedCall/model_2/rnn_1/while/body/_51/model_2/rnn_1/while/TensorArrayV2Read/TensorListGetItem/element_shape", "op": "Const", "input": ["^PartitionedCall/model_2/rnn_1/while/loop_body_control/_95"], "attr": {"value": {"tensor": {"dtype": "DT_INT32", "tensorShape": {"dim": [{"size": "2"}]}}}, "dtype": {"type": "DT_INT32"}}}, {"name": "PartitionedCall/model_2/rnn_1/while/next_iteration/_119", "op": "NextIteration", "input": ["PartitionedCall/model_2/rnn_1/while/Func/PartitionedCall/input/_15_switch/_89:1", "^PartitionedCall/model_2/rnn_1/while/loop_body_control/_95"], "attr": {"T": {"type": "DT_FLOAT"}}}, {"name": "PartitionedCall/model_2/rnn_1/while/next_iteration/_120", "op": "NextIteration", "input": ["PartitionedCall/model_2/rnn_1/while/Func/PartitionedCall/input/_17_switch/_90:1", "^PartitionedCall/model_2/rnn_1/while/loop_body_control/_95"], "attr": {"T": {"type": "DT_FLOAT"}}}, {"name": "PartitionedCall/model_2/rnn_1/while/body/_51/model_2/rnn_1/while/custom_lstm_cell_1/MatMul_1", "op": "MatMul", "input": ["PartitionedCall/model_2/rnn_1/while/Func/PartitionedCall/input/_16_switch/_85:1", "PartitionedCall/model_2/rnn_1/while/Func/PartitionedCall/input/_17_switch/_90:1", "^PartitionedCall/model_2/rnn_1/while/loop_body_control/_95"], "device": "/device:CPU:0", "attr": {"transpose_a": {"b": false}, "transpose_b": {"b": false}, "T": {"type": "DT_FLOAT"}}}, {"name": "PartitionedCall/model_2/rnn_1/while/next_iteration/_123", "op": "NextIteration", "input": ["PartitionedCall/model_2/rnn_1/while/Func/PartitionedCall/input/_20_switch/_93:1", "^PartitionedCall/model_2/rnn_1/while/loop_body_control/_95"], "attr": {"T": {"type": "DT_FLOAT"}}}, {"name": "Func/PartitionedCall/model_2/rnn_1/while/body/_51/input/_369", "op": "Identity", "input": ["PartitionedCall/model_2/rnn_1/while/PartitionedCall/model_2/rnn_1/time_switch/_83:1", "^PartitionedCall/model_2/rnn_1/while/loop_body_control/_95"], "attr": {"T": {"type": "DT_INT32"}}}, {"name": "PartitionedCall/model_2/rnn_1/while/body/_51/model_2/rnn_1/while/add/y", "op": "Const", "input": ["^PartitionedCall/model_2/rnn_1/while/loop_body_control/_95"], "attr": {"dtype": {"type": "DT_INT32"}, "value": {"tensor": {"dtype": "DT_INT32", "tensorShape": {}}}}}, {"name": "PartitionedCall/model_2/rnn_1/while/next_iteration/_117", "op": "NextIteration", "input": ["PartitionedCall/model_2/rnn_1/while/PartitionedCall/model_2/rnn_1/strided_slice_switch/_87:1", "^PartitionedCall/model_2/rnn_1/while/loop_body_control/_95"], "attr": {"T": {"type": "DT_INT32"}}}, {"name": "PartitionedCall/model_2/rnn_1/while/body/_51/model_2/rnn_1/while/add_1/y", "op": "Const", "input": ["^PartitionedCall/model_2/rnn_1/while/loop_body_control/_95"], "attr": {"dtype": {"type": "DT_INT32"}, "value": {"tensor": {"dtype": "DT_INT32", "tensorShape": {}}}}}, {"name": "PartitionedCall/model_2/rnn_1/TensorArrayV2Stack/TensorListStack", "op": "TensorListStack", "input": ["PartitionedCall/model_2/rnn_1/while/exit/_99", "PartitionedCall/model_2/rnn_1/TensorArrayV2Stack/TensorListStack/element_shape"], "attr": {"num_elements": {"i": "-1"}, "element_dtype": {"type": "DT_FLOAT"}}}, {"name": "PartitionedCall/model_2/rnn_3/while/next_iteration/_274", "op": "NextIteration", "input": ["PartitionedCall/model_2/rnn_3/while/Func/PartitionedCall/input/_38_switch/_244:1", "^PartitionedCall/model_2/rnn_3/while/loop_body_control/_245"], "attr": {"T": {"type": "DT_FLOAT"}}}, {"name": "PartitionedCall/model_2/rnn_3/while/next_iteration/_272", "op": "NextIteration", "input": ["PartitionedCall/model_2/rnn_3/while/Func/PartitionedCall/input/_35_switch/_242:1", "^PartitionedCall/model_2/rnn_3/while/loop_body_control/_245"], "attr": {"T": {"type": "DT_FLOAT"}}}, {"name": "PartitionedCall/model_2/rnn_3/while/next_iteration/_271", "op": "NextIteration", "input": ["PartitionedCall/model_2/rnn_3/while/Func/PartitionedCall/input/_34_switch/_241:1", "^PartitionedCall/model_2/rnn_3/while/loop_body_control/_245"], "attr": {"T": {"type": "DT_FLOAT"}}}, {"name": "PartitionedCall/model_2/rnn_3/while/body/_201/model_2/rnn_3/while/custom_lstm_cell_3/split/split_dim", "op": "Const", "input": ["^PartitionedCall/model_2/rnn_3/while/loop_body_control/_245"], "attr": {"dtype": {"type": "DT_INT32"}, "value": {"tensor": {"dtype": "DT_INT32", "tensorShape": {}}}}}, {"name": "PartitionedCall/model_2/rnn_3/while/body/_201/model_2/rnn_3/while/TensorArrayV2Read/TensorListGetItem/element_shape", "op": "Const", "input": ["^PartitionedCall/model_2/rnn_3/while/loop_body_control/_245"], "attr": {"value": {"tensor": {"dtype": "DT_INT32", "tensorShape": {"dim": [{"size": "2"}]}}}, "dtype": {"type": "DT_INT32"}}}, {"name": "PartitionedCall/model_2/rnn_3/while/next_iteration/_269", "op": "NextIteration", "input": ["PartitionedCall/model_2/rnn_3/while/Func/PartitionedCall/input/_31_switch/_239:1", "^PartitionedCall/model_2/rnn_3/while/loop_body_control/_245"], "attr": {"T": {"type": "DT_FLOAT"}}}, {"name": "PartitionedCall/model_2/rnn_3/while/next_iteration/_270", "op": "NextIteration", "input": ["PartitionedCall/model_2/rnn_3/while/Func/PartitionedCall/input/_33_switch/_240:1", "^PartitionedCall/model_2/rnn_3/while/loop_body_control/_245"], "attr": {"T": {"type": "DT_FLOAT"}}}, {"name": "PartitionedCall/model_2/rnn_3/while/body/_201/model_2/rnn_3/while/custom_lstm_cell_3/MatMul_1", "op": "MatMul", "input": ["PartitionedCall/model_2/rnn_3/while/Func/PartitionedCall/input/_32_switch/_235:1", "PartitionedCall/model_2/rnn_3/while/Func/PartitionedCall/input/_33_switch/_240:1", "^PartitionedCall/model_2/rnn_3/while/loop_body_control/_245"], "device": "/device:CPU:0", "attr": {"transpose_a": {"b": false}, "T": {"type": "DT_FLOAT"}, "transpose_b": {"b": false}}}, {"name": "PartitionedCall/model_2/rnn_3/while/next_iteration/_273", "op": "NextIteration", "input": ["PartitionedCall/model_2/rnn_3/while/Func/PartitionedCall/input/_36_switch/_243:1", "^PartitionedCall/model_2/rnn_3/while/loop_body_control/_245"], "attr": {"T": {"type": "DT_FLOAT"}}}, {"name": "Func/PartitionedCall/model_2/rnn_3/while/body/_201/input/_461", "op": "Identity", "input": ["PartitionedCall/model_2/rnn_3/while/PartitionedCall/model_2/rnn_3/time_switch/_233:1", "^PartitionedCall/model_2/rnn_3/while/loop_body_control/_245"], "attr": {"T": {"type": "DT_INT32"}}}, {"name": "PartitionedCall/model_2/rnn_3/while/body/_201/model_2/rnn_3/while/add/y", "op": "Const", "input": ["^PartitionedCall/model_2/rnn_3/while/loop_body_control/_245"], "attr": {"value": {"tensor": {"dtype": "DT_INT32", "tensorShape": {}}}, "dtype": {"type": "DT_INT32"}}}, {"name": "PartitionedCall/model_2/rnn_3/while/next_iteration/_267", "op": "NextIteration", "input": ["PartitionedCall/model_2/rnn_3/while/PartitionedCall/model_2/rnn_3/strided_slice_switch/_237:1", "^PartitionedCall/model_2/rnn_3/while/loop_body_control/_245"], "attr": {"T": {"type": "DT_INT32"}}}, {"name": "PartitionedCall/model_2/rnn_3/while/body/_201/model_2/rnn_3/while/add_1/y", "op": "Const", "input": ["^PartitionedCall/model_2/rnn_3/while/loop_body_control/_245"], "attr": {"value": {"tensor": {"dtype": "DT_INT32", "tensorShape": {}}}, "dtype": {"type": "DT_INT32"}}}, {"name": "PartitionedCall/model_2/rnn_3/TensorArrayV2Stack/TensorListStack", "op": "TensorListStack", "input": ["PartitionedCall/model_2/rnn_3/while/exit/_249", "PartitionedCall/model_2/rnn_3/TensorArrayV2Stack/TensorListStack/element_shape"], "attr": {"num_elements": {"i": "-1"}, "element_dtype": {"type": "DT_FLOAT"}}}, {"name": "PartitionedCall/model_2/tf.nn.max_pool2d_1/MaxPool2d", "op": "MaxPool", "input": ["PartitionedCall/model_2/tf.math.add_1/Add"], "attr": {"data_format": {"s": "TkhXQw=="}, "T": {"type": "DT_FLOAT"}, "strides": {"list": {"i": ["1", "2", "2", "1"]}}, "padding": {"s": "VkFMSUQ="}, "ksize": {"list": {"i": ["1", "2", "2", "1"]}}, "explicit_paddings": {"list": {}}}}, {"name": "PartitionedCall/model_2/rnn_2/while/body/_276/model_2/rnn_2/while/add", "op": "AddV2", "input": ["Func/PartitionedCall/model_2/rnn_2/while/body/_276/input/_507", "PartitionedCall/model_2/rnn_2/while/body/_276/model_2/rnn_2/while/add/y"], "attr": {"T": {"type": "DT_INT32"}}}, {"name": "PartitionedCall/model_2/rnn_2/while/body/_276/model_2/rnn_2/while/add_1", "op": "AddV2", "input": ["PartitionedCall/model_2/rnn_2/while/PartitionedCall/model_2/rnn_2/while/loop_counter_switch/_306:1", "PartitionedCall/model_2/rnn_2/while/body/_276/model_2/rnn_2/while/add_1/y"], "attr": {"T": {"type": "DT_INT32"}}}, {"name": "PartitionedCall/model_2/rnn_2/transpose_1", "op": "Transpose", "input": ["PartitionedCall/model_2/rnn_2/TensorArrayV2Stack/TensorListStack", "PartitionedCall/model_2/rnn_2/transpose_1/perm"], "attr": {"Tperm": {"type": "DT_INT32"}, "T": {"type": "DT_FLOAT"}}}, {"name": "PartitionedCall/model_2/rnn/while/body/_126/model_2/rnn/while/add", "op": "AddV2", "input": ["Func/PartitionedCall/model_2/rnn/while/body/_126/input/_415", "PartitionedCall/model_2/rnn/while/body/_126/model_2/rnn/while/add/y"], "attr": {"T": {"type": "DT_INT32"}}}, {"name": "PartitionedCall/model_2/rnn/while/body/_126/model_2/rnn/while/add_1", "op": "AddV2", "input": ["PartitionedCall/model_2/rnn/while/PartitionedCall/model_2/rnn/while/loop_counter_switch/_156:1", "PartitionedCall/model_2/rnn/while/body/_126/model_2/rnn/while/add_1/y"], "attr": {"T": {"type": "DT_INT32"}}}, {"name": "PartitionedCall/model_2/rnn/transpose_1", "op": "Transpose", "input": ["PartitionedCall/model_2/rnn/TensorArrayV2Stack/TensorListStack", "PartitionedCall/model_2/rnn/transpose_1/perm"], "attr": {"Tperm": {"type": "DT_INT32"}, "T": {"type": "DT_FLOAT"}}}, {"name": "PartitionedCall/model_2/rnn_1/while/body/_51/model_2/rnn_1/while/add", "op": "AddV2", "input": ["Func/PartitionedCall/model_2/rnn_1/while/body/_51/input/_369", "PartitionedCall/model_2/rnn_1/while/body/_51/model_2/rnn_1/while/add/y"], "attr": {"T": {"type": "DT_INT32"}}}, {"name": "PartitionedCall/model_2/rnn_1/while/body/_51/model_2/rnn_1/while/add_1", "op": "AddV2", "input": ["PartitionedCall/model_2/rnn_1/while/PartitionedCall/model_2/rnn_1/while/loop_counter_switch/_81:1", "PartitionedCall/model_2/rnn_1/while/body/_51/model_2/rnn_1/while/add_1/y"], "attr": {"T": {"type": "DT_INT32"}}}, {"name": "PartitionedCall/model_2/rnn_1/transpose_1", "op": "Transpose", "input": ["PartitionedCall/model_2/rnn_1/TensorArrayV2Stack/TensorListStack", "PartitionedCall/model_2/rnn_1/transpose_1/perm"], "attr": {"Tperm": {"type": "DT_INT32"}, "T": {"type": "DT_FLOAT"}}}, {"name": "PartitionedCall/model_2/rnn_3/while/body/_201/model_2/rnn_3/while/add", "op": "AddV2", "input": ["Func/PartitionedCall/model_2/rnn_3/while/body/_201/input/_461", "PartitionedCall/model_2/rnn_3/while/body/_201/model_2/rnn_3/while/add/y"], "attr": {"T": {"type": "DT_INT32"}}}, {"name": "PartitionedCall/model_2/rnn_3/while/body/_201/model_2/rnn_3/while/add_1", "op": "AddV2", "input": ["PartitionedCall/model_2/rnn_3/while/PartitionedCall/model_2/rnn_3/while/loop_counter_switch/_231:1", "PartitionedCall/model_2/rnn_3/while/body/_201/model_2/rnn_3/while/add_1/y"], "attr": {"T": {"type": "DT_INT32"}}}, {"name": "PartitionedCall/model_2/rnn_3/transpose_1", "op": "Transpose", "input": ["PartitionedCall/model_2/rnn_3/TensorArrayV2Stack/TensorListStack", "PartitionedCall/model_2/rnn_3/transpose_1/perm"], "attr": {"Tperm": {"type": "DT_INT32"}, "T": {"type": "DT_FLOAT"}}}, {"name": "PartitionedCall/model_2/tf.nn.relu_1/Relu", "op": "Relu", "input": ["PartitionedCall/model_2/tf.nn.max_pool2d_1/MaxPool2d"], "attr": {"T": {"type": "DT_FLOAT"}}}, {"name": "PartitionedCall/model_2/rnn_2/while/next_iteration/_338", "op": "NextIteration", "input": ["PartitionedCall/model_2/rnn_2/while/body/_276/model_2/rnn_2/while/add", "^PartitionedCall/model_2/rnn_2/while/loop_body_control/_320"], "attr": {"T": {"type": "DT_INT32"}}}, {"name": "PartitionedCall/model_2/rnn_2/while/next_iteration/_336", "op": "NextIteration", "input": ["PartitionedCall/model_2/rnn_2/while/body/_276/model_2/rnn_2/while/add_1", "^PartitionedCall/model_2/rnn_2/while/loop_body_control/_320"], "attr": {"T": {"type": "DT_INT32"}}}, {"name": "PartitionedCall/model_2/tf.expand_dims_6/ExpandDims", "op": "ExpandDims", "input": ["PartitionedCall/model_2/rnn_2/transpose_1", "PartitionedCall/model_2/tf.expand_dims_6/ExpandDims/dim"], "attr": {"T": {"type": "DT_FLOAT"}, "Tdim": {"type": "DT_INT32"}}}, {"name": "PartitionedCall/model_2/rnn/while/next_iteration/_188", "op": "NextIteration", "input": ["PartitionedCall/model_2/rnn/while/body/_126/model_2/rnn/while/add", "^PartitionedCall/model_2/rnn/while/loop_body_control/_170"], "attr": {"T": {"type": "DT_INT32"}}}, {"name": "PartitionedCall/model_2/rnn/while/next_iteration/_186", "op": "NextIteration", "input": ["PartitionedCall/model_2/rnn/while/body/_126/model_2/rnn/while/add_1", "^PartitionedCall/model_2/rnn/while/loop_body_control/_170"], "attr": {"T": {"type": "DT_INT32"}}}, {"name": "PartitionedCall/model_2/tf.expand_dims/ExpandDims", "op": "ExpandDims", "input": ["PartitionedCall/model_2/rnn/transpose_1", "PartitionedCall/model_2/tf.expand_dims/ExpandDims/dim"], "attr": {"Tdim": {"type": "DT_INT32"}, "T": {"type": "DT_FLOAT"}}}, {"name": "PartitionedCall/model_2/rnn_1/while/next_iteration/_113", "op": "NextIteration", "input": ["PartitionedCall/model_2/rnn_1/while/body/_51/model_2/rnn_1/while/add", "^PartitionedCall/model_2/rnn_1/while/loop_body_control/_95"], "attr": {"T": {"type": "DT_INT32"}}}, {"name": "PartitionedCall/model_2/rnn_1/while/next_iteration/_111", "op": "NextIteration", "input": ["PartitionedCall/model_2/rnn_1/while/body/_51/model_2/rnn_1/while/add_1", "^PartitionedCall/model_2/rnn_1/while/loop_body_control/_95"], "attr": {"T": {"type": "DT_INT32"}}}, {"name": "PartitionedCall/model_2/tf.expand_dims_1/ExpandDims", "op": "ExpandDims", "input": ["PartitionedCall/model_2/rnn_1/transpose_1", "PartitionedCall/model_2/tf.expand_dims_1/ExpandDims/dim"], "attr": {"Tdim": {"type": "DT_INT32"}, "T": {"type": "DT_FLOAT"}}}, {"name": "PartitionedCall/model_2/rnn_3/while/next_iteration/_263", "op": "NextIteration", "input": ["PartitionedCall/model_2/rnn_3/while/body/_201/model_2/rnn_3/while/add", "^PartitionedCall/model_2/rnn_3/while/loop_body_control/_245"], "attr": {"T": {"type": "DT_INT32"}}}, {"name": "PartitionedCall/model_2/rnn_3/while/next_iteration/_261", "op": "NextIteration", "input": ["PartitionedCall/model_2/rnn_3/while/body/_201/model_2/rnn_3/while/add_1", "^PartitionedCall/model_2/rnn_3/while/loop_body_control/_245"], "attr": {"T": {"type": "DT_INT32"}}}, {"name": "PartitionedCall/model_2/tf.expand_dims_7/ExpandDims", "op": "ExpandDims", "input": ["PartitionedCall/model_2/rnn_3/transpose_1", "PartitionedCall/model_2/tf.expand_dims_7/ExpandDims/dim"], "attr": {"T": {"type": "DT_FLOAT"}, "Tdim": {"type": "DT_INT32"}}}, {"name": "PartitionedCall/model_2/tf.nn.convolution_2/convolution", "op": "Conv2D", "input": ["PartitionedCall/model_2/tf.nn.relu_1/Relu", "787"], "device": "/device:CPU:0", "attr": {"use_cudnn_on_gpu": {"b": true}, "strides": {"list": {"i": ["1", "1", "1", "1"]}}, "data_format": {"s": "TkhXQw=="}, "explicit_paddings": {"list": {}}, "padding": {"s": "U0FNRQ=="}, "T": {"type": "DT_FLOAT"}, "dilations": {"list": {"i": ["1", "1", "1", "1"]}}}}, {"name": "PartitionedCall/model_2/tf.concat/concat", "op": "ConcatV2", "input": ["PartitionedCall/model_2/tf.expand_dims/ExpandDims", "PartitionedCall/model_2/tf.expand_dims_1/ExpandDims", "PartitionedCall/model_2/tf.concat/concat/axis"], "attr": {"N": {"i": "2"}, "Tidx": {"type": "DT_INT32"}, "T": {"type": "DT_FLOAT"}}}, {"name": "PartitionedCall/model_2/tf.concat_3/concat", "op": "ConcatV2", "input": ["PartitionedCall/model_2/tf.expand_dims_6/ExpandDims", "PartitionedCall/model_2/tf.expand_dims_7/ExpandDims", "PartitionedCall/model_2/tf.concat_3/concat/axis"], "attr": {"N": {"i": "2"}, "T": {"type": "DT_FLOAT"}, "Tidx": {"type": "DT_INT32"}}}, {"name": "PartitionedCall/model_2/tf.math.add_2/Add", "op": "AddV2", "input": ["PartitionedCall/model_2/tf.nn.convolution_2/convolution", "789"], "attr": {"T": {"type": "DT_FLOAT"}}}, {"name": "PartitionedCall/model_2/tf.compat.v1.transpose_3/transpose", "op": "Transpose", "input": ["PartitionedCall/model_2/tf.concat/concat", "PartitionedCall/model_2/tf.compat.v1.transpose_3/transpose/perm"], "attr": {"T": {"type": "DT_FLOAT"}, "Tperm": {"type": "DT_INT32"}}}, {"name": "PartitionedCall/model_2/tf.compat.v1.transpose_6/transpose", "op": "Transpose", "input": ["PartitionedCall/model_2/tf.concat_3/concat", "PartitionedCall/model_2/tf.compat.v1.transpose_6/transpose/perm"], "attr": {"T": {"type": "DT_FLOAT"}, "Tperm": {"type": "DT_INT32"}}}, {"name": "PartitionedCall/model_2/tf.nn.relu_2/Relu", "op": "Relu", "input": ["PartitionedCall/model_2/tf.math.add_2/Add"], "attr": {"T": {"type": "DT_FLOAT"}}}, {"name": "PartitionedCall/model_2/tf.compat.v1.transpose_4/transpose", "op": "Transpose", "input": ["PartitionedCall/model_2/tf.compat.v1.transpose_3/transpose", "PartitionedCall/model_2/tf.compat.v1.transpose_4/transpose/perm"], "attr": {"Tperm": {"type": "DT_INT32"}, "T": {"type": "DT_FLOAT"}}}, {"name": "PartitionedCall/model_2/tf.compat.v1.transpose_7/transpose", "op": "Transpose", "input": ["PartitionedCall/model_2/tf.compat.v1.transpose_6/transpose", "PartitionedCall/model_2/tf.compat.v1.transpose_7/transpose/perm"], "attr": {"T": {"type": "DT_FLOAT"}, "Tperm": {"type": "DT_INT32"}}}, {"name": "PartitionedCall/model_2/tf.nn.convolution_3/convolution", "op": "Conv2D", "input": ["PartitionedCall/model_2/tf.nn.relu_2/Relu", "791"], "device": "/device:CPU:0", "attr": {"strides": {"list": {"i": ["1", "1", "1", "1"]}}, "dilations": {"list": {"i": ["1", "1", "1", "1"]}}, "padding": {"s": "U0FNRQ=="}, "use_cudnn_on_gpu": {"b": true}, "T": {"type": "DT_FLOAT"}, "data_format": {"s": "TkhXQw=="}, "explicit_paddings": {"list": {}}}}, {"name": "PartitionedCall/model_2/tf.reshape_1/Reshape", "op": "Reshape", "input": ["PartitionedCall/model_2/tf.compat.v1.transpose_4/transpose", "PartitionedCall/model_2/tf.reshape_1/Reshape/shape"], "attr": {"Tshape": {"type": "DT_INT32"}, "T": {"type": "DT_FLOAT"}}}, {"name": "PartitionedCall/model_2/tf.reshape_2/Reshape", "op": "Reshape", "input": ["PartitionedCall/model_2/tf.compat.v1.transpose_7/transpose", "PartitionedCall/model_2/tf.reshape_2/Reshape/shape"], "attr": {"T": {"type": "DT_FLOAT"}, "Tshape": {"type": "DT_INT32"}}}, {"name": "PartitionedCall/model_2/tf.math.add_3/Add", "op": "AddV2", "input": ["PartitionedCall/model_2/tf.nn.convolution_3/convolution", "793"], "attr": {"T": {"type": "DT_FLOAT"}}}, {"name": "PartitionedCall/model_2/rnn_2/TensorArrayUnstack/TensorListFromTensor", "op": "TensorListFromTensor", "input": ["PartitionedCall/model_2/tf.reshape_1/Reshape", "PartitionedCall/model_2/rnn_2/TensorArrayUnstack/TensorListFromTensor/element_shape"], "attr": {"element_dtype": {"type": "DT_FLOAT"}, "shape_type": {"type": "DT_INT32"}}, "experimentalType": {"typeId": "TFT_PRODUCT", "args": [{"typeId": "TFT_ARRAY", "args": [{"typeId": "TFT_TENSOR", "args": [{"typeId": "TFT_FLOAT"}]}]}]}}, {"name": "PartitionedCall/model_2/rnn_3/TensorArrayUnstack/TensorListFromTensor", "op": "TensorListFromTensor", "input": ["PartitionedCall/model_2/tf.reshape_1/Reshape", "PartitionedCall/model_2/rnn_3/TensorArrayUnstack/TensorListFromTensor/element_shape"], "attr": {"element_dtype": {"type": "DT_FLOAT"}, "shape_type": {"type": "DT_INT32"}}, "experimentalType": {"typeId": "TFT_PRODUCT", "args": [{"typeId": "TFT_ARRAY", "args": [{"typeId": "TFT_TENSOR", "args": [{"typeId": "TFT_FLOAT"}]}]}]}}, {"name": "PartitionedCall/model_2/tf.linalg.matmul_1/MatMul", "op": "BatchMatMulV2", "input": ["PartitionedCall/model_2/tf.reshape_2/Reshape", "871"], "attr": {"adj_x": {"b": false}, "adj_y": {"b": false}, "T": {"type": "DT_FLOAT"}}}, {"name": "PartitionedCall/model_2/tf.nn.max_pool2d_2/MaxPool2d", "op": "MaxPool", "input": ["PartitionedCall/model_2/tf.math.add_3/Add"], "attr": {"T": {"type": "DT_FLOAT"}, "ksize": {"list": {"i": ["1", "2", "1", "1"]}}, "explicit_paddings": {"list": {}}, "data_format": {"s": "TkhXQw=="}, "strides": {"list": {"i": ["1", "2", "1", "1"]}}, "padding": {"s": "VkFMSUQ="}}}, {"name": "PartitionedCall/model_2/rnn_2/while/enter/_284", "op": "Enter", "input": ["PartitionedCall/model_2/rnn_2/TensorArrayUnstack/TensorListFromTensor"], "attr": {"parallel_iterations": {"i": "32"}, "frame_name": {"s": "UGFydGl0aW9uZWRDYWxsL21vZGVsXzIvcm5uXzIvd2hpbGU="}, "is_constant": {"b": false}, "T": {"type": "DT_VARIANT"}}}, {"name": "PartitionedCall/model_2/rnn_3/while/enter/_209", "op": "Enter", "input": ["PartitionedCall/model_2/rnn_3/TensorArrayUnstack/TensorListFromTensor"], "attr": {"parallel_iterations": {"i": "32"}, "is_constant": {"b": false}, "T": {"type": "DT_VARIANT"}, "frame_name": {"s": "UGFydGl0aW9uZWRDYWxsL21vZGVsXzIvcm5uXzMvd2hpbGU="}}}, {"name": "PartitionedCall/model_2/tf.math.add_7/Add", "op": "AddV2", "input": ["PartitionedCall/model_2/tf.linalg.matmul_1/MatMul", "873"], "attr": {"T": {"type": "DT_FLOAT"}}}, {"name": "PartitionedCall/model_2/tf.nn.relu_3/Relu", "op": "Relu", "input": ["PartitionedCall/model_2/tf.nn.max_pool2d_2/MaxPool2d"], "attr": {"T": {"type": "DT_FLOAT"}}}, {"name": "PartitionedCall/model_2/rnn_2/while/merge/_298", "op": "Merge", "input": ["PartitionedCall/model_2/rnn_2/while/enter/_284", "PartitionedCall/model_2/rnn_2/while/next_iteration/_343"], "attr": {"N": {"i": "2"}, "T": {"type": "DT_VARIANT"}}}, {"name": "PartitionedCall/model_2/rnn_3/while/merge/_223", "op": "Merge", "input": ["PartitionedCall/model_2/rnn_3/while/enter/_209", "PartitionedCall/model_2/rnn_3/while/next_iteration/_268"], "attr": {"T": {"type": "DT_VARIANT"}, "N": {"i": "2"}}}, {"name": "PartitionedCall/model_2/output/transpose", "op": "Transpose", "input": ["PartitionedCall/model_2/tf.math.add_7/Add", "PartitionedCall/model_2/output/transpose/perm"], "attr": {"T": {"type": "DT_FLOAT"}, "Tperm": {"type": "DT_INT32"}}}, {"name": "PartitionedCall/model_2/tf.nn.convolution_4/convolution", "op": "Conv2D", "input": ["PartitionedCall/model_2/tf.nn.relu_3/Relu", "795"], "device": "/device:CPU:0", "attr": {"strides": {"list": {"i": ["1", "1", "1", "1"]}}, "T": {"type": "DT_FLOAT"}, "explicit_paddings": {"list": {}}, "dilations": {"list": {"i": ["1", "1", "1", "1"]}}, "data_format": {"s": "TkhXQw=="}, "padding": {"s": "U0FNRQ=="}, "use_cudnn_on_gpu": {"b": true}}}, {"name": "PartitionedCall/model_2/rnn_2/while/PartitionedCall/model_2/rnn_2/TensorArrayUnstack/TensorListFromTensor_switch/_313", "op": "Switch", "input": ["PartitionedCall/model_2/rnn_2/while/merge/_298", "PartitionedCall/model_2/rnn_2/while/LoopCond/_305"], "attr": {"T": {"type": "DT_VARIANT"}}}, {"name": "PartitionedCall/model_2/rnn_3/while/PartitionedCall/model_2/rnn_3/TensorArrayUnstack/TensorListFromTensor_switch/_238", "op": "Switch", "input": ["PartitionedCall/model_2/rnn_3/while/merge/_223", "PartitionedCall/model_2/rnn_3/while/LoopCond/_230"], "attr": {"T": {"type": "DT_VARIANT"}}}, {"name": "Func/PartitionedCall/output/_49", "op": "Identity", "input": ["PartitionedCall/model_2/output/transpose"], "attr": {"T": {"type": "DT_FLOAT"}}}, {"name": "PartitionedCall/model_2/tf.math.add_4/Add", "op": "AddV2", "input": ["PartitionedCall/model_2/tf.nn.convolution_4/convolution", "797"], "attr": {"T": {"type": "DT_FLOAT"}}}, {"name": "PartitionedCall/model_2/rnn_2/while/next_iteration/_343", "op": "NextIteration", "input": ["PartitionedCall/model_2/rnn_2/while/PartitionedCall/model_2/rnn_2/TensorArrayUnstack/TensorListFromTensor_switch/_313:1", "^PartitionedCall/model_2/rnn_2/while/loop_body_control/_320"], "attr": {"T": {"type": "DT_VARIANT"}}}, {"name": "PartitionedCall/model_2/rnn_2/while/body/_276/model_2/rnn_2/while/TensorArrayV2Read/TensorListGetItem", "op": "TensorListGetItem", "input": ["PartitionedCall/model_2/rnn_2/while/PartitionedCall/model_2/rnn_2/TensorArrayUnstack/TensorListFromTensor_switch/_313:1", "Func/PartitionedCall/model_2/rnn_2/while/body/_276/input/_507", "PartitionedCall/model_2/rnn_2/while/body/_276/model_2/rnn_2/while/TensorArrayV2Read/TensorListGetItem/element_shape"], "attr": {"element_dtype": {"type": "DT_FLOAT"}}}, {"name": "PartitionedCall/model_2/rnn_3/while/next_iteration/_268", "op": "NextIteration", "input": ["PartitionedCall/model_2/rnn_3/while/PartitionedCall/model_2/rnn_3/TensorArrayUnstack/TensorListFromTensor_switch/_238:1", "^PartitionedCall/model_2/rnn_3/while/loop_body_control/_245"], "attr": {"T": {"type": "DT_VARIANT"}}}, {"name": "PartitionedCall/model_2/rnn_3/while/body/_201/model_2/rnn_3/while/TensorArrayV2Read/TensorListGetItem", "op": "TensorListGetItem", "input": ["PartitionedCall/model_2/rnn_3/while/PartitionedCall/model_2/rnn_3/TensorArrayUnstack/TensorListFromTensor_switch/_238:1", "Func/PartitionedCall/model_2/rnn_3/while/body/_201/input/_461", "PartitionedCall/model_2/rnn_3/while/body/_201/model_2/rnn_3/while/TensorArrayV2Read/TensorListGetItem/element_shape"], "attr": {"element_dtype": {"type": "DT_FLOAT"}}}, {"name": "PartitionedCall/model_2/tf.nn.relu_4/Relu", "op": "Relu", "input": ["PartitionedCall/model_2/tf.math.add_4/Add"], "attr": {"T": {"type": "DT_FLOAT"}}}, {"name": "PartitionedCall/model_2/rnn_2/while/body/_276/model_2/rnn_2/while/custom_lstm_cell_2/MatMul", "op": "MatMul", "input": ["PartitionedCall/model_2/rnn_2/while/body/_276/model_2/rnn_2/while/TensorArrayV2Read/TensorListGetItem", "PartitionedCall/model_2/rnn_2/while/Func/PartitionedCall/input/_39_switch/_314:1"], "device": "/device:CPU:0", "attr": {"transpose_b": {"b": false}, "transpose_a": {"b": false}, "T": {"type": "DT_FLOAT"}}}, {"name": "PartitionedCall/model_2/rnn_3/while/body/_201/model_2/rnn_3/while/custom_lstm_cell_3/MatMul", "op": "MatMul", "input": ["PartitionedCall/model_2/rnn_3/while/body/_201/model_2/rnn_3/while/TensorArrayV2Read/TensorListGetItem", "PartitionedCall/model_2/rnn_3/while/Func/PartitionedCall/input/_31_switch/_239:1"], "device": "/device:CPU:0", "attr": {"transpose_a": {"b": false}, "T": {"type": "DT_FLOAT"}, "transpose_b": {"b": false}}}, {"name": "PartitionedCall/model_2/tf.nn.convolution_5/convolution", "op": "Conv2D", "input": ["PartitionedCall/model_2/tf.nn.relu_4/Relu", "799"], "device": "/device:CPU:0", "attr": {"use_cudnn_on_gpu": {"b": true}, "strides": {"list": {"i": ["1", "1", "1", "1"]}}, "T": {"type": "DT_FLOAT"}, "data_format": {"s": "TkhXQw=="}, "padding": {"s": "U0FNRQ=="}, "dilations": {"list": {"i": ["1", "1", "1", "1"]}}, "explicit_paddings": {"list": {}}}}, {"name": "PartitionedCall/model_2/rnn_2/while/body/_276/model_2/rnn_2/while/custom_lstm_cell_2/add", "op": "AddV2", "input": ["PartitionedCall/model_2/rnn_2/while/body/_276/model_2/rnn_2/while/custom_lstm_cell_2/MatMul", "PartitionedCall/model_2/rnn_2/while/body/_276/model_2/rnn_2/while/custom_lstm_cell_2/MatMul_1"], "attr": {"T": {"type": "DT_FLOAT"}}}, {"name": "PartitionedCall/model_2/rnn_3/while/body/_201/model_2/rnn_3/while/custom_lstm_cell_3/add", "op": "AddV2", "input": ["PartitionedCall/model_2/rnn_3/while/body/_201/model_2/rnn_3/while/custom_lstm_cell_3/MatMul", "PartitionedCall/model_2/rnn_3/while/body/_201/model_2/rnn_3/while/custom_lstm_cell_3/MatMul_1"], "attr": {"T": {"type": "DT_FLOAT"}}}, {"name": "PartitionedCall/model_2/tf.math.add_5/Add", "op": "AddV2", "input": ["PartitionedCall/model_2/tf.nn.convolution_5/convolution", "801"], "attr": {"T": {"type": "DT_FLOAT"}}}, {"name": "PartitionedCall/model_2/rnn_2/while/body/_276/model_2/rnn_2/while/custom_lstm_cell_2/split", "op": "Split", "input": ["PartitionedCall/model_2/rnn_2/while/body/_276/model_2/rnn_2/while/custom_lstm_cell_2/split/split_dim", "PartitionedCall/model_2/rnn_2/while/body/_276/model_2/rnn_2/while/custom_lstm_cell_2/add"], "attr": {"num_split": {"i": "4"}, "T": {"type": "DT_FLOAT"}}}, {"name": "PartitionedCall/model_2/rnn_3/while/body/_201/model_2/rnn_3/while/custom_lstm_cell_3/split", "op": "Split", "input": ["PartitionedCall/model_2/rnn_3/while/body/_201/model_2/rnn_3/while/custom_lstm_cell_3/split/split_dim", "PartitionedCall/model_2/rnn_3/while/body/_201/model_2/rnn_3/while/custom_lstm_cell_3/add"], "attr": {"num_split": {"i": "4"}, "T": {"type": "DT_FLOAT"}}}, {"name": "PartitionedCall/model_2/tf.nn.max_pool2d_3/MaxPool2d", "op": "MaxPool", "input": ["PartitionedCall/model_2/tf.math.add_5/Add"], "attr": {"data_format": {"s": "TkhXQw=="}, "padding": {"s": "VkFMSUQ="}, "ksize": {"list": {"i": ["1", "2", "1", "1"]}}, "T": {"type": "DT_FLOAT"}, "strides": {"list": {"i": ["1", "2", "1", "1"]}}, "explicit_paddings": {"list": {}}}}, {"name": "PartitionedCall/model_2/rnn_2/while/body/_276/model_2/rnn_2/while/custom_lstm_cell_2/add_1", "op": "AddV2", "input": ["PartitionedCall/model_2/rnn_2/while/body/_276/model_2/rnn_2/while/custom_lstm_cell_2/split", "PartitionedCall/model_2/rnn_2/while/Func/PartitionedCall/input/_42_switch/_316:1"], "attr": {"T": {"type": "DT_FLOAT"}}}, {"name": "PartitionedCall/model_2/rnn_2/while/body/_276/model_2/rnn_2/while/custom_lstm_cell_2/add_2", "op": "AddV2", "input": ["PartitionedCall/model_2/rnn_2/while/body/_276/model_2/rnn_2/while/custom_lstm_cell_2/split:1", "PartitionedCall/model_2/rnn_2/while/Func/PartitionedCall/input/_43_switch/_317:1"], "attr": {"T": {"type": "DT_FLOAT"}}}, {"name": "PartitionedCall/model_2/rnn_2/while/body/_276/model_2/rnn_2/while/custom_lstm_cell_2/add_3", "op": "AddV2", "input": ["PartitionedCall/model_2/rnn_2/while/body/_276/model_2/rnn_2/while/custom_lstm_cell_2/split:2", "PartitionedCall/model_2/rnn_2/while/Func/PartitionedCall/input/_44_switch/_318:1"], "attr": {"T": {"type": "DT_FLOAT"}}}, {"name": "PartitionedCall/model_2/rnn_2/while/body/_276/model_2/rnn_2/while/custom_lstm_cell_2/add_5", "op": "AddV2", "input": ["PartitionedCall/model_2/rnn_2/while/body/_276/model_2/rnn_2/while/custom_lstm_cell_2/split:3", "PartitionedCall/model_2/rnn_2/while/Func/PartitionedCall/input/_46_switch/_319:1"], "attr": {"T": {"type": "DT_FLOAT"}}}, {"name": "PartitionedCall/model_2/rnn_3/while/body/_201/model_2/rnn_3/while/custom_lstm_cell_3/add_1", "op": "AddV2", "input": ["PartitionedCall/model_2/rnn_3/while/body/_201/model_2/rnn_3/while/custom_lstm_cell_3/split", "PartitionedCall/model_2/rnn_3/while/Func/PartitionedCall/input/_34_switch/_241:1"], "attr": {"T": {"type": "DT_FLOAT"}}}, {"name": "PartitionedCall/model_2/rnn_3/while/body/_201/model_2/rnn_3/while/custom_lstm_cell_3/add_2", "op": "AddV2", "input": ["PartitionedCall/model_2/rnn_3/while/body/_201/model_2/rnn_3/while/custom_lstm_cell_3/split:1", "PartitionedCall/model_2/rnn_3/while/Func/PartitionedCall/input/_35_switch/_242:1"], "attr": {"T": {"type": "DT_FLOAT"}}}, {"name": "PartitionedCall/model_2/rnn_3/while/body/_201/model_2/rnn_3/while/custom_lstm_cell_3/add_3", "op": "AddV2", "input": ["PartitionedCall/model_2/rnn_3/while/body/_201/model_2/rnn_3/while/custom_lstm_cell_3/split:2", "PartitionedCall/model_2/rnn_3/while/Func/PartitionedCall/input/_36_switch/_243:1"], "attr": {"T": {"type": "DT_FLOAT"}}}, {"name": "PartitionedCall/model_2/rnn_3/while/body/_201/model_2/rnn_3/while/custom_lstm_cell_3/add_5", "op": "AddV2", "input": ["PartitionedCall/model_2/rnn_3/while/body/_201/model_2/rnn_3/while/custom_lstm_cell_3/split:3", "PartitionedCall/model_2/rnn_3/while/Func/PartitionedCall/input/_38_switch/_244:1"], "attr": {"T": {"type": "DT_FLOAT"}}}, {"name": "PartitionedCall/model_2/tf.nn.relu_5/Relu", "op": "Relu", "input": ["PartitionedCall/model_2/tf.nn.max_pool2d_3/MaxPool2d"], "attr": {"T": {"type": "DT_FLOAT"}}}, {"name": "PartitionedCall/model_2/rnn_2/while/body/_276/model_2/rnn_2/while/custom_lstm_cell_2/sigmoid_2/Sigmoid", "op": "Sigmoid", "input": ["PartitionedCall/model_2/rnn_2/while/body/_276/model_2/rnn_2/while/custom_lstm_cell_2/add_1"], "attr": {"T": {"type": "DT_FLOAT"}}}, {"name": "PartitionedCall/model_2/rnn_2/while/body/_276/model_2/rnn_2/while/custom_lstm_cell_2/sigmoid_2/Sigmoid_1", "op": "Sigmoid", "input": ["PartitionedCall/model_2/rnn_2/while/body/_276/model_2/rnn_2/while/custom_lstm_cell_2/add_2"], "attr": {"T": {"type": "DT_FLOAT"}}}, {"name": "PartitionedCall/model_2/rnn_2/while/body/_276/model_2/rnn_2/while/custom_lstm_cell_2/tanh_4/Tanh", "op": "Tanh", "input": ["PartitionedCall/model_2/rnn_2/while/body/_276/model_2/rnn_2/while/custom_lstm_cell_2/add_3"], "attr": {"T": {"type": "DT_FLOAT"}}}, {"name": "PartitionedCall/model_2/rnn_2/while/body/_276/model_2/rnn_2/while/custom_lstm_cell_2/sigmoid_2/Sigmoid_2", "op": "Sigmoid", "input": ["PartitionedCall/model_2/rnn_2/while/body/_276/model_2/rnn_2/while/custom_lstm_cell_2/add_5"], "attr": {"T": {"type": "DT_FLOAT"}}}, {"name": "PartitionedCall/model_2/rnn_3/while/body/_201/model_2/rnn_3/while/custom_lstm_cell_3/sigmoid_3/Sigmoid", "op": "Sigmoid", "input": ["PartitionedCall/model_2/rnn_3/while/body/_201/model_2/rnn_3/while/custom_lstm_cell_3/add_1"], "attr": {"T": {"type": "DT_FLOAT"}}}, {"name": "PartitionedCall/model_2/rnn_3/while/body/_201/model_2/rnn_3/while/custom_lstm_cell_3/sigmoid_3/Sigmoid_1", "op": "Sigmoid", "input": ["PartitionedCall/model_2/rnn_3/while/body/_201/model_2/rnn_3/while/custom_lstm_cell_3/add_2"], "attr": {"T": {"type": "DT_FLOAT"}}}, {"name": "PartitionedCall/model_2/rnn_3/while/body/_201/model_2/rnn_3/while/custom_lstm_cell_3/tanh_6/Tanh", "op": "Tanh", "input": ["PartitionedCall/model_2/rnn_3/while/body/_201/model_2/rnn_3/while/custom_lstm_cell_3/add_3"], "attr": {"T": {"type": "DT_FLOAT"}}}, {"name": "PartitionedCall/model_2/rnn_3/while/body/_201/model_2/rnn_3/while/custom_lstm_cell_3/sigmoid_3/Sigmoid_2", "op": "Sigmoid", "input": ["PartitionedCall/model_2/rnn_3/while/body/_201/model_2/rnn_3/while/custom_lstm_cell_3/add_5"], "attr": {"T": {"type": "DT_FLOAT"}}}, {"name": "PartitionedCall/model_2/tf.nn.convolution_6/convolution", "op": "Conv2D", "input": ["PartitionedCall/model_2/tf.nn.relu_5/Relu", "803"], "device": "/device:CPU:0", "attr": {"use_cudnn_on_gpu": {"b": true}, "dilations": {"list": {"i": ["1", "1", "1", "1"]}}, "explicit_paddings": {"list": {}}, "strides": {"list": {"i": ["1", "1", "1", "1"]}}, "data_format": {"s": "TkhXQw=="}, "padding": {"s": "VkFMSUQ="}, "T": {"type": "DT_FLOAT"}}}, {"name": "PartitionedCall/model_2/rnn_2/while/body/_276/model_2/rnn_2/while/custom_lstm_cell_2/mul", "op": "Mul", "input": ["PartitionedCall/model_2/rnn_2/while/body/_276/model_2/rnn_2/while/custom_lstm_cell_2/sigmoid_2/Sigmoid_1", "PartitionedCall/model_2/rnn_2/while/Func/PartitionedCall/input/_45_switch/_311:1"], "attr": {"T": {"type": "DT_FLOAT"}}}, {"name": "PartitionedCall/model_2/rnn_2/while/body/_276/model_2/rnn_2/while/custom_lstm_cell_2/mul_1", "op": "Mul", "input": ["PartitionedCall/model_2/rnn_2/while/body/_276/model_2/rnn_2/while/custom_lstm_cell_2/sigmoid_2/Sigmoid", "PartitionedCall/model_2/rnn_2/while/body/_276/model_2/rnn_2/while/custom_lstm_cell_2/tanh_4/Tanh"], "attr": {"T": {"type": "DT_FLOAT"}}}, {"name": "PartitionedCall/model_2/rnn_3/while/body/_201/model_2/rnn_3/while/custom_lstm_cell_3/mul", "op": "Mul", "input": ["PartitionedCall/model_2/rnn_3/while/body/_201/model_2/rnn_3/while/custom_lstm_cell_3/sigmoid_3/Sigmoid_1", "PartitionedCall/model_2/rnn_3/while/Func/PartitionedCall/input/_37_switch/_236:1"], "attr": {"T": {"type": "DT_FLOAT"}}}, {"name": "PartitionedCall/model_2/rnn_3/while/body/_201/model_2/rnn_3/while/custom_lstm_cell_3/mul_1", "op": "Mul", "input": ["PartitionedCall/model_2/rnn_3/while/body/_201/model_2/rnn_3/while/custom_lstm_cell_3/sigmoid_3/Sigmoid", "PartitionedCall/model_2/rnn_3/while/body/_201/model_2/rnn_3/while/custom_lstm_cell_3/tanh_6/Tanh"], "attr": {"T": {"type": "DT_FLOAT"}}}, {"name": "PartitionedCall/model_2/tf.math.add_6/Add", "op": "AddV2", "input": ["PartitionedCall/model_2/tf.nn.convolution_6/convolution", "805"], "attr": {"T": {"type": "DT_FLOAT"}}}, {"name": "PartitionedCall/model_2/rnn_2/while/body/_276/model_2/rnn_2/while/custom_lstm_cell_2/add_4", "op": "AddV2", "input": ["PartitionedCall/model_2/rnn_2/while/body/_276/model_2/rnn_2/while/custom_lstm_cell_2/mul", "PartitionedCall/model_2/rnn_2/while/body/_276/model_2/rnn_2/while/custom_lstm_cell_2/mul_1"], "attr": {"T": {"type": "DT_FLOAT"}}}, {"name": "PartitionedCall/model_2/rnn_3/while/body/_201/model_2/rnn_3/while/custom_lstm_cell_3/add_4", "op": "AddV2", "input": ["PartitionedCall/model_2/rnn_3/while/body/_201/model_2/rnn_3/while/custom_lstm_cell_3/mul", "PartitionedCall/model_2/rnn_3/while/body/_201/model_2/rnn_3/while/custom_lstm_cell_3/mul_1"], "attr": {"T": {"type": "DT_FLOAT"}}}, {"name": "PartitionedCall/model_2/tf.nn.relu_6/Relu", "op": "Relu", "input": ["PartitionedCall/model_2/tf.math.add_6/Add"], "attr": {"T": {"type": "DT_FLOAT"}}}, {"name": "PartitionedCall/model_2/rnn_2/while/next_iteration/_341", "op": "NextIteration", "input": ["PartitionedCall/model_2/rnn_2/while/body/_276/model_2/rnn_2/while/custom_lstm_cell_2/add_4", "^PartitionedCall/model_2/rnn_2/while/loop_body_control/_320"], "attr": {"T": {"type": "DT_FLOAT"}}}, {"name": "PartitionedCall/model_2/rnn_2/while/body/_276/model_2/rnn_2/while/custom_lstm_cell_2/tanh_5/Tanh", "op": "Tanh", "input": ["PartitionedCall/model_2/rnn_2/while/body/_276/model_2/rnn_2/while/custom_lstm_cell_2/add_4"], "attr": {"T": {"type": "DT_FLOAT"}}}, {"name": "PartitionedCall/model_2/rnn_3/while/next_iteration/_266", "op": "NextIteration", "input": ["PartitionedCall/model_2/rnn_3/while/body/_201/model_2/rnn_3/while/custom_lstm_cell_3/add_4", "^PartitionedCall/model_2/rnn_3/while/loop_body_control/_245"], "attr": {"T": {"type": "DT_FLOAT"}}}, {"name": "PartitionedCall/model_2/rnn_3/while/body/_201/model_2/rnn_3/while/custom_lstm_cell_3/tanh_7/Tanh", "op": "Tanh", "input": ["PartitionedCall/model_2/rnn_3/while/body/_201/model_2/rnn_3/while/custom_lstm_cell_3/add_4"], "attr": {"T": {"type": "DT_FLOAT"}}}, {"name": "PartitionedCall/model_2/tf.compat.v1.transpose/transpose", "op": "Transpose", "input": ["PartitionedCall/model_2/tf.nn.relu_6/Relu", "PartitionedCall/model_2/tf.compat.v1.transpose/transpose/perm"], "attr": {"T": {"type": "DT_FLOAT"}, "Tperm": {"type": "DT_INT32"}}}, {"name": "PartitionedCall/model_2/rnn_2/while/body/_276/model_2/rnn_2/while/custom_lstm_cell_2/mul_2", "op": "Mul", "input": ["PartitionedCall/model_2/rnn_2/while/body/_276/model_2/rnn_2/while/custom_lstm_cell_2/sigmoid_2/Sigmoid_2", "PartitionedCall/model_2/rnn_2/while/body/_276/model_2/rnn_2/while/custom_lstm_cell_2/tanh_5/Tanh"], "attr": {"T": {"type": "DT_FLOAT"}}}, {"name": "PartitionedCall/model_2/rnn_3/while/body/_201/model_2/rnn_3/while/custom_lstm_cell_3/mul_2", "op": "Mul", "input": ["PartitionedCall/model_2/rnn_3/while/body/_201/model_2/rnn_3/while/custom_lstm_cell_3/sigmoid_3/Sigmoid_2", "PartitionedCall/model_2/rnn_3/while/body/_201/model_2/rnn_3/while/custom_lstm_cell_3/tanh_7/Tanh"], "attr": {"T": {"type": "DT_FLOAT"}}}, {"name": "PartitionedCall/model_2/tf.reshape/Reshape", "op": "Reshape", "input": ["PartitionedCall/model_2/tf.compat.v1.transpose/transpose", "PartitionedCall/model_2/tf.reshape/Reshape/shape"], "attr": {"T": {"type": "DT_FLOAT"}, "Tshape": {"type": "DT_INT32"}}}, {"name": "PartitionedCall/model_2/rnn_2/while/next_iteration/_340", "op": "NextIteration", "input": ["PartitionedCall/model_2/rnn_2/while/body/_276/model_2/rnn_2/while/custom_lstm_cell_2/mul_2", "^PartitionedCall/model_2/rnn_2/while/loop_body_control/_320"], "attr": {"T": {"type": "DT_FLOAT"}}}, {"name": "PartitionedCall/model_2/rnn_2/while/body/_276/model_2/rnn_2/while/TensorArrayV2Write/TensorListSetItem", "op": "TensorListSetItem", "input": ["PartitionedCall/model_2/rnn_2/while/PartitionedCall/model_2/rnn_2/TensorArrayV2_1_switch/_309:1", "Func/PartitionedCall/model_2/rnn_2/while/body/_276/input/_507", "PartitionedCall/model_2/rnn_2/while/body/_276/model_2/rnn_2/while/custom_lstm_cell_2/mul_2"], "attr": {"element_dtype": {"type": "DT_FLOAT"}}, "experimentalType": {"typeId": "TFT_PRODUCT", "args": [{"typeId": "TFT_ARRAY", "args": [{"typeId": "TFT_TENSOR", "args": [{"typeId": "TFT_FLOAT"}]}]}]}}, {"name": "PartitionedCall/model_2/rnn_3/while/next_iteration/_265", "op": "NextIteration", "input": ["PartitionedCall/model_2/rnn_3/while/body/_201/model_2/rnn_3/while/custom_lstm_cell_3/mul_2", "^PartitionedCall/model_2/rnn_3/while/loop_body_control/_245"], "attr": {"T": {"type": "DT_FLOAT"}}}, {"name": "PartitionedCall/model_2/rnn_3/while/body/_201/model_2/rnn_3/while/TensorArrayV2Write/TensorListSetItem", "op": "TensorListSetItem", "input": ["PartitionedCall/model_2/rnn_3/while/PartitionedCall/model_2/rnn_3/TensorArrayV2_1_switch/_234:1", "Func/PartitionedCall/model_2/rnn_3/while/body/_201/input/_461", "PartitionedCall/model_2/rnn_3/while/body/_201/model_2/rnn_3/while/custom_lstm_cell_3/mul_2"], "attr": {"element_dtype": {"type": "DT_FLOAT"}}, "experimentalType": {"typeId": "TFT_PRODUCT", "args": [{"typeId": "TFT_ARRAY", "args": [{"typeId": "TFT_TENSOR", "args": [{"typeId": "TFT_FLOAT"}]}]}]}}, {"name": "PartitionedCall/model_2/rnn/TensorArrayUnstack/TensorListFromTensor", "op": "TensorListFromTensor", "input": ["PartitionedCall/model_2/tf.reshape/Reshape", "PartitionedCall/model_2/rnn/TensorArrayUnstack/TensorListFromTensor/element_shape"], "attr": {"shape_type": {"type": "DT_INT32"}, "element_dtype": {"type": "DT_FLOAT"}}, "experimentalType": {"typeId": "TFT_PRODUCT", "args": [{"typeId": "TFT_ARRAY", "args": [{"typeId": "TFT_TENSOR", "args": [{"typeId": "TFT_FLOAT"}]}]}]}}, {"name": "PartitionedCall/model_2/rnn_1/TensorArrayUnstack/TensorListFromTensor", "op": "TensorListFromTensor", "input": ["PartitionedCall/model_2/tf.reshape/Reshape", "PartitionedCall/model_2/rnn_1/TensorArrayUnstack/TensorListFromTensor/element_shape"], "attr": {"element_dtype": {"type": "DT_FLOAT"}, "shape_type": {"type": "DT_INT32"}}, "experimentalType": {"typeId": "TFT_PRODUCT", "args": [{"typeId": "TFT_ARRAY", "args": [{"typeId": "TFT_TENSOR", "args": [{"typeId": "TFT_FLOAT"}]}]}]}}, {"name": "PartitionedCall/model_2/rnn_2/while/next_iteration/_339", "op": "NextIteration", "input": ["PartitionedCall/model_2/rnn_2/while/body/_276/model_2/rnn_2/while/TensorArrayV2Write/TensorListSetItem", "^PartitionedCall/model_2/rnn_2/while/loop_body_control/_320"], "attr": {"T": {"type": "DT_VARIANT"}}}, {"name": "PartitionedCall/model_2/rnn_3/while/next_iteration/_264", "op": "NextIteration", "input": ["PartitionedCall/model_2/rnn_3/while/body/_201/model_2/rnn_3/while/TensorArrayV2Write/TensorListSetItem", "^PartitionedCall/model_2/rnn_3/while/loop_body_control/_245"], "attr": {"T": {"type": "DT_VARIANT"}}}, {"name": "PartitionedCall/model_2/rnn/while/enter/_134", "op": "Enter", "input": ["PartitionedCall/model_2/rnn/TensorArrayUnstack/TensorListFromTensor"], "attr": {"frame_name": {"s": "UGFydGl0aW9uZWRDYWxsL21vZGVsXzIvcm5uL3doaWxl"}, "T": {"type": "DT_VARIANT"}, "is_constant": {"b": false}, "parallel_iterations": {"i": "32"}}}, {"name": "PartitionedCall/model_2/rnn_1/while/enter/_59", "op": "Enter", "input": ["PartitionedCall/model_2/rnn_1/TensorArrayUnstack/TensorListFromTensor"], "attr": {"T": {"type": "DT_VARIANT"}, "parallel_iterations": {"i": "32"}, "frame_name": {"s": "UGFydGl0aW9uZWRDYWxsL21vZGVsXzIvcm5uXzEvd2hpbGU="}, "is_constant": {"b": false}}}, {"name": "PartitionedCall/model_2/rnn/while/merge/_148", "op": "Merge", "input": ["PartitionedCall/model_2/rnn/while/enter/_134", "PartitionedCall/model_2/rnn/while/next_iteration/_193"], "attr": {"T": {"type": "DT_VARIANT"}, "N": {"i": "2"}}}, {"name": "PartitionedCall/model_2/rnn_1/while/merge/_73", "op": "Merge", "input": ["PartitionedCall/model_2/rnn_1/while/enter/_59", "PartitionedCall/model_2/rnn_1/while/next_iteration/_118"], "attr": {"T": {"type": "DT_VARIANT"}, "N": {"i": "2"}}}, {"name": "PartitionedCall/model_2/rnn/while/PartitionedCall/model_2/rnn/TensorArrayUnstack/TensorListFromTensor_switch/_163", "op": "Switch", "input": ["PartitionedCall/model_2/rnn/while/merge/_148", "PartitionedCall/model_2/rnn/while/LoopCond/_155"], "attr": {"T": {"type": "DT_VARIANT"}}}, {"name": "PartitionedCall/model_2/rnn_1/while/PartitionedCall/model_2/rnn_1/TensorArrayUnstack/TensorListFromTensor_switch/_88", "op": "Switch", "input": ["PartitionedCall/model_2/rnn_1/while/merge/_73", "PartitionedCall/model_2/rnn_1/while/LoopCond/_80"], "attr": {"T": {"type": "DT_VARIANT"}}}, {"name": "PartitionedCall/model_2/rnn/while/next_iteration/_193", "op": "NextIteration", "input": ["PartitionedCall/model_2/rnn/while/PartitionedCall/model_2/rnn/TensorArrayUnstack/TensorListFromTensor_switch/_163:1", "^PartitionedCall/model_2/rnn/while/loop_body_control/_170"], "attr": {"T": {"type": "DT_VARIANT"}}}, {"name": "PartitionedCall/model_2/rnn/while/body/_126/model_2/rnn/while/TensorArrayV2Read/TensorListGetItem", "op": "TensorListGetItem", "input": ["PartitionedCall/model_2/rnn/while/PartitionedCall/model_2/rnn/TensorArrayUnstack/TensorListFromTensor_switch/_163:1", "Func/PartitionedCall/model_2/rnn/while/body/_126/input/_415", "PartitionedCall/model_2/rnn/while/body/_126/model_2/rnn/while/TensorArrayV2Read/TensorListGetItem/element_shape"], "attr": {"element_dtype": {"type": "DT_FLOAT"}}}, {"name": "PartitionedCall/model_2/rnn_1/while/next_iteration/_118", "op": "NextIteration", "input": ["PartitionedCall/model_2/rnn_1/while/PartitionedCall/model_2/rnn_1/TensorArrayUnstack/TensorListFromTensor_switch/_88:1", "^PartitionedCall/model_2/rnn_1/while/loop_body_control/_95"], "attr": {"T": {"type": "DT_VARIANT"}}}, {"name": "PartitionedCall/model_2/rnn_1/while/body/_51/model_2/rnn_1/while/TensorArrayV2Read/TensorListGetItem", "op": "TensorListGetItem", "input": ["PartitionedCall/model_2/rnn_1/while/PartitionedCall/model_2/rnn_1/TensorArrayUnstack/TensorListFromTensor_switch/_88:1", "Func/PartitionedCall/model_2/rnn_1/while/body/_51/input/_369", "PartitionedCall/model_2/rnn_1/while/body/_51/model_2/rnn_1/while/TensorArrayV2Read/TensorListGetItem/element_shape"], "attr": {"element_dtype": {"type": "DT_FLOAT"}}}, {"name": "PartitionedCall/model_2/rnn/while/body/_126/model_2/rnn/while/custom_lstm_cell/MatMul", "op": "MatMul", "input": ["PartitionedCall/model_2/rnn/while/body/_126/model_2/rnn/while/TensorArrayV2Read/TensorListGetItem", "PartitionedCall/model_2/rnn/while/Func/PartitionedCall/input/_23_switch/_164:1"], "device": "/device:CPU:0", "attr": {"transpose_a": {"b": false}, "T": {"type": "DT_FLOAT"}, "transpose_b": {"b": false}}}, {"name": "PartitionedCall/model_2/rnn_1/while/body/_51/model_2/rnn_1/while/custom_lstm_cell_1/MatMul", "op": "MatMul", "input": ["PartitionedCall/model_2/rnn_1/while/body/_51/model_2/rnn_1/while/TensorArrayV2Read/TensorListGetItem", "PartitionedCall/model_2/rnn_1/while/Func/PartitionedCall/input/_15_switch/_89:1"], "device": "/device:CPU:0", "attr": {"T": {"type": "DT_FLOAT"}, "transpose_a": {"b": false}, "transpose_b": {"b": false}}}, {"name": "PartitionedCall/model_2/rnn/while/body/_126/model_2/rnn/while/custom_lstm_cell/add", "op": "AddV2", "input": ["PartitionedCall/model_2/rnn/while/body/_126/model_2/rnn/while/custom_lstm_cell/MatMul", "PartitionedCall/model_2/rnn/while/body/_126/model_2/rnn/while/custom_lstm_cell/MatMul_1"], "attr": {"T": {"type": "DT_FLOAT"}}}, {"name": "PartitionedCall/model_2/rnn_1/while/body/_51/model_2/rnn_1/while/custom_lstm_cell_1/add", "op": "AddV2", "input": ["PartitionedCall/model_2/rnn_1/while/body/_51/model_2/rnn_1/while/custom_lstm_cell_1/MatMul", "PartitionedCall/model_2/rnn_1/while/body/_51/model_2/rnn_1/while/custom_lstm_cell_1/MatMul_1"], "attr": {"T": {"type": "DT_FLOAT"}}}, {"name": "PartitionedCall/model_2/rnn/while/body/_126/model_2/rnn/while/custom_lstm_cell/split", "op": "Split", "input": ["PartitionedCall/model_2/rnn/while/body/_126/model_2/rnn/while/custom_lstm_cell/split/split_dim", "PartitionedCall/model_2/rnn/while/body/_126/model_2/rnn/while/custom_lstm_cell/add"], "attr": {"T": {"type": "DT_FLOAT"}, "num_split": {"i": "4"}}}, {"name": "PartitionedCall/model_2/rnn_1/while/body/_51/model_2/rnn_1/while/custom_lstm_cell_1/split", "op": "Split", "input": ["PartitionedCall/model_2/rnn_1/while/body/_51/model_2/rnn_1/while/custom_lstm_cell_1/split/split_dim", "PartitionedCall/model_2/rnn_1/while/body/_51/model_2/rnn_1/while/custom_lstm_cell_1/add"], "attr": {"num_split": {"i": "4"}, "T": {"type": "DT_FLOAT"}}}, {"name": "PartitionedCall/model_2/rnn/while/body/_126/model_2/rnn/while/custom_lstm_cell/add_1", "op": "AddV2", "input": ["PartitionedCall/model_2/rnn/while/body/_126/model_2/rnn/while/custom_lstm_cell/split", "PartitionedCall/model_2/rnn/while/Func/PartitionedCall/input/_26_switch/_166:1"], "attr": {"T": {"type": "DT_FLOAT"}}}, {"name": "PartitionedCall/model_2/rnn/while/body/_126/model_2/rnn/while/custom_lstm_cell/add_2", "op": "AddV2", "input": ["PartitionedCall/model_2/rnn/while/body/_126/model_2/rnn/while/custom_lstm_cell/split:1", "PartitionedCall/model_2/rnn/while/Func/PartitionedCall/input/_27_switch/_167:1"], "attr": {"T": {"type": "DT_FLOAT"}}}, {"name": "PartitionedCall/model_2/rnn/while/body/_126/model_2/rnn/while/custom_lstm_cell/add_3", "op": "AddV2", "input": ["PartitionedCall/model_2/rnn/while/body/_126/model_2/rnn/while/custom_lstm_cell/split:2", "PartitionedCall/model_2/rnn/while/Func/PartitionedCall/input/_28_switch/_168:1"], "attr": {"T": {"type": "DT_FLOAT"}}}, {"name": "PartitionedCall/model_2/rnn/while/body/_126/model_2/rnn/while/custom_lstm_cell/add_5", "op": "AddV2", "input": ["PartitionedCall/model_2/rnn/while/body/_126/model_2/rnn/while/custom_lstm_cell/split:3", "PartitionedCall/model_2/rnn/while/Func/PartitionedCall/input/_30_switch/_169:1"], "attr": {"T": {"type": "DT_FLOAT"}}}, {"name": "PartitionedCall/model_2/rnn_1/while/body/_51/model_2/rnn_1/while/custom_lstm_cell_1/add_1", "op": "AddV2", "input": ["PartitionedCall/model_2/rnn_1/while/body/_51/model_2/rnn_1/while/custom_lstm_cell_1/split", "PartitionedCall/model_2/rnn_1/while/Func/PartitionedCall/input/_18_switch/_91:1"], "attr": {"T": {"type": "DT_FLOAT"}}}, {"name": "PartitionedCall/model_2/rnn_1/while/body/_51/model_2/rnn_1/while/custom_lstm_cell_1/add_2", "op": "AddV2", "input": ["PartitionedCall/model_2/rnn_1/while/body/_51/model_2/rnn_1/while/custom_lstm_cell_1/split:1", "PartitionedCall/model_2/rnn_1/while/Func/PartitionedCall/input/_19_switch/_92:1"], "attr": {"T": {"type": "DT_FLOAT"}}}, {"name": "PartitionedCall/model_2/rnn_1/while/body/_51/model_2/rnn_1/while/custom_lstm_cell_1/add_3", "op": "AddV2", "input": ["PartitionedCall/model_2/rnn_1/while/body/_51/model_2/rnn_1/while/custom_lstm_cell_1/split:2", "PartitionedCall/model_2/rnn_1/while/Func/PartitionedCall/input/_20_switch/_93:1"], "attr": {"T": {"type": "DT_FLOAT"}}}, {"name": "PartitionedCall/model_2/rnn_1/while/body/_51/model_2/rnn_1/while/custom_lstm_cell_1/add_5", "op": "AddV2", "input": ["PartitionedCall/model_2/rnn_1/while/body/_51/model_2/rnn_1/while/custom_lstm_cell_1/split:3", "PartitionedCall/model_2/rnn_1/while/Func/PartitionedCall/input/_22_switch/_94:1"], "attr": {"T": {"type": "DT_FLOAT"}}}, {"name": "PartitionedCall/model_2/rnn/while/body/_126/model_2/rnn/while/custom_lstm_cell/sigmoid/Sigmoid", "op": "Sigmoid", "input": ["PartitionedCall/model_2/rnn/while/body/_126/model_2/rnn/while/custom_lstm_cell/add_1"], "attr": {"T": {"type": "DT_FLOAT"}}}, {"name": "PartitionedCall/model_2/rnn/while/body/_126/model_2/rnn/while/custom_lstm_cell/sigmoid/Sigmoid_1", "op": "Sigmoid", "input": ["PartitionedCall/model_2/rnn/while/body/_126/model_2/rnn/while/custom_lstm_cell/add_2"], "attr": {"T": {"type": "DT_FLOAT"}}}, {"name": "PartitionedCall/model_2/rnn/while/body/_126/model_2/rnn/while/custom_lstm_cell/tanh/Tanh", "op": "Tanh", "input": ["PartitionedCall/model_2/rnn/while/body/_126/model_2/rnn/while/custom_lstm_cell/add_3"], "attr": {"T": {"type": "DT_FLOAT"}}}, {"name": "PartitionedCall/model_2/rnn/while/body/_126/model_2/rnn/while/custom_lstm_cell/sigmoid/Sigmoid_2", "op": "Sigmoid", "input": ["PartitionedCall/model_2/rnn/while/body/_126/model_2/rnn/while/custom_lstm_cell/add_5"], "attr": {"T": {"type": "DT_FLOAT"}}}, {"name": "PartitionedCall/model_2/rnn_1/while/body/_51/model_2/rnn_1/while/custom_lstm_cell_1/sigmoid_1/Sigmoid", "op": "Sigmoid", "input": ["PartitionedCall/model_2/rnn_1/while/body/_51/model_2/rnn_1/while/custom_lstm_cell_1/add_1"], "attr": {"T": {"type": "DT_FLOAT"}}}, {"name": "PartitionedCall/model_2/rnn_1/while/body/_51/model_2/rnn_1/while/custom_lstm_cell_1/sigmoid_1/Sigmoid_1", "op": "Sigmoid", "input": ["PartitionedCall/model_2/rnn_1/while/body/_51/model_2/rnn_1/while/custom_lstm_cell_1/add_2"], "attr": {"T": {"type": "DT_FLOAT"}}}, {"name": "PartitionedCall/model_2/rnn_1/while/body/_51/model_2/rnn_1/while/custom_lstm_cell_1/tanh_2/Tanh", "op": "Tanh", "input": ["PartitionedCall/model_2/rnn_1/while/body/_51/model_2/rnn_1/while/custom_lstm_cell_1/add_3"], "attr": {"T": {"type": "DT_FLOAT"}}}, {"name": "PartitionedCall/model_2/rnn_1/while/body/_51/model_2/rnn_1/while/custom_lstm_cell_1/sigmoid_1/Sigmoid_2", "op": "Sigmoid", "input": ["PartitionedCall/model_2/rnn_1/while/body/_51/model_2/rnn_1/while/custom_lstm_cell_1/add_5"], "attr": {"T": {"type": "DT_FLOAT"}}}, {"name": "PartitionedCall/model_2/rnn/while/body/_126/model_2/rnn/while/custom_lstm_cell/mul", "op": "Mul", "input": ["PartitionedCall/model_2/rnn/while/body/_126/model_2/rnn/while/custom_lstm_cell/sigmoid/Sigmoid_1", "PartitionedCall/model_2/rnn/while/Func/PartitionedCall/input/_29_switch/_161:1"], "attr": {"T": {"type": "DT_FLOAT"}}}, {"name": "PartitionedCall/model_2/rnn/while/body/_126/model_2/rnn/while/custom_lstm_cell/mul_1", "op": "Mul", "input": ["PartitionedCall/model_2/rnn/while/body/_126/model_2/rnn/while/custom_lstm_cell/sigmoid/Sigmoid", "PartitionedCall/model_2/rnn/while/body/_126/model_2/rnn/while/custom_lstm_cell/tanh/Tanh"], "attr": {"T": {"type": "DT_FLOAT"}}}, {"name": "PartitionedCall/model_2/rnn_1/while/body/_51/model_2/rnn_1/while/custom_lstm_cell_1/mul", "op": "Mul", "input": ["PartitionedCall/model_2/rnn_1/while/body/_51/model_2/rnn_1/while/custom_lstm_cell_1/sigmoid_1/Sigmoid_1", "PartitionedCall/model_2/rnn_1/while/Func/PartitionedCall/input/_21_switch/_86:1"], "attr": {"T": {"type": "DT_FLOAT"}}}, {"name": "PartitionedCall/model_2/rnn_1/while/body/_51/model_2/rnn_1/while/custom_lstm_cell_1/mul_1", "op": "Mul", "input": ["PartitionedCall/model_2/rnn_1/while/body/_51/model_2/rnn_1/while/custom_lstm_cell_1/sigmoid_1/Sigmoid", "PartitionedCall/model_2/rnn_1/while/body/_51/model_2/rnn_1/while/custom_lstm_cell_1/tanh_2/Tanh"], "attr": {"T": {"type": "DT_FLOAT"}}}, {"name": "PartitionedCall/model_2/rnn/while/body/_126/model_2/rnn/while/custom_lstm_cell/add_4", "op": "AddV2", "input": ["PartitionedCall/model_2/rnn/while/body/_126/model_2/rnn/while/custom_lstm_cell/mul", "PartitionedCall/model_2/rnn/while/body/_126/model_2/rnn/while/custom_lstm_cell/mul_1"], "attr": {"T": {"type": "DT_FLOAT"}}}, {"name": "PartitionedCall/model_2/rnn_1/while/body/_51/model_2/rnn_1/while/custom_lstm_cell_1/add_4", "op": "AddV2", "input": ["PartitionedCall/model_2/rnn_1/while/body/_51/model_2/rnn_1/while/custom_lstm_cell_1/mul", "PartitionedCall/model_2/rnn_1/while/body/_51/model_2/rnn_1/while/custom_lstm_cell_1/mul_1"], "attr": {"T": {"type": "DT_FLOAT"}}}, {"name": "PartitionedCall/model_2/rnn/while/next_iteration/_191", "op": "NextIteration", "input": ["PartitionedCall/model_2/rnn/while/body/_126/model_2/rnn/while/custom_lstm_cell/add_4", "^PartitionedCall/model_2/rnn/while/loop_body_control/_170"], "attr": {"T": {"type": "DT_FLOAT"}}}, {"name": "PartitionedCall/model_2/rnn/while/body/_126/model_2/rnn/while/custom_lstm_cell/tanh_1/Tanh", "op": "Tanh", "input": ["PartitionedCall/model_2/rnn/while/body/_126/model_2/rnn/while/custom_lstm_cell/add_4"], "attr": {"T": {"type": "DT_FLOAT"}}}, {"name": "PartitionedCall/model_2/rnn_1/while/next_iteration/_116", "op": "NextIteration", "input": ["PartitionedCall/model_2/rnn_1/while/body/_51/model_2/rnn_1/while/custom_lstm_cell_1/add_4", "^PartitionedCall/model_2/rnn_1/while/loop_body_control/_95"], "attr": {"T": {"type": "DT_FLOAT"}}}, {"name": "PartitionedCall/model_2/rnn_1/while/body/_51/model_2/rnn_1/while/custom_lstm_cell_1/tanh_3/Tanh", "op": "Tanh", "input": ["PartitionedCall/model_2/rnn_1/while/body/_51/model_2/rnn_1/while/custom_lstm_cell_1/add_4"], "attr": {"T": {"type": "DT_FLOAT"}}}, {"name": "PartitionedCall/model_2/rnn/while/body/_126/model_2/rnn/while/custom_lstm_cell/mul_2", "op": "Mul", "input": ["PartitionedCall/model_2/rnn/while/body/_126/model_2/rnn/while/custom_lstm_cell/sigmoid/Sigmoid_2", "PartitionedCall/model_2/rnn/while/body/_126/model_2/rnn/while/custom_lstm_cell/tanh_1/Tanh"], "attr": {"T": {"type": "DT_FLOAT"}}}, {"name": "PartitionedCall/model_2/rnn_1/while/body/_51/model_2/rnn_1/while/custom_lstm_cell_1/mul_2", "op": "Mul", "input": ["PartitionedCall/model_2/rnn_1/while/body/_51/model_2/rnn_1/while/custom_lstm_cell_1/sigmoid_1/Sigmoid_2", "PartitionedCall/model_2/rnn_1/while/body/_51/model_2/rnn_1/while/custom_lstm_cell_1/tanh_3/Tanh"], "attr": {"T": {"type": "DT_FLOAT"}}}, {"name": "PartitionedCall/model_2/rnn/while/next_iteration/_190", "op": "NextIteration", "input": ["PartitionedCall/model_2/rnn/while/body/_126/model_2/rnn/while/custom_lstm_cell/mul_2", "^PartitionedCall/model_2/rnn/while/loop_body_control/_170"], "attr": {"T": {"type": "DT_FLOAT"}}}, {"name": "PartitionedCall/model_2/rnn/while/body/_126/model_2/rnn/while/TensorArrayV2Write/TensorListSetItem", "op": "TensorListSetItem", "input": ["PartitionedCall/model_2/rnn/while/PartitionedCall/model_2/rnn/TensorArrayV2_1_switch/_159:1", "Func/PartitionedCall/model_2/rnn/while/body/_126/input/_415", "PartitionedCall/model_2/rnn/while/body/_126/model_2/rnn/while/custom_lstm_cell/mul_2"], "attr": {"element_dtype": {"type": "DT_FLOAT"}}, "experimentalType": {"typeId": "TFT_PRODUCT", "args": [{"typeId": "TFT_ARRAY", "args": [{"typeId": "TFT_TENSOR", "args": [{"typeId": "TFT_FLOAT"}]}]}]}}, {"name": "PartitionedCall/model_2/rnn_1/while/next_iteration/_115", "op": "NextIteration", "input": ["PartitionedCall/model_2/rnn_1/while/body/_51/model_2/rnn_1/while/custom_lstm_cell_1/mul_2", "^PartitionedCall/model_2/rnn_1/while/loop_body_control/_95"], "attr": {"T": {"type": "DT_FLOAT"}}}, {"name": "PartitionedCall/model_2/rnn_1/while/body/_51/model_2/rnn_1/while/TensorArrayV2Write/TensorListSetItem", "op": "TensorListSetItem", "input": ["PartitionedCall/model_2/rnn_1/while/PartitionedCall/model_2/rnn_1/TensorArrayV2_1_switch/_84:1", "Func/PartitionedCall/model_2/rnn_1/while/body/_51/input/_369", "PartitionedCall/model_2/rnn_1/while/body/_51/model_2/rnn_1/while/custom_lstm_cell_1/mul_2"], "attr": {"element_dtype": {"type": "DT_FLOAT"}}, "experimentalType": {"typeId": "TFT_PRODUCT", "args": [{"typeId": "TFT_ARRAY", "args": [{"typeId": "TFT_TENSOR", "args": [{"typeId": "TFT_FLOAT"}]}]}]}}, {"name": "PartitionedCall/model_2/rnn/while/next_iteration/_189", "op": "NextIteration", "input": ["PartitionedCall/model_2/rnn/while/body/_126/model_2/rnn/while/TensorArrayV2Write/TensorListSetItem", "^PartitionedCall/model_2/rnn/while/loop_body_control/_170"], "attr": {"T": {"type": "DT_VARIANT"}}}, {"name": "PartitionedCall/model_2/rnn_1/while/next_iteration/_114", "op": "NextIteration", "input": ["PartitionedCall/model_2/rnn_1/while/body/_51/model_2/rnn_1/while/TensorArrayV2Write/TensorListSetItem", "^PartitionedCall/model_2/rnn_1/while/loop_body_control/_95"], "attr": {"T": {"type": "DT_VARIANT"}}}], "library": {}, "versions": {"producer": 1395}}, "weightsManifest": [{"paths": ["group1-shard1of2.bin", "group1-shard2of2.bin"], "weights": [{"name": "PartitionedCall/model_2/rnn_2/TensorArrayV2_1/element_shape", "shape": [2], "dtype": "int32"}, {"name": "869", "shape": [1, 64], "dtype": "float32"}, {"name": "863", "shape": [1, 64], "dtype": "float32"}, {"name": "867", "shape": [31, 64], "dtype": "float32"}, {"name": "861", "shape": [1, 64], "dtype": "float32"}, {"name": "PartitionedCall/model_2/rnn_2/TensorArrayUnstack/TensorListFromTensor/element_shape", "shape": [2], "dtype": "int32"}, {"name": "855", "shape": [128, 256], "dtype": "float32"}, {"name": "857", "shape": [31, 64], "dtype": "float32"}, {"name": "859", "shape": [64, 256], "dtype": "float32"}, {"name": "865", "shape": [1, 64], "dtype": "float32"}, {"name": "PartitionedCall/model_2/rnn_2/time", "shape": [], "dtype": "int32"}, {"name": "PartitionedCall/model_2/rnn_2/strided_slice", "shape": [], "dtype": "int32"}, {"name": "PartitionedCall/model_2/rnn_2/while/loop_counter", "shape": [], "dtype": "int32"}, {"name": "PartitionedCall/model_2/rnn_2/TensorArrayV2Stack/TensorListStack/element_shape", "shape": [2], "dtype": "int32"}, {"name": "PartitionedCall/model_2/rnn_2/transpose_1/perm", "shape": [3], "dtype": "int32"}, {"name": "PartitionedCall/model_2/tf.expand_dims_6/ExpandDims/dim", "shape": [], "dtype": "int32"}, {"name": "PartitionedCall/model_2/rnn_3/TensorArrayV2_1/element_shape", "shape": [2], "dtype": "int32"}, {"name": "853", "shape": [1, 64], "dtype": "float32"}, {"name": "847", "shape": [1, 64], "dtype": "float32"}, {"name": "851", "shape": [31, 64], "dtype": "float32"}, {"name": "845", "shape": [1, 64], "dtype": "float32"}, {"name": "PartitionedCall/model_2/rnn/TensorArrayV2_1/element_shape", "shape": [2], "dtype": "int32"}, {"name": "837", "shape": [1, 64], "dtype": "float32"}, {"name": "831", "shape": [1, 64], "dtype": "float32"}, {"name": "835", "shape": [31, 64], "dtype": "float32"}, {"name": "829", "shape": [1, 64], "dtype": "float32"}, {"name": "PartitionedCall/model_2/rnn/TensorArrayUnstack/TensorListFromTensor/element_shape", "shape": [2], "dtype": "int32"}, {"name": "823", "shape": [64, 256], "dtype": "float32"}, {"name": "825", "shape": [31, 64], "dtype": "float32"}, {"name": "827", "shape": [64, 256], "dtype": "float32"}, {"name": "833", "shape": [1, 64], "dtype": "float32"}, {"name": "PartitionedCall/model_2/rnn/time", "shape": [], "dtype": "int32"}, {"name": "PartitionedCall/model_2/rnn/strided_slice", "shape": [], "dtype": "int32"}, {"name": "PartitionedCall/model_2/rnn/while/loop_counter", "shape": [], "dtype": "int32"}, {"name": "PartitionedCall/model_2/rnn/TensorArrayV2Stack/TensorListStack/element_shape", "shape": [2], "dtype": "int32"}, {"name": "PartitionedCall/model_2/rnn/transpose_1/perm", "shape": [3], "dtype": "int32"}, {"name": "PartitionedCall/model_2/tf.expand_dims/ExpandDims/dim", "shape": [], "dtype": "int32"}, {"name": "PartitionedCall/model_2/rnn_1/TensorArrayV2_1/element_shape", "shape": [2], "dtype": "int32"}, {"name": "821", "shape": [1, 64], "dtype": "float32"}, {"name": "815", "shape": [1, 64], "dtype": "float32"}, {"name": "819", "shape": [31, 64], "dtype": "float32"}, {"name": "813", "shape": [1, 64], "dtype": "float32"}, {"name": "779", "shape": [3, 3, 1, 32], "dtype": "float32"}, {"name": "781", "shape": [32], "dtype": "float32"}, {"name": "783", "shape": [3, 3, 32, 64], "dtype": "float32"}, {"name": "785", "shape": [64], "dtype": "float32"}, {"name": "787", "shape": [3, 3, 64, 128], "dtype": "float32"}, {"name": "789", "shape": [128], "dtype": "float32"}, {"name": "791", "shape": [3, 3, 128, 128], "dtype": "float32"}, {"name": "793", "shape": [128], "dtype": "float32"}, {"name": "795", "shape": [3, 3, 128, 256], "dtype": "float32"}, {"name": "797", "shape": [256], "dtype": "float32"}, {"name": "799", "shape": [3, 3, 256, 256], "dtype": "float32"}, {"name": "801", "shape": [256], "dtype": "float32"}, {"name": "803", "shape": [2, 2, 256, 64], "dtype": "float32"}, {"name": "805", "shape": [64], "dtype": "float32"}, {"name": "PartitionedCall/model_2/tf.compat.v1.transpose/transpose/perm", "shape": [4], "dtype": "int32"}, {"name": "PartitionedCall/model_2/tf.reshape/Reshape/shape", "shape": [3], "dtype": "int32"}, {"name": "PartitionedCall/model_2/rnn_1/TensorArrayUnstack/TensorListFromTensor/element_shape", "shape": [2], "dtype": "int32"}, {"name": "807", "shape": [64, 256], "dtype": "float32"}, {"name": "809", "shape": [31, 64], "dtype": "float32"}, {"name": "811", "shape": [64, 256], "dtype": "float32"}, {"name": "817", "shape": [1, 64], "dtype": "float32"}, {"name": "PartitionedCall/model_2/rnn_1/time", "shape": [], "dtype": "int32"}, {"name": "PartitionedCall/model_2/rnn_1/strided_slice", "shape": [], "dtype": "int32"}, {"name": "PartitionedCall/model_2/rnn_1/while/loop_counter", "shape": [], "dtype": "int32"}, {"name": "PartitionedCall/model_2/rnn_1/TensorArrayV2Stack/TensorListStack/element_shape", "shape": [2], "dtype": "int32"}, {"name": "PartitionedCall/model_2/rnn_1/transpose_1/perm", "shape": [3], "dtype": "int32"}, {"name": "PartitionedCall/model_2/tf.expand_dims_1/ExpandDims/dim", "shape": [], "dtype": "int32"}, {"name": "PartitionedCall/model_2/tf.concat/concat/axis", "shape": [], "dtype": "int32"}, {"name": "PartitionedCall/model_2/tf.compat.v1.transpose_3/transpose/perm", "shape": [4], "dtype": "int32"}, {"name": "PartitionedCall/model_2/tf.compat.v1.transpose_4/transpose/perm", "shape": [4], "dtype": "int32"}, {"name": "PartitionedCall/model_2/tf.reshape_1/Reshape/shape", "shape": [3], "dtype": "int32"}, {"name": "PartitionedCall/model_2/rnn_3/TensorArrayUnstack/TensorListFromTensor/element_shape", "shape": [2], "dtype": "int32"}, {"name": "839", "shape": [128, 256], "dtype": "float32"}, {"name": "841", "shape": [31, 64], "dtype": "float32"}, {"name": "843", "shape": [64, 256], "dtype": "float32"}, {"name": "849", "shape": [1, 64], "dtype": "float32"}, {"name": "PartitionedCall/model_2/rnn_3/time", "shape": [], "dtype": "int32"}, {"name": "PartitionedCall/model_2/rnn_3/strided_slice", "shape": [], "dtype": "int32"}, {"name": "PartitionedCall/model_2/rnn_3/while/loop_counter", "shape": [], "dtype": "int32"}, {"name": "PartitionedCall/model_2/rnn_3/TensorArrayV2Stack/TensorListStack/element_shape", "shape": [2], "dtype": "int32"}, {"name": "PartitionedCall/model_2/rnn_3/transpose_1/perm", "shape": [3], "dtype": "int32"}, {"name": "PartitionedCall/model_2/tf.expand_dims_7/ExpandDims/dim", "shape": [], "dtype": "int32"}, {"name": "PartitionedCall/model_2/tf.concat_3/concat/axis", "shape": [], "dtype": "int32"}, {"name": "PartitionedCall/model_2/tf.compat.v1.transpose_6/transpose/perm", "shape": [4], "dtype": "int32"}, {"name": "PartitionedCall/model_2/tf.compat.v1.transpose_7/transpose/perm", "shape": [4], "dtype": "int32"}, {"name": "PartitionedCall/model_2/tf.reshape_2/Reshape/shape", "shape": [3], "dtype": "int32"}, {"name": "871", "shape": [128, 64], "dtype": "float32"}, {"name": "873", "shape": [64], "dtype": "float32"}, {"name": "PartitionedCall/model_2/output/transpose/perm", "shape": [3], "dtype": "int32"}, {"name": "PartitionedCall/model_2/rnn_2/while/body/_276/model_2/rnn_2/while/custom_lstm_cell_2/split/split_dim", "shape": [], "dtype": "int32"}, {"name": "PartitionedCall/model_2/rnn_2/while/body/_276/model_2/rnn_2/while/TensorArrayV2Read/TensorListGetItem/element_shape", "shape": [2], "dtype": "int32"}, {"name": "PartitionedCall/model_2/rnn_2/while/body/_276/model_2/rnn_2/while/add/y", "shape": [], "dtype": "int32"}, {"name": "PartitionedCall/model_2/rnn_2/while/body/_276/model_2/rnn_2/while/add_1/y", "shape": [], "dtype": "int32"}, {"name": "PartitionedCall/model_2/rnn/while/body/_126/model_2/rnn/while/custom_lstm_cell/split/split_dim", "shape": [], "dtype": "int32"}, {"name": "PartitionedCall/model_2/rnn/while/body/_126/model_2/rnn/while/TensorArrayV2Read/TensorListGetItem/element_shape", "shape": [2], "dtype": "int32"}, {"name": "PartitionedCall/model_2/rnn/while/body/_126/model_2/rnn/while/add/y", "shape": [], "dtype": "int32"}, {"name": "PartitionedCall/model_2/rnn/while/body/_126/model_2/rnn/while/add_1/y", "shape": [], "dtype": "int32"}, {"name": "PartitionedCall/model_2/rnn_1/while/body/_51/model_2/rnn_1/while/custom_lstm_cell_1/split/split_dim", "shape": [], "dtype": "int32"}, {"name": "PartitionedCall/model_2/rnn_1/while/body/_51/model_2/rnn_1/while/TensorArrayV2Read/TensorListGetItem/element_shape", "shape": [2], "dtype": "int32"}, {"name": "PartitionedCall/model_2/rnn_1/while/body/_51/model_2/rnn_1/while/add/y", "shape": [], "dtype": "int32"}, {"name": "PartitionedCall/model_2/rnn_1/while/body/_51/model_2/rnn_1/while/add_1/y", "shape": [], "dtype": "int32"}, {"name": "PartitionedCall/model_2/rnn_3/while/body/_201/model_2/rnn_3/while/custom_lstm_cell_3/split/split_dim", "shape": [], "dtype": "int32"}, {"name": "PartitionedCall/model_2/rnn_3/while/body/_201/model_2/rnn_3/while/TensorArrayV2Read/TensorListGetItem/element_shape", "shape": [2], "dtype": "int32"}, {"name": "PartitionedCall/model_2/rnn_3/while/body/_201/model_2/rnn_3/while/add/y", "shape": [], "dtype": "int32"}, {"name": "PartitionedCall/model_2/rnn_3/while/body/_201/model_2/rnn_3/while/add_1/y", "shape": [], "dtype": "int32"}]}]}